promptPGpot/checkpoints/exp0/ckpt_3.pt (torch, 394659 bytes, 2 tensors)

weight f4 [128, 768]
0	0xbcb923c9	-0.022600072
1	0xb96f6e48	-0.00022833899
2	0x3cd9e8ef	0.02660033
3	0xbbe6e4b6	-0.0070463074
4	0xbc331076	-0.010929218
5	0x3cc53ed2	0.024077807
6	0x3a99189c	0.0011680308
7	0xbd0a70df	-0.03379905
8	0xbca8ea04	-0.0206194
9	0x3d123436	0.035694323
10	0x3c9fe712	0.019519363
11	0x3ce575eb	0.02801033
12	0x3d04f6c8	0.03246191
13	0x3c61794f	0.013761832
14	0x3c6f3b05	0.014601474
15	0xbcef04e6	-0.02917714
16	0x3c817050	0.015800625
17	0xbc1fb668	-0.009748079
18	0xbaaf05e0	-0.0013353191
19	0xbcf513dd	-0.029916698
20	0xbcbab983	-0.022793537
21	0xbc4bf812	-0.012449281
22	0xbcc0cc51	-0.023534926
23	0x3c9a3ee9	0.018828826
24	0x3bf75835	0.007548357
25	0x3b985e57	0.004649918
26	0x3c88fc9a	0.016722012
27	0x3ceb3b9e	0.028714951
28	0x3cc4e699	0.024035739
29	0x3c20d65d	0.009816733
30	0xbc36da57	-0.011160455
31	0xbcedf18d	-0.029045844
32	0x3c857aed	0.016293967
33	0xbd09aee0	-0.03361404
34	0x3bf7dbf5	0.0075640627
35	0xb989c039	-0.00026273893
36	0xbb6ef008	-0.0036458988
37	0x3ceb74fb	0.028742304
38	0xbcd6af1e	-0.02620655
39	0xbc347036	-0.011013081
40	0x3ce363bc	0.027757518
41	0x3be1a29d	0.00688584
42	0x3a5004b9	0.0007935274
43	0x3c73d1fa	0.014881605
44	0xbcac0de6	-0.021002721
45	0xbc237614	-0.0099768825
46	0x3d31aecc	0.04337959
47	0xbc301de6	-0.010749316
48	0xbc52040d	-0.012818349
49	0xbce8bb7a	-0.028409708
50	0xbce16603	-0.027514463
51	0xbce90d4c	-0.028448723
52	0x3c91ba5b	0.017789057
53	0x3cce4fd3	0.025184548
54	0x3aad5394	0.0013223761
55	0x3d0d1e04	0.034452453
56	0xbd05f99d	-0.032708753
57	0x3cd0d658	0.025492832
58	0xbd0aad7a	-0.033856846
59	0xbc648760	-0.013948292
60	0x3cd9c00b	0.026580831
61	0xbcf393f2	-0.029733632
62	0xbbb1a5de	-0.0054213842
63	0x3bad80d1	0.005294897
64	0x3b5a3332	0.0033294675
65	0x3cbf9de6	0.023390722
66	0x391713b4	0.00014407822
67	0x3cb9ab92	0.022664819
68	0xbc5b83aa	-0.01339809
69	0x3c48fef1	0.012267814
70	0xbb6eaf38	-0.0036420356
71	0xbc9186d0	-0.017764479
72	0x3d154327	0.036440995
73	0x3c6f52aa	0.014607111
74	0xbaf4c29e	-0.0018673723
75	0xbd1ce483	-0.038303863
76	0xbbb0e8d6	-0.00539885
77	0xbcf3ad71	-0.02974579
78	0x3c8f8c68	0.017523006
79	0x3c89ec4a	0.016836304
80	0xbd097237	-0.03355619
81	0x3b7e3514	0.0038788961
82	0xbcafefa4	-0.021476574
83	0xbc4ed47a	-0.012623901
84	0x3c9d0da8	0.01917155
85	0x3cb915fc	0.02259349
86	0x3b901fd1	0.004398324
87	0x3856d2fa	5.1218063e-05
88	0xbcbe6754	-0.02324263
89	0x3bc0d921	0.005885259
90	0x3cd67ba9	0.026182013
91	0x3c561a67	0.013067818
92	0x3d0f4597	0.034978475
93	0x3ba2cf3d	0.0049685524
94	0xbcec75ea	-0.02886482
95	0x3bbe408b	0.005806034
96	0xbc0bf83a	-0.008543069
97	0x3cddadcd	0.027060414
98	0x3ca8f536	0.020624738
99	0xbbcf4577	-0.0063254195
100	0xbd26531c	-0.040606603
101	0xbc5f4721	-0.013627798
102	0x3cf01dd2	0.029311094
103	0xba3d8eca	-0.0007231055
104	0xbbb7a6b0	-0.0056045875
105	0xbc35c5b3	-0.011094498
106	0x3caa02b5	0.020753244
107	0xbbe3bd61	-0.006950066
108	0xbc3480e6	-0.01101706
109	0x3b6ae5cd	0.0035842538
110	0x3c593a44	0.0132585205
111	0xbcf67554	-0.030085243
112	0xbc5052e3	-0.012715074
113	0xbc2834d7	-0.010266504
114	0xbd0409e1	-0.032235984
115	0x3aafc271	0.0013409388
116	0xbc0f4114	-0.008743543
117	0x3c91c271	0.017792912
118	0xbce20acc	-0.027593039
119	0x3c5af07a	0.013362998
120	0x3d34ed1c	0.044171438
121	0x3c77773a	0.015104109
122	0x3c9df0c7	0.01927985
123	0xbc64cfc7	-0.013965554
124	0xbca32b61	-0.019918146
125	0xbcc048e6	-0.02347226
126	0x39ce8bb6	0.00039395475
127	0x3b8d148c	0.004305428
128	0x3b9fda3c	0.0048783105
129	0xbc96767f	-0.01836705
130	0xbc968a21	-0.018376412
131	0xbb9b106b	-0.004732182
132	0xba954c8f	-0.0011390614
133	0xbc8186a7	-0.015811278
134	0xbcb892bd	-0.022530908
135	0xbc14c088	-0.009079106
136	0x3cb5d816	0.022197764
137	0xbcae46a6	-0.021273922
138	0xbc6ec4b7	-0.014573268
139	0x3d24c2c4	0.040224805
140	0xbc680fa2	-0.014163883
141	0xbc86359f	-0.01638299
142	0xbcfac3d6	-0.03061096
143	0x3cce97a0	0.025218785
144	0xbd1e2024	-0.03860487
145	0x3cd0e599	0.025500106
146	0x3d27cf1d	0.040969003
147	0xbc8e7a51	-0.01739231
148	0xbab35754	-0.0013682642
149	0xbc737c03	-0.01486111
150	0xbc6c8742	-0.014436545
151	0x3c8305c8	0.015993968
152	0x3d1bce89	0.038038764
153	0x3d0e7878	0.034782857
154	0xbc4c6e15	-0.0124774175
155	0x3d096ab2	0.03354902
156	0xbcdb9c88	-0.026808038
157	0xbc5e3753	-0.013562995
158	0x3bfcb6aa	0.007712205
159	0xbc41c542	-0.011826815
160	0xbc5eaba4	-0.013590727
161	0x3cb50a1f	0.022099553
162	0x3cc8d4b7	0.024515493
163	0x3bc6bcbf	0.0060649808
164	0xbcc70c45	-0.024297843
165	0x3d0220db	0.031769615
166	0xbc874dbb	-0.016516557
167	0xbcbdd119	-0.023170995
168	0xbd235374	-0.03987451
169	0xbc93dc9e	-0.018049534
170	0xbcc7afeb	-0.024375876
171	0x3d07ecfb	0.033184987
172	0x381d2268	3.746376e-05
173	0xbc4d4fd6	-0.012531241
174	0xbbeac817	-0.007164966
175	0xbc3bd670	-0.0114647
176	0xbd0ae76e	-0.033912115
177	0x3c1cb5a6	0.009564793
178	0xbc931ad8	-0.017957136
179	0x3cf5add3	0.029990112
180	0xbc195480	-0.009358525
181	0xbc97c1eb	-0.018525084
182	0x3b985217	0.0046484577
183	0xbd3a9f28	-0.04556194
184	0xbced5441	-0.02897084
185	0x3cb844ca	0.022493739
186	0xba814458	-0.0009862287
187	0xbcb51490	-0.022104532
188	0x3d0f54be	0.034992926
189	0x3ce83a8e	0.028348234
190	0x3c0fdafd	0.008780238
191	0x3ca23f5b	0.0198056
192	0x3c8d2393	0.017228877
193	0x3c88aeb5	0.01668487
194	0xbcd32b79	-0.025777565
195	0xbd16e3e7	-0.03683844
196	0xbbf6635f	-0.00751917
197	0x3ca3f8a2	0.020016018
198	0x39f6d04e	0.00047075975
199	0x3c70884d	0.014680934
200	0x3c536153	0.012901622
201	0x3c81d78e	0.015849855
202	0x3cb316a8	0.02186139
203	0xba09b298	-0.0005252748
204	0x3c25a8f1	0.01011108
205	0xbca35c15	-0.01994137
206	0x3d28c91a	0.04120741
207	0xbd13c797	-0.036079016
208	0x3d04862c	0.03235452
209	0x3bd813b4	0.0065941457
210	0xbc345a35	-0.011007835
211	0x3cad3c87	0.021147026
212	0xbbe75cfd	-0.0070606456
213	0xbd16e026	-0.03683486
214	0x3c43deaf	0.011954947
215	0xbcb5713c	-0.02214872
216	0xbc4e3d92	-0.012587922
217	0xbc9b026d	-0.018922055
218	0x3c4c3e1d	0.012465981
219	0x3c996ab4	0.018727638
220	0xbc447b31	-0.011992262
221	0x3ce250d2	0.027626429
222	0xba72ac9f	-0.000925729
223	0x3d0965bb	0.033544283
224	0x3d2b8dc9	0.041883264
225	0xbd2eb39d	-0.04265176
226	0x3ca4ab6c	0.020101272
227	0xbcff812d	-0.031189525
228	0xbd08d3ba	-0.033405043
229	0xbac4f9c4	-0.0015028049
230	0x3ba3f707	0.005003813
231	0xbb80a903	-0.0039263978
232	0xbc9551d5	-0.018227497
233	0xbd36a297	-0.04458865
234	0xbc758bc7	-0.014986939
235	0x3c9142d5	0.017732063
236	0x3c8a8cd7	0.01691286
237	0x3d0d32bb	0.03447221
238	0x3d0a9ea7	0.03384271
239	0xba7b1b98	-0.0009579002
240	0xbc1b814e	-0.009491278
241	0xbca5218c	-0.020157598
242	0xbcd6b147	-0.02620758
243	0x3cca5b66	0.024701785
244	0x3c2cf1bf	0.010555684
245	0x3d2d6f79	0.042342637
246	0xbbee1936	-0.007266189
247	0x3bffcb65	0.007806229
248	0x3cb4c715	0.022067586
249	0x3c83c37b	0.016084423
250	0x3ba2b224	0.0049650837
251	0xbc22e467	-0.009942151
252	0xbd026be9	-0.031841192
253	0x3d2b1c81	0.04177523
254	0x3cd96fe8	0.026542619
255	0x3be40605	0.0069587254

bias f4 [128]
0	0xbc90705a	-0.017631698
1	0xbc6a9c2c	-0.014319461
2	0xbcc7317d	-0.02431559
3	0xba788c6f	-0.00094813755
4	0x3b0a2333	0.002107811
5	0xbcaaaabb	-0.020833364
6	0xbcf758ae	-0.030193653
7	0x3cd9131a	0.026498366
8	0xbc73f529	-0.014889994
9	0xbba9d30e	-0.0051826304
10	0x3c2252c9	0.009907433
11	0x3bc09bd8	0.005877953
12	0xbc76fef8	-0.015075438
13	0xbcbc9604	-0.023020752
14	0xbce6679d	-0.028125579
15	0x3ba365cd	0.004986501
16	0x3bb75553	0.0055948882
17	0xbcc601ab	-0.024170717
18	0x39e65173	0.00043929703
19	0xbca705f0	-0.020388573
20	0xbcfa1a25	-0.030530045
21	0xbb915960	-0.004435703
22	0xbcc3e239	-0.023911582
23	0x3cbcd7f3	0.023052191
24	0xbccf618a	-0.025315065
25	0xbc7f055c	-0.015565243
26	0x3c05d7e5	0.008169149
27	0x3cff4a99	0.0311635
28	0xbccb27cf	-0.024799256
29	0xbca1b431	-0.019739242
30	0xbd01a51b	-0.031651597
31	0xbc52ba4b	-0.0128617985
32	0xbd1ea776	-0.038733922
33	0xbc9e2b92	-0.019307885
34	0x39c204a4	0.0003700602
35	0x3c51fa60	0.012816042
36	0x3ca977c7	0.020686997
37	0x3cdf9fb3	0.02729783
38	0xbcbf1e4f	-0.023329882
39	0xbc15707d	-0.009121058
40	0x3cbb5014	0.022865333
41	0x3d1309dd	0.03589808
42	0x3cbb7f72	0.02288792
43	0x3c81b528	0.015833452
44	0x3d02303d	0.031784285
45	0x3d0884da	0.033329822
46	0xbcf650ce	-0.030067828
47	0xbd1ce987	-0.038308647
48	0xbca4019a	-0.020020295
49	0x3c923073	0.017845368
50	0xbc16172f	-0.009160801
51	0xbd1be295	-0.038057882
52	0xba5dc571	-0.0008459902
53	0x3b69aa82	0.003565461
54	0xbcd6910f	-0.026192216
55	0x3b68a451	0.003549833
56	0x3c8c0b9c	0.01709538
57	0xbce211b5	-0.027596334
58	0x3b41b08b	0.002955469
59	0x3c39d889	0.01134313
60	0x3d01258d	0.03152995
61	0xbc60fe96	-0.013732573
62	0x3d164d43	0.036694776
63	0xbc403caf	-0.011733218
64	0x3ce79d8f	0.028273372
65	0xbc9ae4f2	-0.018907998
66	0xbc370d7b	-0.011172648
67	0xbd07a349	-0.033114705
68	0x3c28bb38	0.010298543
69	0xbcf3cd76	-0.029761057
70	0xbcc47f07	-0.023986353
71	0x3b43bd42	0.0029867445
72	0x3d07b403	0.033130657
73	0x3be12c02	0.006871701
74	0x3c95e1e8	0.018296197
75	0xbc80df8c	-0.015731595
76	0x3c9eba39	0.019375907
77	0xbc7c05a3	-0.015382203
78	0xbc3324dd	-0.010934082
79	0x3c83740f	0.016046552
80	0x3d0f999d	0.035058606
81	0x3cd92db9	0.02651106
82	0xbbf62517	-0.0075117457
83	0x3c49c5ed	0.012315256
84	0x3d0435cc	0.032277867
85	0x3b6f0332	0.003647041
86	0x3af5a9db	0.0018742637
87	0x3b82bcc4	0.003989788
88	0xbca010fc	-0.019539349
89	0x3c970a51	0.018437536
90	0x3ca38df3	0.019965148
91	0x3c1434a4	0.009045754
92	0xbc0ce447	-0.008599347
93	0x3ca5e543	0.020250922
94	0x3b6ea74a	0.003641563
95	0xbba89aac	-0.0051453914
96	0xbd339a33	-0.043848228
97	0xbcfeffe1	-0.031127872
98	0x3c05390a	0.008131275
99	0xbc09181d	-0.008367565
100	0x3b6c4256	0.0036050281
101	0x3c87beed	0.016570533
102	0x3bce4bc6	0.006295654
103	0xbcbea5fa	-0.023272503
104	0x3d051c2d	0.032497574
105	0xbcaf8860	-0.021427333
106	0x3c3f69b2	0.011682915
107	0xbca491a1	-0.020088973
108	0x3ce4e53e	0.027941342
109	0x3cef2710	0.029193431
110	0xbcd8a900	-0.026447773
111	0xbba9b274	-0.005178744
112	0xbce0da29	-0.027447777
113	0xbba35e34	-0.004985595
114	0x3d27c5a2	0.04095996
115	0x3ceb9044	0.028755315
116	0xbd1d1d0d	-0.038357783
117	0x3bd92c06	0.0066275625
118	0x3b1fdc46	0.0024392768
119	0x3a6abf3f	0.00089548895
120	0x3be23a8d	0.0069039525
121	0x3ca963d8	0.020677492
122	0xbc493c8f	-0.012282505
123	0xbcd0e05c	-0.025497608
124	0xbd0e586f	-0.034752306
125	0x3d1e129e	0.038591973
126	0xbc9a8880	-0.018863916
127	0x3b5bc1aa	0.003353218
