promptPGpot/checkpoints/exp0/ckpt_best_loss.pt (torch, 394819 bytes, 2 tensors)

weight f4 [128, 768]
00000000: fa93 bdbc 4212 8b38 4529 dd3c 125e fabb
00000010: c466 24bc 50bd c13c c23a 383a bf8f 09bd
00000020: 7927 b0bc bcc6 113d ac1b 983c 7ca2 e43c
00000030: 4165 063d 3ad5 5f3c fd80 713c ff55 f6bc
00000040: 8785 7a3c cd90 1fbc 87cd 88ba c84b f7bc
00000050: 8ff1 c2bc 470c 4cbc 1e0f c5bc 85a0 973c
00000060: 6bce e43b e45a 943b 84ff 943c 2e0d f33c
00000070: 0ee4 cb3c 1652 1a3c fc41 3bbc 6098 f3bc
00000080: eb28 8a3c 6ba5 08bd 5bba d63b 1f58 31ba
00000090: d393 4bbb 1fdf ea3c 6839 d9bc 84fb 34bc
000000a0: 17e8 e63c fe14 ce3b c20b 9339 e79c 703c
000000b0: 7bee a9bc 9f9e 2dbc 86f4 353d 6040 2ebc
000000c0: d694 44bc cc74 debc 24bc ddbc a5e5 e2bc
000000d0: 0b59 973c 0dd1 cb3c d0e2 c13a fa49 0b3d
000000e0: 84e9 08bd 7dbb d23c 6ea7 0cbd b020 5ebc
000000f0: 4881 dd3c 87e8 f6bc 8a1e b5bb a7ee a33b
00000100: 4019 7a3b 9ec5 bd3c 8519 533a 5133 b73c
00000110: 08d7 4bbc 639c 333c 82fa 58bb e6a0 93bc
00000120: b840 123d 5e60 753c 6329 1fbb 894d 1cbd
00000130: 4836 a7bb 9289 fbbc 7a7c 953c 6566 8d3c
00000140: 1a5f 06bd 928d 843b 4897 b4bc 7f21 55bc
00000150: fda3 983c 8bdf bb3c 52fb 6b3b 5120 3e3a
00000160: c1e8 b9bc 484f bb3b 5a7c dd3c 0621 4c3c
00000170: 5c99 103d 73f0 a33b 9311 ebbc 3f1b ba3b
00000180: 7816 13bc f765 de3c ef04 a93c 1874 eebb
00000190: 72ae 28bd 3d88 5fbc eb75 ec3c 5abe 54ba
000001a0: c379 9fbb f786 3abc ea0d ad3c 39ef cebb
000001b0: 23c2 3dbc cfac 553b f7df 5d3c 28ce eebc
000001c0: 096e 4ebc 895c 25bc 97b6 00bd 098d 343a
000001d0: a628 17bc 4fb6 953c 5715 e7bc b1d2 4a3c
000001e0: fc9a 363d 3f39 7a3c 30d0 a13c 7685 61bc
000001f0: 9603 9fbc 04f6 bfbc 1a15 f7b9 bc42 9e3b
00000200: 936e 7d3b 16ac 8dbc 79fc 98bc ef03 b1bb
00000210: 8ba9 61ba 677f 80bc b603 b6bc fac2 1abc
00000220: bbea b73c 74d3 b2bc a6ae 69bc d84e 223d
00000230: 27d9 5abc 497a 7dbc 83e7 fabc e4a7 d33c
00000240: 1c9a 21bd f969 d43c 8c6a 253d 59e6 8fbc
00000250: f544 b7ba 68b8 80bc 8067 75bc 7944 863c
00000260: cfca 1b3d e7bd 0e3d 53e6 4ebc 6500 053d
00000270: bc19 cfbc 781b 69bc 7bb1 003c 6d22 53bc
00000280: 286e 59bc 3bbf af3c badf c73c f846 bd3b
00000290: a7a7 c4bc 8022 ff3c 705b 85bc a981 c9bc
000002a0: f32d 21bd ecf9 92bc b3d8 c1bc 0642 0b3d
000002b0: 818e a3ba 26b6 4bbc f198 d7bb ed50 4bbc
000002c0: 1295 0dbd e5b0 133c 989f 96bc 4efc ee3c
000002d0: 082d 12bc aa9e 94bc 996b af3b c480 3abd
000002e0: 89ae f5bc de19 bf3c 2125 99ba 653d b6bc
000002f0: 8428 103d 34d8 e03c e484 1f3c 9631 a83c
00000300: 410f 8b3c 9415 853c fec9 d9bc f8cf 13bd
00000310: 638a 00bc d720 a03c 9453 ccb8 9827 793c
00000320: 03d4 593c 058d 783c e31f af3c 1acc 7a39
00000330: b1ff 2c3c 52db a6bc 3cc9 293d 3b7c 11bd
00000340: 442a 043d 672a c23b e449 2cbc 188d b13c
00000350: a35a debb f9b3 19bd ba5e 3f3c 22c0 bbbc
00000360: 7dc7 54bc 6199 97bc 185c 443c 0c27 9a3c
00000370: e96f 57bc 723b e23c bd30 eeb9 155b 0a3d
00000380: 0fc5 2d3d c1f2 2dbd 4623 9e3c 0d14 01bd
00000390: c569 0cbd a43e 5eba 0a5c 8d3b 237a 7cbb
000003a0: d1b3 93bc 2d60 34bd 3940 6cbc 22ca 913c
000003b0: f62a 853c 45f7 0a3d 9cf9 073d 5e60 f3b8
000003c0: 05db 12bc 64b6 b0bc 4fcd d5bc 7c56 c13c
000003d0: 02bb 263c d975 2b3d 8726 eabb f7bf 083c
000003e0: 3ef3 ae3c 964c 813c 45b7 983b 539c 23bc
000003f0: 2b88 05bd c86a 283d df48 d63c c404 dc3b
-0.02314185 6.631437e-05 0.026997218 -0.0076406086 -0.010034267 0.023649842 0.00070277986 -0.033584353
-0.021503197 0.03558992 0.018567882 0.02790951 0.032811407 0.013661677 0.014740226 -0.030070303
0.015290624 -0.009739113 -0.0010437228 -0.030187503 -0.023796825 -0.012454099 -0.02405506 0.018509159
0.0069826148 0.0045274366 0.018188246 0.02966937 0.024889018 0.009418985 -0.011429306 -0.029735744
0.016865214 -0.03336088 0.006552977 -0.0006765145 -0.0031063452 0.028670846 -0.026516631 -0.011046294
0.028186841 0.0062891236 0.00028046785 0.014685846 -0.0207436 -0.0105969 0.04442265 -0.010635465
-0.011998376 -0.027155302 -0.027067252 -0.027697394 0.018475076 0.024879957 0.0014792327 0.034006096
-0.033425823 0.025724167 -0.03433936 -0.013557598 0.027039185 -0.030140175 -0.005527322 0.005002815
0.0038162023 0.02316552 0.0008052814 0.022363337 -0.012441404 0.0109625785 -0.0033108299 -0.018021058
0.03570625 0.014976589 -0.0024286143 -0.03815988 -0.0051029064 -0.030705247 0.018247832 0.01726074
-0.03280554 0.004045197 -0.022044793 -0.013008474 0.018632883 0.022933742 0.0036007953 0.00072527403
-0.022693994 0.005716238 0.027036835 0.012459045 0.035302505 0.005003029 -0.028694903 0.0056795175
-0.008977525 0.02714823 0.020632235 -0.007277023 -0.04118199 -0.013643322 0.028864821 -0.0008115523
-0.00486681 -0.011384717 0.021124799 -0.0063151387 -0.01158193 0.0032604223 0.013542167 -0.029151037
-0.012599477 -0.010092863 -0.03142413 0.0006887471 -0.009226 0.018275408 -0.028208418 0.012379334
0.0445814 0.015272438 0.019752592 -0.01376473 -0.01941089 -0.02343274 -0.00047127233 0.0048297327
0.0038670644 -0.017293971 -0.018675076 -0.0054020802 -0.0008608333 -0.01568575 -0.022218566 -0.0094459
0.022450795 -0.021829344 -0.014262831 0.039625973 -0.013357437 -0.01547105 -0.030627972 0.025836892
-0.03945361 0.025929438 0.040384814 -0.017565893 -0.0013982343 -0.015712932 -0.01497829 0.016390072
0.03803521 0.034849074 -0.012628156 0.03247108 -0.025280826 -0.0142277405 0.007854815 -0.012886626
-0.013270892 0.02145349 0.024398673 0.0057762824 -0.024005724 0.03114438 -0.016278952 -0.02459796
-0.03935046 -0.017941438 -0.0236629 0.03399851 -0.0012478383 -0.012433564 -0.0065795113 -0.012409431
-0.034565993 0.009014343 -0.018386647 0.029173043 -0.008921869 -0.018142063 0.005353403 -0.045532957
-0.029990451 0.023327764 -0.0011684039 -0.022246072 0.03519489 0.027446844 0.009736273 0.020531457
0.016975047 0.01624564 -0.026585575 -0.036087006 -0.007845494 0.01954691 -9.743046e-05 0.015207194
0.013295176 0.01517034 0.02137751 0.00023917892 0.010559008 -0.020368252 0.041451678 -0.035518866
0.03226687 0.005925465 -0.010515664 0.021673724 -0.006785707 -0.03752515 0.011680299 -0.022918765
-0.012987015 -0.018505754 0.0119848475 0.018817447 -0.01314924 0.027616236 -0.0004543121 0.03377827
0.042424258 -0.042467836 0.019303929 -0.031513263 -0.034280557 -0.0008477962 0.0043139504 -0.0038524948
-0.01803008 -0.044037033 -0.014419609 0.01779658 0.016255837 0.03392722 0.03319703 -0.00011605093
-0.008963351 -0.021571346 -0.026098875 0.02360081 0.010176422 0.041860435 -0.007145706 0.008346549
0.021356221 0.01578359 0.0046605193 -0.009986001 -0.032600563 0.04111746 0.026157795 0.0067144353

bias f4 [128]
00000000: ab38 96bc 171f 6bbc a92e c7bc 74e5 2cba
00000010: 7158 163b 68b6 aabc b484 f7bc 566e d93c
00000020: 030b 74bc a9f2 b3bb 69ff 203c c7a0 d53b
00000030: 27d5 7abc 4c4d bdbc 93cf e4bc ecaf a23b
00000040: 43b9 b33b 0789 c5bc bd1a 073a 56ad acbc
00000050: 278a fabc 9768 97bb 31c2 bfbc f4df bc3c
00000060: 9ad4 cfbc 60d8 7ebc 5b8d 063c 7efc fd3c
00000070: 1145 cbbc 10f3 a3bc ec14 03bd a515 4cbc
00000080: 90b7 1ebd 71a8 9fbc 360c 633a 9dc1 543c
00000090: 6b63 ab3c 5714 df3c 4579 bfbc 12f6 17bc
000000a0: 54b0 b13c 9429 133d 49cc ba3c 1273 843c
000000b0: 16c5 023d 972e 083d 5df8 f6bc 8c2b 1dbd
000000c0: 29bd a1bc c0b0 8e3c 0d48 14bc e615 1cbd
000000d0: 387d 70ba a5ee 633b 33da d6bc 5cec 723b
000000e0: 6a9f 8b3c 4b11 e1bc a931 213b 3634 3b3c
000000f0: e90e 023d 515d 63bc 9d2f 163d db64 42bc
00000100: 6460 ea3c c2a5 9cbc 3835 33bc 8431 07bd
00000110: b65a 293c c003 f4bc 19a3 cbbc ef47 4b3b
00000120: 82db 083d 0af9 e93b 4a67 953c 71ba 82bc
00000130: 4f0f 9f3c ac32 79bc 3e34 33bc 754e 853c
00000140: 09c0 113d 8a1a da3c f49d f3bb 8c05 4b3c
00000150: 0b92 033d 8fef 193b ea9a f23a 5845 4f3b
00000160: 45c7 9fbc 7f59 973c 6081 a53c 9ac6 113c
00000170: fc51 0fbc df45 a33c 38b2 653b 8d72 b1bb
00000180: 95f3 34bd f1f1 fbbc 08e1 023c 1a25 0cbc
00000190: bf29 783b 82ab 823c 651e e03b d37f c5bc
000001a0: 2e5a 053d 4a00 afbc f96c 413c c383 a5bc
000001b0: 6acf ea3c ec0e ea3c 4b8a dabc 986a b6bb
000001c0: 0596 e1bc ae13 a8bb 5296 273d 2386 ec3c
000001d0: e7b6 1cbd 7b8a df3b 9da5 183b 6f53 5c3a
000001e0: aa10 f03b 466e ab3c 5e02 46bc 7616 cfbc
000001f0: b726 0ebd 4ac0 1f3d a1fa 97bc fbf0 513b
-0.018337568 -0.014350674 -0.024314241 -0.00065954705 0.0022940899 -0.020838931 -0.030214645 0.02654187
-0.0148952035 -0.005491574 0.0098265195 0.0065194103 -0.015309609 -0.023108147 -0.02793101 0.004964819
0.0054847314 -0.024113191 0.00051538256 -0.021078747 -0.030583454 -0.0046206224 -0.023408027 0.023056008
-0.025369931 -0.0155545175 0.008212413 0.031004187 -0.024813207 -0.020013362 -0.032002375 -0.012456332
-0.038749278 -0.019489499 0.00086611824 0.012985614 0.02092143 0.027231378 -0.023373256 -0.009274976
0.021690525 0.035928324 0.022802489 0.016168151 0.031926237 0.033247557 -0.030147726 -0.038371608
-0.019743519 0.017418265 -0.009050381 -0.03810682 -0.00091739325 0.0034779694 -0.026227092 0.003706715
0.017043788 -0.027474066 0.002459625 0.011426022 0.0317525 -0.013877229 0.0366665 -0.011864866
0.028610416 -0.019122008 -0.010937981 -0.033006206 0.010336569 -0.029786944 -0.024858044 0.0031018218
0.033412464 0.0071402835 0.018237729 -0.015958043 0.01941648 -0.015209835 -0.0109377485 0.016272763
0.03558353 0.026623983 -0.007434601 0.012391459 0.0321217 0.0023488735 0.0018509303 0.0031627025
-0.019504199 0.018475292 0.020203292 0.008897448 -0.008747574 0.019930778 0.0035048854 -0.005415267
-0.04417761 -0.030755015 0.007988222 -0.008553768 0.003786668 0.015950922 0.006839561 -0.024108803
0.032556705 -0.021362443 0.011805766 -0.02020443 0.028663356 0.028571568 -0.026677271 -0.005566906
-0.027537355 -0.005129299 0.04091484 0.028872555 -0.038260367 0.006821928 0.0023292073 0.00084047666
0.0073262053 0.020926606 -0.012085525 -0.025279265 -0.03470489 0.03900174 -0.018552126 0.0032034505
