promptPGpot/checkpoints/exp0learn_policy_autopot_selfask_epsilon/ckpt_final.pt (torch, 394803 bytes, 2 tensors)

weight f4 [128, 768]
-0.017617747 -0.011497083 0.03701169 0.0004122412 -0.003402707 0.027217267 -0.0064733652 -0.02507105
-0.025065873 0.019964335 0.0129366 0.018648041 0.018861279 0.020910088 0.012886658 -0.023161534
0.012134646 -0.01789674 -0.009387044 -0.035526335 -0.028149948 -0.023453664 -0.011245264 0.01624573
-0.0034630655 0.011020617 0.027031966 0.030508848 0.015335996 0.010893113 -0.022000792 -0.019654913
0.016888542 -0.02773825 0.002930972 0.0034208398 0.001737121 0.029479977 -0.01485614 -0.019623179
0.02021646 0.0036785647 -0.010434639 0.013903423 -0.013325421 -0.0029903294 0.03216912 -0.021381006
-0.00784741 -0.037909083 -0.038391393 -0.031711332 0.021525301 0.032900188 0.01106626 0.028035544
-0.035261948 0.014893391 -0.041719534 -0.022556689 0.033593282 -0.025828589 0.002658302 0.012528911
0.0046137176 0.013733196 0.005018518 0.032348577 -0.017991683 0.006780432 -0.014030354 -0.015888521
0.029620517 0.0054035243 0.0063577914 -0.030513842 0.0061014052 -0.02833676 0.01162333 0.012741964
-0.036746692 0.01816426 -0.0102923885 -0.023815552 0.028171077 0.027930997 0.0073462375 0.008330157
-0.022111326 0.0037056208 0.026051475 0.012214402 0.030445565 0.017163102 -0.032372817 0.013630134
-0.00037589588 0.032336146 0.026548427 -0.00081485347 -0.027635697 -0.022007946 0.025315154 -0.0122313555
-0.0010015467 -0.025161019 0.0303415 0.006807062 -0.007212959 -0.0011311184 0.00451 -0.027543155
-0.016535234 -0.02114167 -0.029035725 0.0024173604 -0.013673368 0.02138325 -0.019720182 0.0151357055
0.03579394 0.022106387 0.011458278 -0.020714069 -0.017452307 -0.011244706 0.006027495 0.013285558
0.0076467977 -0.00437823 -0.0059045264 -0.0025705465 0.004478452 -0.014885123 -0.029786214 0.0022655667
0.015572988 -0.018869616 -0.020122519 0.029750591 -0.02385928 -0.017517695 -0.03568777 0.029400213
-0.028103832 0.028063064 0.028005721 -0.02118851 -0.0021167062 -0.018959027 -0.010435547 0.020162554
0.039170854 0.023958977 -0.011698573 0.027420716 -0.02511127 -0.026253052 0.00044153098 -0.014517005
-0.006386876 0.02997223 0.01591118 0.013868772 -0.022283008 0.022160785 -0.019203894 -0.023549495
-0.041771654 -0.025988735 -0.027511828 0.0351286 -0.0008332026 -0.020781616 -0.01433038 -0.023733044
-0.027743021 0.021200713 -0.0052652517 0.021173976 -0.020810926 -0.0064118695 0.0043352833 -0.031462047
-0.033226468 0.018475872 0.0054812273 -0.016695667 0.02778826 0.019284498 0.0109668 0.010942646
0.023117632 0.015504184 -0.031847984 -0.034462303 -0.0022943704 0.018449208 0.00066709705 0.010023957
0.014252738 0.016379938 0.03357402 0.007231383 0.013002619 -0.009012382 0.03328679 -0.03174021
0.027169544 0.016611027 -0.02194196 0.02896724 -0.011867088 -0.03980596 0.023134936 -0.015225856
-0.00011193137 -0.02021159 0.021721927 0.011547328 -0.018465526 0.025945522 -0.008817546 0.04311944
0.03445106 -0.03102342 0.022349367 -0.021756453 -0.027410561 -0.0107699 -0.002317754 0.006595593
-0.010801707 -0.031800196 -0.015257928 0.022609439 0.021499423 0.030329825 0.025194524 -0.0053448747
-0.011229203 -0.014471649 -0.020567657 0.015553928 0.018326716 0.03535916 -0.002993457 0.002527631
0.020568846 0.011274133 0.012680218 -0.0016373091 -0.024877228 0.030734813 0.034578305 0.008626796
00000000: 1853 90bc 435e 3cbc 9299 173d 1422 d839
00000010: f3ff 5ebb bff6 de3c 861e d4bb cd61 cdbc
00000020: f256 cdbc 3f8c a33c 08f4 533c c7c3 983c
00000030: f882 9a3c a24b ab3c 9022 533c 42bd bdbc
00000040: 65d0 463c 2f9c 92bc 1ecc 19bc 1084 11bd
00000050: b89a e6bc e621 c0bc 0e3e 38bc c415 853c
00000060: 99f4 62bb d18f 343c 2472 dd3c b1ed f93c
00000070: d443 7b3c 0779 323c 013b b4bc 5703 a1bc
00000080: d759 8a3c 543b e3bc 8d15 403b 2b30 603b
00000090: 1cb0 e33a fe7f f13c 2b67 73bc cac0 a0bc
000000a0: fd9c a53c 1314 713b 0cf6 2abc 2fcb 633c
000000b0: de52 5abc 67f9 43bb c4c3 033d 3827 afbc
000000c0: 6c92 00bc 8e46 1bbd 4b40 1dbd bee3 01bd
000000d0: d455 b03c 59c2 063d 424f 353c ccaa e53c
000000e0: d56e 10bd 6903 743c 1ae2 2abd cec8 b8bc
000000f0: 1c99 093d 7a96 d3bc e836 2e3b 1046 4d3c
00000100: ab2e 973b 3301 613c 6172 a43b f17f 043d
00000110: 4b63 93bc 632e de3b 92df 65bc a528 82bc
00000120: baa6 f23c 0c10 b13b 0555 d03b 2af8 f9bc
00000130: 4cee c73b 7e22 e8bc c86f 3e3c acc3 503c
00000140: b383 16bd 37cd 943c 68a1 28bc d518 c3bc
00000150: 08c7 e63c 8ccf e43c b5b8 f03b 367b 083c
00000160: d022 b5bc 00da 723b e769 d53c ea1e 483c
00000170: fa68 f93c a299 8c3c 5c99 04bd ed50 5f3c
00000180: e413 c5b9 e872 043d 167c d93c e49b 55ba
00000190: 4264 e2bc 024a b4bc ba61 cf3c 0666 48bc
000001a0: 5546 83ba 7b1e cebc bd8e f83c c60d df3b
000001b0: b05a ecbb 0942 94ba 9fc8 933b 2fa2 e1bc
000001c0: e674 87bc 4c31 adbc 54dc edbc 946c 1e3b
000001d0: 4306 60bc ed2b af3c 388c a1bc c0fb 773c
000001e0: ab9c 123d 7418 b53c 80bb 3b3c 8db0 a9bc
000001f0: 24f8 8ebc b73b 38bc 4b82 c53b abab 593c
00000200: fd91 fa3b 4177 8fbb c27a c1bb 9d76 28bb
00000210: fabf 923b bbe0 73bc 3802 f4bc e779 143b
00000220: d925 7f3c 7494 9abc fbd7 a4bc 83b7 f33c
00000230: 8974 c3bc 4581 8fbc 572d 12bd b7d8 f03c
00000240: 023a e6bc 83e4 e53c 416c e53c 8793 adbc
00000250: 70b8 0abb f64f 9bbc dbf9 2abc f12b a53c
00000260: 9e71 203d 9e45 c43c 5fab 3fbc 69a1 e03c
00000270: 26b6 cdbc a410 d7bc 497d e739 bbd8 6dbc
00000280: 0049 d1bb 5288 f53c 2a58 823c d939 633c
00000290: db8a b6bc 898a b53c 7c51 9dbc dfea c0bc
000002a0: c118 2bbd 54e6 d4bc 7c60 e1bc 02e3 0f3d
000002b0: 486b 5aba 353e aabc f8c9 6abc cd6b c2bc
000002c0: 5545 e3bc 1ead ad3c 2288 acbb 0c75 ad3c
000002d0: ad7b aabc a91a d2bb fe0e 8e3b 59de 00bd
000002e0: 7a18 08bd b65a 973c de9b b33b 5ac5 88bc
000002f0: 34a4 e33c 86fa 9d3c 18ae 333c c948 333c
00000300: 3061 bd3c 4305 7e3c 0873 02bd 5828 0dbd
00000310: 265d 16bb cb22 973c 20e0 2e3a 863b 243c
00000320: 5184 693c 382f 863c e984 093d 3df5 ec3b
00000330: f008 553c aba8 13bc bb57 083d 0602 02bd
00000340: aa92 de3c d913 883c a0bf b3bc b54c ed3c
00000350: 2d6e 42bc 930b 23bd 7a85 bd3c de75 79bc
00000360: b2bc eab8 c792 a5bc 2ff2 b13c 0131 3d3c
00000370: 0445 97bc b48b d43c 7877 10bc 039e 303d
00000380: 8e1c 0d3d d424 febc 0516 b73c 973a b2bc
00000390: 1d8c e0bc 3c74 30bc 76e5 17bb d81f d83b
000003a0: a5f9 30bc ec40 02bd 63fc 79bc 6e37 b93c
000003b0: 8f1f b03c 4176 f83c bf64 ce3c 0f24 afbb
000003c0: b1fa 37bc 7f1a 6dbc 817d a8bc e7d5 7e3c
000003d0: e921 963c c4d4 103d e02d 44bb 9ca6 253b
000003e0: ff7f a83c 24b7 383c b0c0 4f3c fa9a d6ba
000003f0: 54cb cbbc 93c7 fb3c fba1 0d3d 6857 0d3c

bias f4 [128]
-0.006156398 -0.010903262 -0.029112535 0.0045987205 -0.0018270162 -0.025047466 -0.025218317 0.02136259
-0.023328466 -0.006234649 0.013350992 0.0004671283 -0.014821579 -0.020164574 -0.03127699 0.0029619392
0.009773924 -0.025147162 0.007543893 -0.011414205 -0.031158756 -0.0012634135 -0.027081948 0.016576666
-0.02071941 -0.016143547 0.0009952104 0.033173822 -0.020054637 -0.022318281 -0.026408909 -0.021872057
-0.031027729 -0.020236995 -0.001627447 0.0057076802 0.026472721 0.024952201 -0.026436381 -0.008837752
0.032746345 0.032534245 0.02333737 0.0070384676 0.029253533 0.02695624 -0.032213345 -0.034486957
-0.025534878 0.025904287 -0.0055588135 -0.03835603 -0.00044324278 0.013029605 -0.02354706 -0.0035251474
0.01587523 -0.03171684 0.009424089 0.003604058 0.032890104 -0.0017362962 0.028205657 0.0003481084
0.022515789 -0.011221064 -0.014140412 -0.021273011 0.0018539196 -0.018376248 -0.021448134 0.002709978
0.031686604 -0.0011313978 0.0230704 -0.016404144 0.01211892 -0.022169348 -0.005678227 0.010948989
0.025446812 0.021619912 0.0038475068 0.009246389 0.02978788 0.01065763 0.0011070047 0.009417888
-0.018968124 0.0154276155 0.01198908 0.009869636 0.0017664295 0.027506815 0.0022301518 -0.0058787717
-0.035267904 -0.034879457 0.007991835 -0.00680505 -0.0049172617 0.019235605 0.0015425968 -0.018894397
0.030699344 -0.022125458 0.018132538 -0.035021465 0.02563703 0.032715518 -0.023895558 -0.0041787587
-0.025671454 -0.0033870968 0.0353086 0.02525507 -0.03697098 0.005505511 0.0005218355 0.004403067
-0.001897333 0.01567366 -0.011263815 -0.035700537 -0.029919408 0.032770697 -0.011736117 0.0071265027
00000000: 9cbb c9bb 98a3 32bc 697d eebc ddb0 963b
00000010: 7e78 efba 5830 cdbc a596 cebc 9900 af3c
00000020: 571b bfbc 074c ccbb 1fbe 5a3c e6e8 f439
00000030: 35d6 72bc 2d30 a5bc 4d1c 00bd 181d 423b
00000040: cf22 203c 6c01 cebc c332 f73b a502 3bbc
00000050: a640 ffbc 1f99 a5ba f6da ddbc cacb 873c
00000060: c1bb a9bc 793f 84bc b871 823a 46e1 073d
00000070: 9f49 a4bc d4d4 b6bc 7f57 d8bc 072d b3bc
00000080: dd2d febc 0ec8 a5bc 0f50 d5ba 7e07 bb3b
00000090: 52dd d83c 8f68 cc3c 1c91 d8bc 38cc 10bc
000000a0: 0821 063d a142 053d 032e bf3c f2a2 e63b
000000b0: 1ba5 ef3c 55d3 dc3c 24f2 03bd 3242 0dbd
000000c0: 852e d1bc 3a35 d43c b526 b6bb 361b 1dbd
000000d0: 0a63 e8b9 207a 553c c4e5 c0bc 2906 67bb
000000e0: c50c 823c 84e9 01bd 7f67 1a3c 0f32 6c3b
000000f0: c6b7 063d 6f94 e3ba 8d0f e73c 5282 b639
00000100: 0873 b83c 8ed8 37bc 30ad 67bc bd44 aebc
00000110: 38ff f23a c989 96bc ffb3 afbc e399 313b
00000120: d0c9 013d 694b 94ba 23fe bc3c fc61 86bc
00000130: 6f8e 463c 7e9c b5bc 6c10 babb 6363 333c
00000140: d575 d03c 3e1c b13c 7426 7c3b 2b7e 173c
00000150: b605 f43c 579d 2e3c ea18 913a 7c4d 1a3c
00000160: 0a63 9bbc 1cc4 7c3c d96d 443c 41b4 213c
00000170: 8a87 e73a f955 e13c bd27 123b b6a2 c0bb
00000180: 1475 10bd c3dd 0ebd 2ff0 023c e6fc debb
00000190: fb20 a1bb fd93 9d3c f630 ca3a 6cc8 9abc
000001a0: 317d fb3c 7340 b5bc b08a 943c ab72 0fbd
000001b0: c004 d23c b500 063d 9ec0 c3bc f8ed 88bb
000001c0: f14c d2bc 0efa 5dbb c09f 103d b8e3 ce3c
000001d0: e26e 17bd 9367 b43b cacb 083a 9a47 903b
000001e0: eeaf f8ba 0c66 803c dd8b 38bc ba3a 12bd
000001f0: 8c19 f5bc 913a 063d d848 40bc 7085 e93b
