promptPGpot/checkpoints/exp0_autopot_0.1randompolicy/ckpt_6.pt (torch, 394659 bytes, 2 tensors)

weight f4 [128, 768]
000000 26 ad 38 bc 75 dd cb bb 2e 6c 0a 3d 30 f4 9e 3b
       -0.011271751 -0.006221468 0.033794574 0.0048508868
000010 70 a0 60 3a a4 e3 a2 3c bf be 47 bc e6 e0 8b bc
       0.0008568829 0.019883938 -0.0121914735 -0.017075013
000020 83 25 dd bc 89 35 eb 3c 17 06 47 3c 80 9e 97 3c
       -0.026995426 0.028712051 0.012147448 0.018508196
000030 1a ee d0 3c f5 85 ac 3c 71 b8 50 3c 2a 87 f7 bc
       0.02550416 0.02105997 0.012739287 -0.030215818
000040 73 8a 22 3c 5e 05 ac bc d0 62 01 bc db ca 16 bd
       0.009920704 -0.020998653 -0.007897094 -0.03681455
000050 3d cb 1c bd 3e 63 ab bc b4 9f 5d bc 16 16 70 3c
       -0.03827976 -0.020921346 -0.013526846 0.014653703
000060 00 cb df bb 10 f0 0a 3c be 59 ae 3c 91 78 ea 3c
       -0.0068296194 0.008480087 0.021283027 0.028621944
000070 20 1b 87 3c f6 b1 9b 3c d7 85 aa bc ad 47 ac bc
       0.016492426 0.019005757 -0.020815773 -0.021030271
000080 9e ec 97 3c 46 64 c5 bc e9 d3 ca ba 39 3d 3d 3c
       0.018545445 -0.024095666 -0.0015474531 0.011550241
000090 d3 fd c6 3b d0 c0 f0 3c 69 a5 91 bc de 00 99 bc
       0.0060727387 0.029388815 -0.017779069 -0.018677171
0000a0 ae 3f eb 3c 61 be 39 3c 48 88 ad bb 1c 88 d6 3b
       0.028716888 0.011336894 -0.005295787 0.006546987
0000b0 26 0c 6f bc 1f 7e 05 bc 55 ba 12 3d 41 dd d6 bc
       -0.014590299 -0.008147745 0.03582223 -0.026228549
0000c0 0c 17 d5 bb 07 69 0e bd 49 7b 1f bd 99 fa e9 bc
       -0.0065029915 -0.03476813 -0.038935933 -0.028561877
0000d0 94 96 cd 3c 74 60 ff 3c ba 10 c1 3b 7c 69 d4 3c
       0.025096215 0.031173922 0.0058918865 0.025929205
0000e0 e6 9f 03 bd 37 57 88 3c 8d c4 f6 bc fd 15 79 bc
       -0.032134913 0.01664315 -0.03012302 -0.015202996
0000f0 0d 80 0d 3d ec 8d b2 bc 9b df 6d 3b 7f e7 0e 3c
       0.034545947 -0.02179619 0.003629661 0.008722185
000100 c1 25 60 3c 45 98 3b 3c 32 46 94 3a 73 76 cf 3c
       0.013680876 0.011449878 0.0011312424 0.025325036
000110 09 61 9f bc 31 21 b3 3b 29 a6 80 bc 03 de 99 bc
       -0.01945545 0.005466603 -0.015704231 -0.018782621
000120 91 db c1 3c c5 d9 d5 3b ba c2 8f 3b 18 40 fb bc
       0.023664268 0.0065262043 0.004387227 -0.03067021
000130 12 b3 1a 3c 1e a3 fb bc e5 56 1a 3c bb a7 de 3b
       0.009442108 -0.030717429 0.009420131 0.0067948974
000140 16 1b 1a bd 70 26 86 3c 56 21 30 bc a1 09 a3 bc
       -0.037623487 0.01637575 -0.010750135 -0.019902052
000150 5e 8d f4 3c f8 34 cf 3c ea c2 04 3c c5 8f 2e 3c
       0.029852565 0.025293812 0.008103112 0.0106543945
000160 55 54 ae bc be f0 09 3b 98 e2 08 3d a9 0a 55 3c
       -0.021280447 0.0021048035 0.03341922 0.01300303
000170 71 38 c7 3c 1c 69 5a 3c c1 a9 0c bd e9 84 ae 3c
       0.024318906 0.013330724 -0.034341577 0.02130361
000180 e4 a8 9c bb 66 e2 0a 3d 04 d9 e2 3c f8 cb e3 bb
       -0.0047808755 0.033907317 0.027691372 -0.006951805
000190 e1 7a de bc 25 4a 86 bc 1e 0e e6 3c dc 54 d4 bb
       -0.027158203 -0.016392777 0.028082903 -0.0064798426
0001a0 32 7a 53 ba d9 3b 91 bc c6 62 0f 3d 14 be f7 3a
       -0.000806722 -0.017728733 0.035006307 0.0018901252
0001b0 a2 b6 a1 bb 14 b5 80 b9 d5 d0 a9 3b 1a f4 e4 bc
       -0.0049351016 -0.00024548976 0.0051823654 -0.027948428
0001c0 2a 0f 6b bc 4a fe db bc e1 b9 d4 bc 26 ca 5c 3b
       -0.014346877 -0.026854653 -0.02596754 0.0033689826
0001d0 a5 53 8a bc 14 71 9d 3c 75 56 b1 bc 78 49 2b 3c
       -0.016885588 0.019218959 -0.021647671 0.010454528
0001e0 2b bf 03 3d 9c 9e 97 3c df fc 49 3c cd f5 a0 bc
       0.032164734 0.018508248 0.012328356 -0.019648457
0001f0 09 16 87 bc d8 d1 17 bc 11 5e 91 3b 55 a4 5b 3c
       -0.01649 -0.009266339 0.0044362624 0.013405879
000200 ca 2d a5 3b 5f 9c 91 3a 44 11 23 bc f9 3c 20 bb
       0.005040859 0.0011109224 -0.009952847 -0.0024450405
000210 53 cc 16 3c 9a 09 7b bc 5e 77 df bc c3 19 06 3a
       0.009203988 -0.015322113 -0.027278598 0.0005115533
000220 4e 9c 73 3c 76 4e 90 bc 91 7f 89 bc 50 03 1b 3d
       0.014868809 -0.017615538 -0.016784461 0.037844956
000230 68 a3 99 bc fd 8a 18 bc a9 85 0b bd 46 bf aa 3c
       -0.018754676 -0.009310481 -0.034063015 0.02084316
000240 54 ca f0 bc d7 e6 c8 3c 4b 85 dd 3c b9 4b d2 bc
       -0.029393353 0.024524136 0.027041098 -0.025670873
000250 f4 73 c5 bb f2 f3 ae bc 2c 51 0a bc 12 87 a0 3c
       -0.0060257856 -0.021356557 -0.008442204 0.019595657
000260 7a 45 0e 3d 12 0f c9 3c 3d b1 28 bc ec 05 b5 3c
       0.034734227 0.024543319 -0.010296163 0.02209755
000270 a3 0a ab bc 5a d5 b2 bc a7 e0 3a 3a 84 e0 92 bc
       -0.020879095 -0.02183025 0.0007128813 -0.017929323
000280 ff f2 64 bc 16 a0 f5 3c cb ae 82 3c 76 63 3e 3c
       -0.01397395 0.029983561 0.015952488 0.011620393
000290 bf 48 f2 bc 2f ac a3 3c 2a 64 88 bc 1f 98 f6 bc
       -0.029575704 0.019979564 -0.016649324 -0.030101834
0002a0 bb 8a 07 bd c4 01 b2 bc e1 15 bb bc c4 82 c1 3c
       -0.033091288 -0.021729358 -0.022837581 0.023621924
0002b0 f0 0b 8d bb ce 99 a4 bc 45 5e 64 bc 41 93 ce bc
       -0.0043044016 -0.020092871 -0.013938491 -0.0252167
0002c0 73 9e eb bc a6 d9 96 3c 80 af da bb 6e a7 64 3c
       -0.028762078 0.01841433 -0.0066737533 0.013955934
0002d0 27 d1 96 bc 43 8b 10 bc a5 57 e8 3b 39 37 0d bd
       -0.018410278 -0.008822265 0.007090526 -0.034476493
0002e0 30 0d 12 bd f8 c8 8f 3c 01 bc e8 3a 96 6c 7c bc
       -0.035657108 0.017551884 0.0017756225 -0.015406748
0002f0 58 49 bc 3c 0b a4 5b 3c 10 96 95 3c 52 c5 81 3c
       0.022984192 0.01340581 0.018260032 0.01584116
000300 3e 17 c6 3c c1 c4 69 3c 35 65 f0 bc 96 c6 de bc
       0.024181005 0.014268101 -0.029345134 -0.027194303
000310 72 4a b0 ba df 1a aa 3c 3c 4a 99 bb 50 4f 1f 3c
       -0.0013449921 0.020764766 -0.004678039 0.009723499
000320 a5 84 59 3c 03 5b 7b 3c 9f 3a 03 3d 23 52 31 3c
       0.013276254 0.015341523 0.032038327 0.010822806
000330 e0 54 6a 3c 7c 67 3e bc c5 20 0a 3d 4e 87 01 bd
       0.014302462 -0.011621352 0.033722658 -0.031623177
000340 41 85 f3 3c d9 a4 45 3c 6a b3 8b bc 52 50 ce 3c
       0.029726626 0.0120632285 -0.017053325 0.025184784
000350 66 39 58 bc 49 06 22 bd 78 e7 7d 3c 22 47 dd bc
       -0.013197279 -0.039556775 0.015497081 -0.027011458
000360 05 91 09 bb ba af 91 bc 3d c5 bb 3c 65 ce 35 3c
       -0.002099098 -0.017783988 0.022921199 0.011096572
000370 54 df b8 bc 17 e8 b1 3c e0 4c e6 bb 27 9e 14 3d
       -0.022567429 0.021717114 -0.007028207 0.03628364
000380 f2 9c 14 3d e7 fd 02 bd 69 76 f3 3c d7 4e c5 bc
       0.036282487 -0.03198042 0.029719548 -0.024085445
000390 e6 9f e7 bc 71 c3 01 bc a6 4f c8 bb 59 b7 b4 3b
       -0.028274488 -0.007920132 -0.0061130105 0.005515021
0003a0 9a 0f b1 bb cc ac f1 bc 8c e9 8e bc a2 fc b3 3c
       -0.005403471 -0.029501341 -0.017445348 0.02197105
0003b0 8e 7c ac 3c 3c 6c 0a 3d ea 15 8f 3c b4 bd 84 bb
       0.021055486 0.033794627 0.017466504 -0.0040509347
0003c0 54 30 65 bb c7 bf a1 bc 1f 84 ed bc 0f 6f 9e 3c
       -0.0034971433 -0.019744767 -0.028993664 0.019340066
0003d0 f8 09 d5 3c 1f 82 0d 3d 35 f0 83 bb 74 ec 4a 3c
       0.02600573 0.03454792 -0.0040264376 0.012385476
0003e0 8c 1c 90 3c f7 bb 84 3c 72 de 15 3c 7e 54 94 bb
       0.017591737 0.01620291 0.009147273 -0.004526674
0003f0 c6 e3 eb bc d1 fc da 3c fc 60 ea 3c 39 f7 d7 3b
       -0.028795134 0.02673188 0.028610699 0.0065907505

bias f4 [128]
000000 af 8a 17 bc dd 51 35 bc 86 c3 d8 bc 37 08 a2 3b
       -0.009249373 -0.011066881 -0.02646042 0.004944827
000010 be f5 82 bb 83 37 c4 bc 38 60 b5 bc 74 19 bb 3c
       -0.00399658 -0.023952251 -0.022140607 0.022839285
000020 52 ce db bc b0 77 7c bb 2f 20 50 3c cd 40 95 3b
       -0.02683178 -0.0038523488 0.012702986 0.004554844
000030 8d 45 80 bc e7 55 ad bc 57 ab 05 bd 49 a7 b2 3b
       -0.015658164 -0.021159125 -0.032634106 0.005452071
000040 c0 4c 01 3c 79 5c c8 bc 39 ca 1c 3c 30 0e 29 bc
       0.007891834 -0.024458157 0.009569698 -0.010318324
000050 0b 1c 05 bd ae b3 4b bb 2f 66 bc bc 5a 00 9a 3c
       -0.032497447 -0.003108244 -0.022997944 0.018798996
000060 ae 68 a0 bc ef 3a 8f bc bf fd 62 3a 7e 1a 03 3d
       -0.019581165 -0.017484156 0.0008659027 0.032007687
000070 57 7e aa bc f7 dd 9d bc f5 7d ba bc 33 d1 6a bc
       -0.020812197 -0.01927088 -0.02276514 -0.014332104
000080 23 a5 e5 bc 1e 82 a6 bc 30 39 37 ba eb b0 09 3c
       -0.028032845 -0.020325717 -0.00069894176 0.008403997
000090 2a d3 c2 3c 89 e0 be 3c 54 93 b4 bc aa 02 88 bb
       0.023782331 0.023300426 -0.022042908 -0.004150708
0000a0 31 19 db 3c f4 8f 07 3d 4e 6e d3 3c 18 ac f9 3b
       0.02674541 0.03309627 0.025809433 0.007619392
0000b0 9a 20 03 3d 96 7e 01 3d 81 7d 11 bd 92 90 24 bd
       0.032013513 0.031614862 -0.03552008 -0.040176935
0000c0 bb ee d9 bc 10 a5 d4 3c dc 5a 05 bc 6f a7 0f bd
       -0.026603093 0.025957614 -0.008139338 -0.035071786
0000d0 10 8c aa ba d9 d1 3d 3c e3 a1 b6 bc ea db 7b bb
       -0.0013011713 0.011585676 -0.02229399 -0.003843064
0000e0 d1 9b 9c 3c 8a f4 0d bd 1c 28 55 3c 89 6e ba 3b
       0.019117268 -0.03465704 0.013010051 0.0056894463
0000f0 c7 39 e9 3c 34 b0 b1 ba fa 02 f4 3c 99 34 95 b9
       0.028469933 -0.0013556541 0.029786576 -0.00028458683
000100 aa 9c c9 3c 5b a1 29 bc a8 20 8f bc ad bb 9d bc
       0.024610836 -0.010353412 -0.017471626 -0.01925453
000110 3d 35 43 bb de 39 9a bc c0 f2 c2 bc d2 15 c8 3b
       -0.002978637 -0.018826421 -0.023797393 0.006106117
000120 c7 92 04 3d 1d 0c 7d bb 86 eb a3 3c 36 f8 98 bc
       0.03236654 -0.0038611956 0.020009767 -0.018673044
000130 c0 01 40 3c 57 ec d0 bc 8f 25 a0 ba f6 c6 1c 3c
       0.011719167 -0.02550332 -0.0012218225 0.00956892
000140 95 2c cb 3c 2d ce d1 3c f8 9e c7 3a 73 1b 15 3c
       0.024801532 0.025611008 0.0015229871 0.009100783
000150 bf 32 0e 3d 1f 6e 0c 3c 5b 70 85 3a a8 a4 c3 3b
       0.034716364 0.008571177 0.0010180579 0.0059705563
000160 12 6f 9e bc 88 15 25 3c 98 de 0d 3c 88 9b 6e 3c
       -0.019340072 0.010075934 0.0086590275 0.014563449
000170 ff 7e b2 ba 63 80 bd 3c d6 39 76 3b ed 0b fb bb
       -0.001361817 0.023132509 0.0037571094 -0.007661334
000180 53 37 11 bd eb 22 14 bd fc 21 0d 3c e4 d5 42 bc
       -0.035453152 -0.036166113 0.00861406 -0.011891816
000190 85 aa 4a bb 29 3c 9f 3c 39 ef bc 3a 14 e6 a3 bc
       -0.0030924391 0.019437866 0.0014414556 -0.02000717
0001a0 26 28 c6 3c ab cd af bc 83 60 c8 3c 12 cc 08 bd
       0.024189066 -0.021460375 0.024460083 -0.03339774
0001b0 97 4d be 3c 8d dc 01 3d 64 56 95 bc 81 00 15 bb
       0.023230357 0.031704474 -0.01822967 -0.0022735896
0001c0 f8 56 c2 bc 0c e6 01 3b a5 4e 1f 3d ba f8 d0 3c
       -0.02372311 0.0019820957 0.03889336 0.025509227
0001d0 bc 31 1b bd ef 72 e3 3a 66 b8 90 3b 68 89 22 3b
       -0.037889227 0.0017352978 0.0044165133 0.0024801139
0001e0 e1 b5 99 ba bd 8a 60 3c c0 c4 63 bc a7 d8 0e bd
       -0.0011727178 0.013704953 -0.013901889 -0.034874585
0001f0 68 e2 df bc 4d c4 0c 3d 21 7d a5 bc 90 10 fa 3b
       -0.027329639 0.034366895 -0.020201268 0.007631369
