promptPGpot/checkpoints/exp0_autopot_0.1randompolicy/ckpt_14.pt (torch, 394727 bytes, 2 tensors)

weight f4 [128, 768]
-0.014326059 -0.009731238 0.033362523 0.0069351085 0.0029629632 0.017844316 -0.0112312855 -0.017545879
-0.021562306 0.026223077 0.018008852 0.024148908 0.02406619 0.018790849 0.009893319 -0.02714342
0.0068352795 -0.018421179 -0.009064592 -0.029428855 -0.034632213 -0.019848235 -0.0035664416 0.022366568
-0.0017546624 0.005246044 0.01327322 0.024873015 0.011702057 0.011271054 -0.023774398 -0.021954985
0.017004367 -0.028538305 0.0013026127 0.008176812 0.0030777568 0.029787859 -0.016910179 -0.018514266
0.025225135 0.007994117 -0.011704441 0.007132453 -0.018529767 -0.004787169 0.031988498 -0.018253032
-0.011957103 -0.03774946 -0.032933023 -0.03203374 0.019476201 0.03201334 0.00994327 0.02067887
-0.032545414 0.011807046 -0.034648575 -0.019165128 0.035344414 -0.027179994 -0.0027359496 0.0117635
0.017003734 0.011252518 0.0071011703 0.026877828 -0.023916835 0.009513666 -0.0137019325 -0.009010871
0.023497429 0.00030408183 0.008589868 -0.027823431 0.0059110555 -0.02949064 -0.0004382482 0.010210565
-0.045776356 0.016491443 -0.013289051 -0.023427222 0.028711813 0.025785128 0.011470351 0.011884305
-0.021174412 0.0055228216 0.027740296 0.011133059 0.032221347 0.013173331 -0.02929417 0.014913763
-0.006130819 0.032967854 0.030151598 -0.0018393716 -0.019510094 -0.020854421 0.028303828 -0.010066516
0.002653357 -0.016333202 0.037566252 0.005619867 -0.007853228 -0.0014422395 0.0070683216 -0.033999287
-0.017601905 -0.029618822 -0.024032192 -4.0340383e-05 -0.009678447 0.017086223 -0.014594009 0.013191002
0.032751955 0.02175798 0.013471889 -0.021188805 -0.01205014 -0.014545358 0.011593455 0.0183885
0.007195758 -0.005762154 -0.00699821 -0.005839725 0.011289217 -0.004110764 -0.03166384 0.00275981
0.011263381 -0.02280686 -0.019057525 0.035906978 -0.021708803 -0.0143649755 -0.036797088 0.016828736
-0.028952556 0.02424528 0.030177366 -0.019072212 -0.0062998617 -0.015272867 -0.006929511 0.018723266
0.02752706 0.02055689 -0.0081587965 0.025211727 -0.024146412 -0.014531456 -0.004966209 -0.015483639
-0.008389988 0.036587775 0.013234163 0.014932406 -0.026109327 0.024577387 -0.015949333 -0.026543844
-0.028106239 -0.026142795 -0.017627453 0.029032776 -7.3412906e-05 -0.01625635 -0.02444316 -0.020556835
-0.028914856 0.023069924 -0.0052871923 0.01908808 -0.020819094 -0.010639041 0.004407633 -0.030786036
-0.029047849 0.018019088 0.004881446 -0.006572546 0.026362292 0.017228745 0.01477272 0.0116019305
0.018823484 0.015957126 -0.030064382 -0.032017738 -0.00082580803 0.025235126 -0.0015704989 0.010449466
0.0083152 0.01386818 0.033253253 0.0094145695 0.0150353825 -0.008307185 0.034247745 -0.030990353
0.0367491 0.015648857 -0.021756314 0.030395372 -0.007925181 -0.035675496 0.014226117 -0.01863308
-0.0027733997 -0.023057224 0.027843235 0.007974865 -0.019577399 0.028093344 -0.005659419 0.043801107
0.03133775 -0.03348851 0.02464963 -0.020293714 -0.026694832 -0.0120461155 0.00091857754 0.001549904
-0.006636623 -0.02799919 -0.013758226 0.025335997 0.01839084 0.03211165 0.019491525 -0.004789252
-0.001928089 -0.016477976 -0.028297856 0.02601177 0.021757774 0.0368273 0.0038018362 0.011623105
0.02409933 0.012644485 0.007812707 0.0036544253 -0.029215567 0.031559695 0.024905132 0.009523137
00000000: d9b7 6abc c56f 1fbc 24a7 083d e83f e33b
00000010: 462e 423b 3e2e 923c 6d03 38bc 60bc 8fbc
00000020: 6fa3 b0bc c7d1 d63c 4d87 933c eed3 c53c
00000030: 7526 c53c 44ef 993c 9617 223c e15b debc
00000040: 7bfa df3b 03e8 96bc a883 14bc c814 f1bc
00000050: 82da 0dbd c498 a2bc f6ba 69bb 183a b73c
00000060: b3fc e5ba 02e7 ab3b eb77 593c 7ec2 cb3c
00000070: fcb9 3f3c 3aaa 383c 87c2 c2bc f1da b3bc
00000080: be4c 8b3c 2ac9 e9bc 6ebc aa3a 09f8 053c
00000090: 31b4 493b ab05 f43c 3787 8abc 3bab 97bc
000000a0: f1a4 ce3c c2f9 023c fcc3 3fbc 5ab7 e93b
000000b0: bdcb 97bc afdd 9cbb 5f06 033d 6287 95bc
000000c0: bae7 43bc 2e9f 1abd c7e4 06bd d035 03bd
000000d0: 8e8c 9f3c 6c20 033d 19e9 223c bc66 a93c
000000e0: 574e 05bd 5772 413c aaeb 0dbd 3000 9dbc
000000f0: 4ec5 103d 94a8 debc 9e4d 33bb b2bb 403c
00000100: 6a4b 8b3c 7b5c 383c efb0 e83b e42e dc3c
00000110: 3ded c3bc 35df 1b3c 127e 60bc 55a2 13bc
00000120: ae7d c03c 2c6d 9f39 85bc 0c3c f7ed e3bc
00000130: 87b1 c13b 5b96 f1bc adc4 e5b9 374a 273c
00000140: fd7f 3bbd 1019 873c 52ba 59bc 72ea bfbc
00000150: 0935 eb3c 553b d33c 24ee 3b3c 63b6 423c
00000160: f675 adbc c9f8 b43b 9e3f e33c 6f67 363c
00000170: 88fa 033d f4d4 573c 54fa efbc db58 743c
00000180: 0ae5 c8bb 4d09 073d 7c00 f73c 1217 f1ba
00000190: a2d3 9fbc e4d6 aabc 6edd e73c 07ee 24bc
000001a0: f2e3 2d3b 35cd 85bc 12df 193d dc26 b83b
000001b0: d3aa 00bc 8709 bdba 619d e73b d642 0bbd
000001c0: df31 90bc 2ca3 f2bc 29df c4bc 2833 29b8
000001d0: 5992 1ebc 68f8 8b3c b61b 6fbc 131f 583c
000001e0: ea26 063d cb3d b23c 33b9 5c3c 2594 adbc
000001f0: f36d 45bc a74f 6ebc 7af2 3d3c 7ba3 963c
00000200: 65ca eb3b 73d0 bcbb 3e51 e5bb 2a5b bfbb
00000210: 68f6 383c 96b3 86bb f1b1 01bd eedd 343b
00000220: 0b8a 383c 74d5 babc 871e 9cbc 3213 133d
00000230: a9d6 b1bc 135b 6bbc 8bb8 16bd 6bdc 893c
00000240: e92d edbc 0a9e c63c 8636 f73c 543d 9cbc
00000250: 126f cebb 0c3b 7abc f410 e3bb 8961 993c
00000260: 6e80 e13c ec66 a83c 79ac 05bc d388 ce3c
00000270: b2ce c5bc 5815 6ebc 95bb a2bb 17af 7dbc
00000280: 2976 09bc 10dd 153d 1ad4 583c 0da7 743c
00000290: 3ae3 d5bc 8456 c93c 2da8 82bc 7a72 d9bc
000002a0: 0e3f e6bc 6a29 d6bc 7367 90bc 25d6 ed3c
000002b0: 41f5 99b8 092c 85bc 063d c8bc cf66 a8bc
000002c0: d9de ecbc 23fd bc3c 2f40 adbb 9b5e 9c3c
000002d0: ce8c aabc 5f4f 2ebc e86d 903b ff32 fcbc
000002e0: c1f5 edbc c49c 933c 89f4 9f3b 835e d7bb
000002f0: bcf5 d73c 4c23 8d3c 4709 723c 0616 3e3c
00000300: b533 9a3c 85b8 823c 9449 f6bc 0825 03bd
00000310: 0a7b 58ba e5b9 ce3c 33d9 cdba 3d34 2b3c
00000320: 7a3c 083c 5d37 633c 9034 083d 913f 1a3c
00000330: f756 763c dc1a 08bc 5d47 0c3d 7bdf fdbc
00000340: 3986 163d 0832 803c 4c3a b2bc b7ff f83c
00000350: 9ed8 01bc 7820 12bd a914 693c 67a4 98bc
00000360: edc1 35bb 81e2 bcbc 7f17 e43c 02a9 023c
00000370: c860 a0bc 0324 e63c a672 b9bb ca68 333d
00000380: 035c 003d 3f2b 09bd 05ee c93c 013f a6bc
00000390: 1faf dabc 125d 45bc b2cc 703a 2626 cb3a
000003a0: 0778 d9bb 8f5e e5bc 2f6a 61bc 708d cf3c
000003b0: 63a8 963c 8187 033d b1ac 9f3c 28ef 9cbb
000003c0: eeb7 fcba d2fc 86bc e8d0 e7bc a316 d53c
000003d0: 5c3d b23c 39d8 163d 3a28 793b d66e 3e3c
000003e0: f56b c53c d02a 4f3c de00 003c 157f 6f3b
000003f0: 7c55 efbc bd44 013d d905 cc3c ee06 1c3c

bias f4 [128]
-0.005589638 -0.012777147 -0.025039317 0.0017813992 -0.005676431 -0.022734335 -0.023392389 0.021328662
-0.026504938 -0.004506346 0.008902572 0.0029149961 -0.013088602 -0.017051138 -0.034684 0.0070828563
0.008894518 -0.027344992 0.007369523 -0.007626316 -0.029867657 -0.00021476985 -0.025277523 0.020305004
-0.016166018 -0.020297872 0.0014081537 0.03334326 -0.017789576 -0.019940604 -0.022298707 -0.017712202
-0.032739826 -0.021126982 -0.0021148976 0.0051377276 0.021889575 0.02702547 -0.022017458 -0.0068401746
0.030528136 0.035066247 0.024776803 0.003912153 0.034423094 0.029741418 -0.03276318 -0.03638427
-0.029185772 0.029613504 -0.005895158 -0.038642433 -0.0023849383 0.012017049 -0.025286889 -0.006333485
0.021884492 -0.03281858 0.008127818 0.006504336 0.03132671 -0.0039920765 0.028331107 -0.0031416537
0.027727002 -0.013610108 -0.015533242 -0.016690167 -0.0062312074 -0.017714411 -0.02129396 0.0031543463
0.030015636 0.0012835034 0.01922816 -0.016972722 0.014636555 -0.022064246 -0.0027393196 0.012684334
0.026484823 0.021330254 0.0024337915 0.007358786 0.030224338 0.012372579 0.0010251772 0.008761961
-0.018330026 0.011332651 0.00936862 0.012610344 0.0019861397 0.022541057 -0.0008721029 -0.004664894
-0.03299005 -0.03183759 0.010790396 -0.008740636 -0.005411037 0.024756579 0.0056618736 -0.018962476
0.027362315 -0.019889515 0.02475344 -0.03150407 0.02581701 0.029206505 -0.019836426 -0.005459386
-0.024651907 -0.0007347483 0.03610007 0.028526941 -0.038352504 0.0048513804 0.004570645 0.0034614308
-0.001114209 0.015972236 -0.011762597 -0.034114655 -0.032516092 0.030793525 -0.017885441 0.005553778
00000000: 4829 b7bb 3d57 51bc 411f cdbc d77d e93a
00000010: 5b01 babb 5b3d babc 65a1 bfbc 72b9 ae3c
00000020: e220 d9bc f8a9 93bb 18dc 113c 8509 3f3b
00000030: 9371 56bc d4ae 8bbc cf10 0ebd 4e17 e83b
00000040: 50ba 113c 9b02 e0bc 0a7c f13b 2de6 f9bb
00000050: 04ad f4bc d833 61b9 cf12 cfbc ae56 a63c
00000060: 996e 84bc b947 a6bc cc91 b83a f192 083d
00000070: 72bb 91bc 7a5a a3bc c7ab b6bc 2e19 91bc
00000080: 321a 06bd 7e12 adbc 189a 0abb 625a a83b
00000090: c451 b33c 8564 dd3c f55d b4bc 8b23 e0bb
000000a0: 2416 fa3c a0a1 0f3d b9f8 ca3c 8531 803b
000000b0: 3bff 0c3d 46a4 f33c af32 06bd ac07 15bd
000000c0: 0017 efbc 0598 f23c 2b2c c1bb 8747 1ebd
000000d0: a04c 1cbb 28e3 443c 7326 cfbc 1f89 cfbb
000000e0: 1b47 b33c c66c 06bd 8a2a 053c 5322 d53b
000000f0: 7050 003d f7cf 82bb a316 e83c 34e4 4dbb
00000100: bd23 e33c eefc 5ebc 247f 7ebc d1b9 88bc
00000110: 282f ccbb d01d 91bc ac70 aebc 26b9 4e3b
00000120: 5ae3 f53c 3a3b a83a 6084 9d3c 610a 8bbc
00000130: 29ce 6f3c 14c0 b4bc 2886 33bb f4d1 4f3c
00000140: b3f6 d83c c9bc ae3c 3f80 1f3b f921 f13b
00000150: 0899 f73c 5cb6 4a3c 3d5f 863a 548e 0f3c
00000160: da28 96bc 95ac 393c d77e 193c 9e9b 4e3c
00000170: e529 023b 06a8 b83c d69d 64ba f8db 98bb
00000180: 9320 07bd 2268 02bd 33ca 303c e234 0fbc
00000190: 114f b1bb 4fce ca3c 3d87 b93b 3257 9bbc
000001a0: ef26 e03c 56ef a2bc bac7 ca3c 690a 01bd
000001b0: 327e d33c 7b42 ef3c 0080 a2bc a6e4 b2bb
000001c0: ccf2 c9bc 209c 40ba abdd 133d 55b1 e93c
000001d0: 8417 1dbd 54f8 9e3b 59c5 953b 2cd9 623b
000001e0: a60a 92ba 35d8 823c e8b7 40bc cfbb 0bbd
000001f0: 982f 05bd b442 fc3c 7d84 92bc 77fc b53b
