promptPGpot/checkpoints/exp0_autopot_0.1randompolicy/ckpt_10.pt (torch, 394727 bytes, 2 tensors)

weight f4 [128, 768]
000000 6b ed 63 bc c4 29 dd bb f0 01 1b 3d f5 bf a8 3b
       -0.013911585 -0.0067493636 0.037843645 0.005149836
000010 4a 87 9d 3b 2b 60 81 3c b5 2a 30 bc f9 a0 7a bc
       0.0048073875 0.015792927 -0.01075237 -0.015297168
000020 e5 53 b6 bc 83 e8 cd 3c 45 82 8e 3c 36 5b a4 3c
       -0.0222568 0.025135284 0.017396102 0.020063024
000030 a8 40 c1 3c cd a0 b5 3c 3b df 87 3c 1b 21 ef bc
       0.0235904 0.022171402 0.016585937 -0.02919059
000040 ed d9 34 3c d9 a7 94 bc 71 d8 ee bb 79 74 09 bd
       0.011038286 -0.018146442 -0.0072889854 -0.033558343
000050 92 a9 1a bd 0f b3 b7 bc 5d 15 4a bb e7 19 a0 3c
       -0.03775937 -0.022424249 -0.0030835487 0.019543601
000060 b3 54 d6 bb e3 0a 41 3c 03 dd 48 3c bc 79 d4 3c
       -0.0065408587 0.011782381 0.012259725 0.025936954
000070 0d b2 0b 3c 5f af 6d 3c 64 6f cd bc f0 36 97 bc
       0.008526337 0.014507144 -0.02507753 -0.018458813
000080 fe fd 4f 3c af ab dc bc 18 7c 6b 3b 0f 7c 86 3c
       0.012694834 -0.026937334 0.003593212 0.016416578
000090 eb c5 8c 3b 0d 83 cc 3c f4 a3 85 bc ed 29 8e bc
       0.0042960546 0.024964834 -0.01631353 -0.017353976
0000a0 02 45 ea 3c f8 10 45 3c 17 24 49 bc 41 a7 16 3c
       0.028597359 0.012027971 -0.012276671 0.00919515
0000b0 6c 16 9d bc 20 ba eb bb c1 21 05 3d 00 fe ca bc
       -0.01917573 -0.0071938187 0.032502893 -0.02477932
0000c0 a3 ac 7f bc d2 78 22 bd 20 9c 02 bd bc 0b 04 bd
       -0.015605125 -0.039666004 -0.031887174 -0.032237753
0000d0 06 b0 b7 3c 19 fa 0f 3d 99 ac 1e 3c 9d 3d b3 3c
       0.022422802 0.03515062 0.009684705 0.021879965
0000e0 d7 f4 0b bd cb fa 4c 3c ad 29 0c bd 58 c3 61 bc
       -0.034169044 0.012510966 -0.034219433 -0.013779484
0000f0 53 5e 15 3d a8 68 a9 bc 37 5b 97 bb 98 d4 bd 3b
       0.036466908 -0.020679787 -0.004619028 0.0057931654
000100 bc c7 80 3c 61 1d 2e 3c 9e 19 99 3b fe 98 c1 3c
       0.01572024 0.010627122 0.0046722433 0.023632523
000110 7f 82 b2 bc 2d 39 1a 3c d0 d5 6d bc eb ac 10 bc
       -0.021790741 0.009413046 -0.014516309 -0.008830289
000120 94 dd a9 3c 18 ff 1d 3b 96 e7 3e 3c 10 8a c4 bc
       0.02073554 0.0024108347 0.011651894 -0.023991615
000130 93 e8 ec 3b 01 ed e2 bc 5b 93 b7 3a d4 44 0a 3c
       0.0072298734 -0.027700903 0.0014005707 0.0084392615
000140 22 c0 27 bd 35 44 a2 3c c0 39 35 bc dc 3b bf bc
       -0.040954717 0.019807914 -0.011061132 -0.023343973
000150 86 5c 00 3d f5 b0 d6 3c d3 20 44 3c 3f 98 4a 3c
       0.031338237 0.026207427 0.0119707165 0.0123654
000160 26 a2 a8 bc 47 c4 ee 3b 1c ee 03 3d e6 1a 10 3c
       -0.02058513 0.0072865817 0.0322095 0.008795476
000170 fe 51 d8 3c 1f 7e 8d 3c 82 c3 df bc 32 c7 99 3c
       0.026406284 0.017272053 -0.027314905 0.018771742
000180 e8 0d 8e bb 77 87 05 3d b1 d5 01 3d 31 7f 11 bb
       -0.004335154 0.032599892 0.031697933 -0.0022201056
000190 b2 44 a5 bc 73 ce 99 bc c7 48 d3 3c 97 f3 01 bc
       -0.020174358 -0.0187752 0.025791539 -0.0079316115
0001a0 70 a9 9f 3b dd 86 94 bc 02 6c 11 3d ac ff c1 3a
       0.0048724934 -0.018130714 0.035503395 0.0014800928
0001b0 47 1d c6 bb 44 60 b6 bb 7b 8b ca 3b c2 71 02 bd
       -0.0060459706 -0.005565675 0.006181178 -0.03184677
0001c0 88 cf a3 bc ce 3d 05 bd ae 5a c6 bc fd 7b fd 39
       -0.01999642 -0.032529645 -0.024213161 0.000483483
0001d0 47 c6 1f bc 0d c8 6f 3c 51 c8 80 bc 55 71 6f 3c
       -0.009751863 0.014635098 -0.015720518 0.014614423
0001e0 f2 7a 02 3d 06 11 a3 3c ba 71 3a 3c 60 21 ce bc
       0.03185553 0.019905578 0.011379654 -0.025162399
0001f0 cc 0a 2c bc 08 07 26 bc 6a d2 5e 3c a0 f1 99 3c
       -0.010500621 -0.010133512 0.013599971 0.018791974
000200 a6 f0 ef 3b 7e de ab 39 ed af eb bb 9b ad c5 ba
       0.0073223887 0.0003278143 -0.007192603 -0.0015081646
000210 e1 96 d8 3b 49 38 3f bc c2 70 e9 bc b7 52 0c ba
       0.006609783 -0.011671134 -0.02849615 -0.00053529016
000220 fc c3 71 3c 4f cd bb bc 63 19 83 bc 42 57 1a 3d
       0.014756199 -0.022925047 -0.016003316 0.03768087
000230 71 99 a2 bc 20 48 31 bc 93 1d 1f bd 75 17 a3 3c
       -0.019848557 -0.010820419 -0.038846564 0.019908646
000240 5c 26 d3 bc 6b 46 d3 3c f6 b5 d5 3c f9 d6 db bc
       -0.025775127 0.025790414 0.026087742 -0.026835905
000250 95 90 c9 bb 55 10 8d bc fa 55 33 bc c7 e1 b2 3c
       -0.0061512687 -0.017219702 -0.010945791 0.021836175
000260 eb 37 f6 3c 3a 73 d4 3c 6f 7b 1b bc 96 e8 a8 3c
       0.03005596 0.02593385 -0.009489878 0.020618718
000270 2e 1a c2 bc 18 d5 85 bc e1 de 44 bb c5 c6 8c bc
       -0.023694124 -0.016336963 -0.0030040073 -0.017184624
000280 78 d7 f7 bb 17 bc 12 3d 75 e0 32 3c a1 87 4f 3c
       -0.0075635277 0.035823908 0.010917773 0.012666614
000290 2b f9 eb bc 8c 1b cb 3c d2 16 5a bc 97 57 d8 bc
       -0.028805336 0.024793409 -0.013311105 -0.026408954
0002a0 c0 52 05 bd 78 7d d4 bc 68 42 98 bc a4 1f f0 3c
       -0.03254962 -0.025938734 -0.018586352 0.029311962
0002b0 1a 30 10 ba d7 c7 70 bc ae 10 b3 bc 2e ec ba bc
       -0.0005500332 -0.014696083 -0.02185854 -0.022817697
0002c0 a9 3c c0 bc 00 e7 b3 3c d0 ee 6e bb a0 f5 9e 3c
       -0.023466425 0.021960735 -0.0036458261 0.019404233
0002d0 bb 09 af bc 78 9f 22 bc c4 cf 9c 3b 16 2f fc bc
       -0.021366945 -0.009925716 0.00478551 -0.030784171
0002e0 c2 a9 df bc 54 ab 6c 3c 14 d6 bf 3b 1f 0d e2 bb
       -0.027302627 0.014445145 0.0058543775 -0.006898537
0002f0 30 b4 d1 3c 3f ca 49 3c cb 5d 91 3c 80 ee 63 3c
       0.025598615 0.012316286 0.01774492 0.013911843
000300 fd 6b bc 3c eb 23 7f 3c 0b 24 01 bd 38 36 01 bd
       0.023000712 0.015572528 -0.031528514 -0.031545848
000310 c8 0d db b9 8a dd b4 3c 62 14 41 3b 45 e2 80 3c
       -0.00041781203 0.022078294 0.0029461612 0.015732894
000320 06 fd f6 3b 04 b6 8c 3c 53 69 0d 3d 49 a0 67 3c
       0.007537487 0.017176636 0.034524273 0.014137336
000330 9b da 5f 3c 48 e3 f9 bb ae db 06 3d 05 30 0b bd
       0.013662959 -0.007625971 0.032924347 -0.033981342
000340 b6 26 f5 3c 10 78 81 3c c9 1f 9d bc 55 58 ec 3c
       0.029925685 0.01580432 -0.019180195 0.028850714
000350 5a 71 08 bc 66 ca 1a bd d1 63 72 3c 63 6b f1 bc
       -0.008327806 -0.03779068 0.014794306 -0.029470151
000360 49 52 f9 ba 9d bf bb bc 2b 7d c6 3c 02 99 29 3c
       -0.0019021715 -0.022918517 0.024229607 0.010351421
000370 2a 7a b7 bc 17 62 e9 3c d1 14 23 bc 2c 03 31 3d
       -0.02239712 0.028489156 -0.0099536935 0.043215916
000380 ea d9 07 3d 98 27 f4 bc 19 4a c7 3c 4d 59 b0 bc
       0.033166803 -0.029804036 0.024327325 -0.021526957
000390 67 3e d1 bc 18 6a 56 bc 3a f7 06 ba 30 50 59 3b
       -0.025542451 -0.013086818 -0.0005148534 0.0033159368
0003a0 21 98 0b bc 57 92 ce bc 5a 2c 63 bc 22 7b be 3c
       -0.008520157 -0.025216265 -0.013865555 0.023252074
0003b0 e2 df aa 3c 04 98 f2 3c 14 51 80 3c 61 fe b4 bb
       0.020858709 0.029613502 0.015663661 -0.0055234884
0003c0 54 0f 71 bb 71 50 8e bc 1a 77 d4 bc c8 18 e3 3c
       -0.0036782818 -0.017372342 -0.025935698 0.027721778
0003d0 4c 5e c5 3c 77 95 1e 3d 98 4c 91 3b 8c aa 56 3c
       0.024092816 0.03871676 0.0044341795 0.013102185
0003e0 b0 42 9f 3c 18 dd 57 3c 08 2e 26 3c 8b 20 1e 3a
       0.019440979 0.013175271 0.010142811 0.0006032071
0003f0 33 44 07 bd 7f 6d e8 3c 35 95 e3 3c 78 08 2c 3b
       -0.033024024 0.028372524 0.027781108 0.0026250165

bias f4 [128]
000000 0c 67 b7 bb 85 f2 1a bc 5a db f6 bc 14 af 66 ba
       -0.005597001 -0.009457235 -0.030133892 -0.00087998924
000010 b5 82 e6 bb cc 16 cd bc 96 67 d2 bc 7e 16 b4 3c
       -0.0070346245 -0.025035284 -0.02568416 0.021983381
000020 99 73 c5 bc e0 fc dd bb c5 5e f7 3b e4 04 ae 3a
       -0.024102973 -0.00677453 0.007549139 0.0013276604
000030 d6 f7 4f bc 5b 0c b3 bc 9b 81 0a bd 9c c4 8d 3b
       -0.012693366 -0.021856477 -0.033815008 0.004326416
000040 93 9a 49 3c e5 a3 f7 bc ee 9a 04 3c 61 3d 59 bc
       0.01230492 -0.030229518 0.008093579 -0.013259263
000050 ca 6b e9 bc 93 7a 8d bb 04 e2 d4 bc 6e 81 8e 3c
       -0.02849378 -0.0043175905 -0.025986679 0.017395701
000060 a0 93 88 bc 4d 71 9c bc dc b7 e7 3a 3e 65 0c 3d
       -0.016671956 -0.019096995 0.0017678696 0.03427624
000070 6d ac 88 bc 52 ef a4 bc d8 a5 d9 bc 4a 35 95 bc
       -0.016683782 -0.020133648 -0.026568338 -0.018213887
000080 e2 a2 fa bc e3 13 9d bc 48 3b 54 bb 86 ea f2 3b
       -0.030595247 -0.019174522 -0.0032383967 0.0074132113
000090 c0 16 ca 3c a5 e2 d6 3c 31 8e bd bc 3f d7 bf bb
       0.024669051 0.02623112 -0.023139091 -0.0058545168
0000a0 9e 5d fb 3c 43 a6 f3 3c 1d 0c df 3c a3 4a b0 3b
       0.030684289 0.029742366 0.027227456 0.005379991
0000b0 93 6d 0d 3d b7 b6 ea 3c e1 59 07 bd bb 11 09 bd
       0.034528326 0.028651578 -0.0330447 -0.033464175
0000c0 a7 5e f3 bc 8b a8 dc 3c d4 51 b7 bb 2a f0 1c bd
       -0.02970822 0.026935836 -0.0055944715 -0.038314976
0000d0 bb 89 9d bb 44 91 50 3c 75 ce d8 bc ab d6 dc bb
       -0.0048076785 0.0127299465 -0.026465634 -0.0067394576
0000e0 84 75 96 3c b2 0a 0a bd 58 ec 4d 3c 99 47 d6 3b
       0.018366583 -0.033701606 0.012568556 0.006539297
0000f0 04 ab ff 3c 2e 67 b6 b9 bb dd e7 3c 44 c5 30 bb
       0.031209476 -0.0003479062 0.028303972 -0.0026973048
000100 ed 21 ce 3c 99 32 50 bc 8b 85 7f bc a7 be a2 bc
       0.025162661 -0.012707376 -0.015595804 -0.0198663
000110 a9 3c ab bb 02 3e 8b bc 26 09 b4 bc f8 f3 85 3b
       -0.005225737 -0.016997341 -0.021977019 0.004087921
000120 2a c2 e2 3c 78 30 30 3b 72 bf bc 3c 67 7f 76 bc
       0.027680475 0.0026884358 0.023040507 -0.0150450235
000130 c9 1e 63 3c 8a 80 a9 bc 79 2c 99 bb 8b 11 3d 3c
       0.01386232 -0.020691175 -0.004674491 0.011539827
000140 e0 67 df 3c 3a fa b4 3c 99 f2 80 3b 72 84 12 3c
       0.027271211 0.022091974 0.00393517 0.00894271
000150 1d fa f0 3c 87 7c 25 3c c3 9f c1 3a f0 97 0d 3c
       0.029416138 0.01010049 0.0014772344 0.008642182
000160 5a 45 99 bc 4a f6 21 3c 5e 71 4b 3c bc 4b 29 3c
       -0.018709827 0.00988538 0.012417166 0.010332998
000170 34 27 59 3a 0a 14 c7 3c 96 4b 4b 3b d0 44 f6 bb
       0.0008283735 0.024301548 0.0031020395 -0.0075155273
000180 ae 9c 16 bd 88 77 0f bd 35 87 14 3c 2c f1 fc bb
       -0.036770515 -0.035026103 0.009065439 -0.0077191796
000190 88 cb d7 bb bf 21 b3 3c e0 bd 06 3b 50 bc a1 bc
       -0.006585542 0.021866677 0.0020559952 -0.019743115
0001a0 b7 e0 d7 3c 6d d9 ba bc 8a 97 a7 3c d4 d2 0d bd
       0.02635227 -0.022808755 0.020458002 -0.03462489
0001b0 00 4a c0 3c f3 22 02 3d 76 de b5 bc d7 50 dc bb
       0.023472786 0.03177161 -0.022200804 -0.006723504
0001c0 7a c0 d5 bc b7 eb 0a bb 5d db 14 3d 38 e9 e5 3c
       -0.026092757 -0.0021197626 0.036342014 0.028065309
0001d0 cf 9a 1a bd 8e 61 76 ba d0 13 1a 3b 04 bb 8b 3b
       -0.037745293 -0.0009398692 0.0023510344 0.0042642374
0001e0 84 ea 0f 3a ed 10 8a 3c 2f 13 51 bc 81 68 13 bd
       0.00054899626 0.016853774 -0.012760921 -0.035988335
0001f0 60 c9 fd bc cf 6c 03 3d 9d 84 91 bc 06 8d ef 3b
       -0.030979812 0.03208619 -0.01776343 0.0073105125
