promptPGpot/checkpoints/exp0_autopot_0.1randompolicy/ckpt_7.pt (torch, 394659 bytes, 2 tensors)

weight f4 [128, 768]
000000 53 f0 57 bc 58 44 cd bb 8c ed 0b 3d 52 8f 08 3c
       -0.013179856 -0.0062642507 0.03416209 0.0083349515
000010 63 30 d5 38 ac 40 90 3c e8 2b 25 bc ee 29 60 bc
       0.00010165644 0.017608963 -0.010081269 -0.013681872
000020 6c ff e1 bc fc ca f2 3c 19 46 66 3c 9e 80 8a 3c
       -0.027587615 0.029637806 0.0140547985 0.016907033
000030 0e 3b da 3c be 12 bf 3c 67 5d 7b 3c 96 f8 02 bd
       0.026639488 0.023324367 0.015342093 -0.03197535
000040 79 00 49 3c c6 ab a1 bc 1f 1f f9 bb 6c 08 19 bd
       0.012268179 -0.019735228 -0.007602587 -0.037361547
000050 23 67 1b bd 93 4b c2 bc 27 de 26 bc b8 34 7b 3c
       -0.037940156 -0.023717677 -0.010184801 0.015332393
000060 59 51 bb bb 7f 46 11 3c ed 0d a7 3c 7d 93 d5 3c
       -0.0057164845 0.008866905 0.020392383 0.026071304
000070 0b 3b 68 3c db 10 ad 3c dd 3c c6 bc b4 8c 98 bc
       0.014174233 0.021126201 -0.024198944 -0.01862178
000080 4e a0 74 3c 43 4a d5 bc 97 8b 2a b9 5f 42 38 3c
       0.014930798 -0.026036387 -0.00016264465 0.011246293
000090 52 b4 cc 3b fb 24 e3 3c 87 ce 86 bc 95 82 81 bc
       0.006247082 0.027727595 -0.016455902 -0.015809337
0000a0 af dd f3 3c 35 5b 65 3c 87 b6 d4 bb 4e 0f a3 3b
       0.029768793 0.013998796 -0.0064914855 0.0049761897
0000b0 73 55 82 bc 3e ac 2a bc 61 8c 0e 3d ae fb e2 bc
       -0.015909886 -0.010417042 0.034801845 -0.0277079
0000c0 14 ed 3b bc df 31 1b bd 8c cb 20 bd 69 87 df bc
       -0.011470098 -0.037889358 -0.039256617 -0.027286248
0000d0 74 64 e1 3c 42 bf 09 3d 67 6f 9f 3b 7d 69 dc 3c
       0.02751372 0.033629663 0.004865575 0.02690577
0000e0 c6 80 04 bd a2 f2 71 3c cf 73 dc bc 84 96 53 bc
       -0.03234937 0.014767321 -0.02691069 -0.012914304
0000f0 6b 79 0b 3d b1 b5 91 bc 6a 50 3e ba a4 5e 78 3b
       0.03405134 -0.017786833 -0.00072599074 0.0037898207
000100 33 74 82 3c 8d 07 52 3c 09 32 54 ba 95 5e d4 3c
       0.015924549 0.012819183 -0.0008094614 0.025924006
000110 e5 2f af bc 38 ab e6 3b 2c b0 a2 bc f5 60 8c bc
       -0.021385143 0.007039454 -0.019859396 -0.017136076
000120 56 8d cb 3c a3 34 d5 3b 99 ba 0a 3c 25 0d dd bc
       0.024847668 0.006506519 0.00846734 -0.026983807
000130 41 66 2f 3c 58 fd e8 bc 56 a9 e2 3b 29 e7 98 3b
       0.010705532 -0.028441116 0.006917159 0.0046662283
000140 57 0f 26 bd fd 51 96 3c 12 9f 15 bc d1 a0 ab bc
       -0.040541973 0.018349642 -0.009132164 -0.020950707
000150 ad f0 01 3d 7d e3 df 3c 5f f0 16 3c 66 2b 0a 3c
       0.031723667 0.027330155 0.009212582 0.008433199
000160 20 9d b2 bc 2b 44 7d 3b 1e 9e 0b 3d 9c 69 20 3c
       -0.021803439 0.0038645368 0.03408634 0.009790804
000170 b2 f4 b4 3c 66 32 66 3c 12 02 03 bd 07 d4 be 3c
       0.022089336 0.014050102 -0.031984396 0.023294462
000180 de b8 c1 bb 58 34 12 3d cf 8e e2 3c 6e 0c ae bb
       -0.0059119305 0.03569445 0.027655987 -0.0053115403
000190 af a5 ce bc d2 a6 85 bc 87 41 01 3d da 25 92 bb
       -0.025225488 -0.016314898 0.031556632 -0.0044600787
0001a0 02 69 9f 39 5b a8 9a bc 44 01 0d 3d 8a e6 34 ba
       0.0003040508 -0.018879106 0.034425035 -0.0006900808
0001b0 e7 a4 3c bb 72 15 f0 ba 69 da ee 3a af 6e e3 bc
       -0.0028784813 -0.0018316938 0.001822305 -0.027762739
0001c0 7c 0e 6b bc 29 6e 00 bd fa 7f e3 bc 6a 46 ba 3b
       -0.014346715 -0.031355057 -0.027770985 0.0056846635
0001d0 dd a9 5f bc 5a 1d 95 3c 65 61 9f bc 09 50 48 3c
       -0.013651338 0.018202472 -0.019455621 0.012226113
0001e0 bd 1f e3 3c 01 d4 92 3c 27 b8 26 3c 41 6c a6 bc
       0.027725095 0.017923357 0.010175741 -0.020315291
0001f0 ca 95 6e bc 3c e5 da bb 45 01 db 3b d4 b3 60 3c
       -0.01456208 -0.006680159 0.006683501 0.013714749
000200 34 7b c9 3b 2e a1 40 3b 4f 14 14 bc 1f 06 18 ba
       0.00614872 0.0029392946 -0.009038045 -0.0005799252
000210 86 7a 2a 3c 3d 78 87 bc 31 74 dc bc b8 ae 99 ba
       0.010405188 -0.016536826 -0.026910873 -0.0011725044
000220 e5 22 8d 3c db 75 7d bc ac 11 8a bc 43 62 1d 3d
       0.017228553 -0.015469993 -0.01685413 0.038423788
000230 1a 8a a6 bc 17 0f 27 bc e8 8c 12 bd c3 e2 b4 3c
       -0.020329524 -0.010196469 -0.03577891 0.022080785
000240 45 ec d5 bc ef 1f c9 3c 99 54 c5 3c 18 f8 c1 bc
       -0.026113639 0.02455136 0.02408819 -0.02367787
000250 5c b1 52 bb d8 bb a2 bc 94 53 1c bc 93 be 9a 3c
       -0.0032149171 -0.019864962 -0.009541411 0.018889701
000260 ad bb 0a 3d 3c 9d b6 3c 16 2c 3e bc a3 85 aa 3c
       0.033870388 0.022291772 -0.011607191 0.020815676
000270 07 5d b8 bc 07 70 9f bc cd 97 d0 b9 5b c8 84 bc
       -0.022505296 -0.019462598 -0.00039785952 -0.016208818
000280 f7 08 65 bc d6 15 03 3d c9 07 4f 3c a8 74 51 3c
       -0.013979188 0.032003246 0.0126361335 0.012784161
000290 5e a2 03 bd ef 72 af 3c 4e 6d 59 bc 37 86 fa bc
       -0.032137267 0.02141711 -0.013270689 -0.030581577
0002a0 46 14 02 bd ed f1 ac bc d2 c3 a5 bc 81 16 bc 3c
       -0.031757616 -0.021111453 -0.020234976 0.02295995
0002b0 26 f5 43 bb 9a e9 aa bc ff c9 84 bc 42 f6 cb bc
       -0.0029900759 -0.020863343 -0.0162096 -0.024897698
0002c0 a4 61 c5 bc 5c 6d 92 3c c7 4a 99 bb 7b 30 47 3c
       -0.02409441 0.017874412 -0.0046781036 0.012157555
0002d0 2d e0 ae bc 28 32 11 bc ca 77 c0 3b 16 e5 0d bd
       -0.02134713 -0.008862056 0.005873655 -0.0346423
0002e0 db 4a 08 bd 85 0d 7d 3c 55 4a 8f 3b e8 58 72 bc
       -0.033274513 0.015445118 0.0043728747 -0.014791705
0002f0 a6 5b af 3c 7f 57 53 3c 5c 73 b0 3c f3 c9 9d 3c
       0.021406006 0.012899279 0.021539383 0.019261336
000300 e6 33 c8 3c d3 87 78 3c 2a ad da bc f4 d7 c7 bc
       0.02443881 0.015169102 -0.0266939 -0.024394967
000310 2c 9a bd ba 28 35 a6 3c 5d 30 c4 bb 54 6c 75 3c
       -0.0014465502 0.020289019 -0.0059872107 0.014979441
000320 d2 e1 42 3c 7b 23 99 3c fa f9 0c 3d b4 cc 81 3c
       0.01189466 0.018693676 0.034418084 0.01584468
000330 48 03 43 3c 24 2c 28 bc 27 44 02 3d 68 85 0a bd
       0.011902638 -0.01026443 0.031803276 -0.033818632
000340 41 06 ff 3c 58 b9 54 3c fb fd 90 bc 22 9c c4 3c
       0.031130912 0.0129836425 -0.017699232 0.024000231
000350 20 d3 6d bc 57 34 25 bd 48 67 78 3c 6a 39 eb bc
       -0.014515668 -0.04033312 0.015161343 -0.0287139
000360 e2 ae cc 39 ba 70 98 bc 8a c7 be 3c 6f 32 0e 3c
       0.0003904021 -0.01860844 0.023288507 0.0086790165
000370 93 08 bb bc 05 44 b3 3c eb a8 2d bc 9e 8f 1b 3d
       -0.022831237 0.02188302 -0.010599355 0.03797876
000380 61 ee 11 3d 07 ba f2 bc 86 a8 e7 3c d3 77 c5 bc
       0.035627726 -0.02962972 0.0282786 -0.024104988
000390 80 fc df bc 00 3e 1e bc 72 94 7b bb cb 30 c9 3b
       -0.027342081 -0.009658337 -0.003838804 0.00613985
0003a0 b7 05 90 bb af 64 ce bc 58 9c 99 bc b2 d5 a0 3c
       -0.0043952125 -0.025194494 -0.018751308 0.019633148
0003b0 5b 4d b9 3c db 5f f1 3c ce 81 7c 3c a6 65 b7 bb
       0.022619894 0.029464653 0.015411807 -0.0055968342
0003c0 e3 7d c0 bb 0f 60 96 bc a3 23 da bc e6 ee b0 3c
       -0.005874382 -0.018356351 -0.026628321 0.02159829
0003d0 5d a2 ea 3c 14 92 10 3d ae 6c 7a ba 5b cb 66 3c
       0.028641874 0.03529556 -0.00095529377 0.01408657
0003e0 8c 9c 84 3c 65 dc 7a 3c 98 e5 2d 3c a4 47 9e bb
       0.016187929 0.015311335 0.010613821 -0.0048303176
0003f0 e5 89 f4 bc eb f3 cc 3c e7 3b f5 3c 99 33 52 3b
       -0.02985091 0.025018653 0.02993579 0.0032074212

bias f4 [128]
000000 3e 30 04 bc 08 0d 1d bc fb 75 e8 bc 92 87 02 3a
       -0.008068142 -0.009585626 -0.02837657 0.0004979308
000010 6d 0e b1 bb 43 b9 c8 bc 25 07 cd bc 28 86 bb 3c
       -0.005403331 -0.024502402 -0.02502782 0.02289112
000020 fb 7a c0 bc 5d 5b 80 bb ed 8a 60 3c 87 08 93 3a
       -0.023496142 -0.0039171414 0.0137049975 0.0011217751
000030 b7 7d 5b bc 96 22 b5 bc d8 2b 10 bd 18 a9 b4 3b
       -0.013396672 -0.022111218 -0.035198063 0.0055133216
000040 81 ed 39 3c 6f 28 de bc 02 06 0c 3c d4 2d 45 bc
       0.011348129 -0.02711889 0.008546354 -0.012034852
000050 f8 df f9 bc 4a 9b 5c bb 0d 32 d3 bc cc 25 93 3c
       -0.030502304 -0.0033661895 -0.025780702 0.017962359
000060 a7 f0 90 bc 2f fd 6f bc 4c bc 85 3b 16 5e 04 3d
       -0.017692877 -0.014647766 0.0040812846 0.03231629
000070 ea 43 aa bc 33 ed a7 bc 24 13 d7 bc 9c 66 94 bc
       -0.020784337 -0.020498848 -0.026254244 -0.018115334
000080 b2 e2 f3 bc 87 07 a3 bc 57 9d 40 bb 4a 3c 00 3c
       -0.029771183 -0.01990105 -0.0029390657 0.007826874
000090 44 6b d3 3c 70 10 d2 3c 50 f2 be bc 56 8f d9 bb
       0.025807984 0.025642604 -0.023308903 -0.0066394014
0000a0 31 57 e6 3c e6 93 ff 3c f5 d4 e5 3c 9a 80 ae 3b
       0.028117748 0.031198453 0.028055647 0.005325389
0000b0 a2 7a fa 3c 08 61 ee 3c d1 5e 02 bd fb 8f 15 bd
       0.030576054 0.029099002 -0.031828705 -0.036514264
0000c0 fe 9c e1 bc 3a 92 e0 3c 60 a7 de bb 24 51 19 bd
       -0.02754068 0.027413476 -0.006794855 -0.037430897
0000d0 ac 75 43 bb 89 71 76 3c bd 65 b2 bc 47 c2 bc bb
       -0.0029824777 0.015041717 -0.021777028 -0.0057604644
0000e0 a9 6d 93 3c 8f 5f 0b bd d0 71 3b 3c 08 95 51 3b
       0.017996626 -0.03402668 0.011440709 0.0031979699
0000f0 a0 59 ff 3c ee 74 cf 3a 0b 42 e6 3c 66 e2 80 3a
       0.031170666 0.0015827694 0.028107664 0.0009833097
000100 1c 58 cb 3c ea ca 37 bc d7 b8 5e bc 4d 13 9d bc
       0.024822287 -0.011217812 -0.013593874 -0.019174242
000110 67 d3 92 bb 67 8e 92 bc 98 27 ae bc 10 af 78 3b
       -0.0044807675 -0.017890168 -0.021259114 0.0037946142
000120 ff 21 05 3d b1 4c c5 bb c0 1a c4 3c b7 c6 86 bc
       0.032503124 -0.006021105 0.023938537 -0.016452176
000130 02 52 59 3c fa 2e c4 bc e6 38 6e ba 5f 9f 50 3c
       0.013264181 -0.023948181 -0.0009087458 0.0127333095
000140 89 08 df 3c 86 d2 d6 3c 8f 5e 89 3b 5e a9 fb 3b
       0.02722575 0.026223432 0.0041921805 0.0076801023
000150 ea 5b 04 3d 24 8d bc 3b 9a 70 68 3b 8a 42 05 3c
       0.03231422 0.00575413 0.0035467506 0.00813354
000160 12 f7 9d bc f2 c6 23 3c a7 59 19 3c 73 85 32 3c
       -0.019282851 0.009996163 0.009359754 0.010896075
000170 ec 2a 24 39 27 39 c4 3c 39 0c 43 3b 3f 0b e2 bb
       0.00015656248 0.023953034 0.0029761924 -0.0068983133
000180 41 bd 16 bd 92 32 0b bd 28 e4 1e 3c a7 81 19 bc
       -0.03680158 -0.033983774 0.009697951 -0.00936929
000190 36 a4 7b bb 1f 3f b3 3c dc fd e2 3a 65 45 a2 bc
       -0.0038397438 0.021880684 0.0017318088 -0.01980848
0001a0 0e cf dc 3c 68 df c7 bc 75 46 ac 3c d7 b3 09 bd
       0.0269542 -0.02439852 0.02102969 -0.033618774
0001b0 b9 d3 ba 3c 82 c2 06 3d d7 bc a4 bc cd 13 71 bb
       0.022806035 0.03290034 -0.020109577 -0.0036785484
0001c0 92 1c dd bc ee 65 a0 ba fe a6 25 3d 11 92 e1 3c
       -0.026991162 -0.0012237409 0.04044246 0.02753547
0001d0 d2 78 16 bd 50 47 7d 37 bc b3 07 3a d6 16 bc 3b
       -0.036736317 1.5096579e-05 0.0005176624 0.005740027
0001e0 4e 70 9c 39 30 cf 6b 3c 2a 57 46 bc a5 5c 16 bd
       0.00029838312 0.014392659 -0.0121057425 -0.036709446
0001f0 6c 40 e8 bc 3d ae 07 3d 97 1d 9c bc e5 54 49 3c
       -0.028351031 0.03312515 -0.019057078 0.012288307
