promptPGpot/checkpoints/exp0_autopot_0.1randompolicy/ckpt_4.pt (torch, 394659 bytes, 2 tensors)

weight f4 [128, 768]
00000000: f44a 60bc fc0d 1bbc df42 183d 6423 4f3b
00000010: ced4 b4ba 1e51 a23c 227b 37bc d9b9 83bc
00000020: 5d48 adbc 7c7d ca3c 0fcf 6d3c 6d88 c73c
00000030: 47b8 a33c f16b 973c f300 143c c018 d0bc
00000040: 9c91 373c c83a 80bc 9bbd 2ebc d1cc edbc
00000050: ff5a 01bd 4924 c4bc d236 23bc 0d56 893c
00000060: e0f9 46b9 b52f 0c3c 40d0 ca3c b14f e63c
00000070: 2d08 9f3c 1ad9 943c 28c9 ccbc 0c3d 81bc
00000080: 9722 a03c e10d fcbc 8bc6 0c39 558b 2f3c
00000090: 3034 ce3b 2a8b 043d 0d92 82bc e4d8 5bbc
000000a0: 701b bc3c ce6a e83b d3f3 8cbb dc96 b23b
000000b0: 562c 83bc 9b17 89bb 089f 013d 73d6 adbc
000000c0: d328 c4bb b4b1 14bd bcde 1fbd f8d7 d4bc
000000d0: b36f b83c da7d ff3c 815e 3c3c f69d a23c
000000e0: 3165 febc 29c3 9a3c 2866 01bd 86cf b0bc
000000f0: 5c51 023d 5471 b3bc 7510 b73b 9867 2e3c
00000100: 03b9 1d3c b001 6e3c 81cd 0b3b 46a3 bf3c
00000110: 4e16 b9bc a765 213c d54b 7dbc 66ff b1bc
00000120: b874 a53c b45d 4b3a 9825 013c 90eb e4bc
00000130: d77f 9e3b 303b 06bd bc58 333c a7bb 563c
00000140: 54b6 39bd a4c0 743c 647c 1fbc d236 b8bc
00000150: 15c5 f93c f4f1 d73c c076 443c a7cc 413c
00000160: 06ee b9bc 31a2 293b df23 e43c 093e 423c
00000170: e59b f33c 2d84 473c 99b1 04bd 78a4 8c3c
00000180: f193 323b 4208 043d d22c e53c 3a34 06bb
00000190: e484 c6bc 2483 b4bc 9a55 d53c 9f4c 14bc
000001a0: c021 0eb9 92be aebc ae1d 073d acb7 8a3b
000001b0: 0cc8 06bc a1a2 caba b45f d43b 9df5 f8bc
000001c0: 0440 67bc 1547 d0bc dc09 e0bc 7a9b 36ba
000001d0: 6e18 8dbc 01de d13c dd29 aebc 71bd 213c
000001e0: 623f fa3c f79f c73c d60e 643c 57d9 96bc
000001f0: 540b 38bc 5e21 41bc bcd2 9b3b 4f68 563c
00000200: 4f86 ed3b 121f 5fbb 5073 aebb 18d7 ecbb
00000210: df0b 393c 21d5 43bc 8e4a 07bd 228a c53b
00000220: feec eb3b 4ed1 a2bc cfdb 95bc 85a6 0c3d
00000230: 2945 b1bc e371 67bc a332 15bd 43bb a83c
00000240: 7e97 eabc 8f68 d03c 4697 ed3c 924e b0bc
00000250: 5e59 f5bb 07db 87bc 43ae bebb cfbf bc3c
00000260: 31ac ef3c 9a0b b43c 9c4b 1cbc 80a3 e53c
00000270: 3ebb e4bc 94c2 91bc fa34 a8bb 78aa 72bc
00000280: 49fe 33bc 0039 063d 09e9 853c f00a 8b3c
00000290: d10f bebc 8ea9 9a3c 0eb3 9abc fe6d debc
000002a0: b4c3 08bd 083b c5bc 6b24 83bc 8997 cf3c
000002b0: b555 e4ba e344 91bc ff64 a6bc b1e7 bbbc
000002c0: a78a f7bc 0a17 b53c 9f77 d3bb 18ea ab3c
000002d0: dcac a4bc 66c4 00bc 3643 253b f2dc 06bd
000002e0: 9473 07bd 7732 8d3c 3c4b 6f3b eccd 8fbc
000002f0: 3d6c e63c 37f3 983c 2de5 953c 69bb 8b3c
00000300: d7e6 b23c f231 833c 079e e8bc cc5c 00bd
00000310: 6ddd 1abc 93ef ae3c 55c4 a3bb 9776 ce3b
00000320: 3665 203c 9165 953c 9fe8 0c3d 8114 f73b
00000330: 43a9 4c3c 9c0d 0fbc 123c 013d 0c30 0ebd
00000340: fb0e 0c3d 7463 8c3c 0353 b7bc 7bc6 f93c
00000350: b723 84bc ab80 16bd 2cef 953c 88d2 a4bc
00000360: 04f2 19bb d653 aabc f46c f83c b816 123c
00000370: c3d5 8fbc f97f cb3c 637d cdbb 0b1c 1c3d
00000380: 98cc 083d d9b1 e9bc b48d fa3c 4536 98bc
00000390: 2606 c2bc 2efa 35bc 56bc f2ba db87 6a3b
000003a0: 104a 08b8 ff38 01bd 2ffc 59bc b84b eb3c
000003b0: 6caf cc3c c798 0e3d 8c65 ce3c d6a1 cbbb
000003c0: 3061 14bc 6f3a 85bc 89ff bdbc abce bd3c
000003d0: e839 a63c 38b2 e03c 5b2b 6ebb 2bfa c13b
000003e0: 4103 8e3c 5cfa 413c 47c4 1b3c feb2 03bb
000003f0: b47e c1bc 2d4e f53c 27e1 003d bf52 2e3c
-0.013689745 -0.009463783 0.03717315 0.0031606788 -0.0013796331 0.01981407 -0.011198791 -0.01607983
-0.02115267 0.024718039 0.014514699 0.024357045 0.019985331 0.018484088 0.009033429 -0.025402427
0.01120415 -0.01565303 -0.010665323 -0.029028328 -0.03158092 -0.023943083 -0.009961801 0.016764665
-0.00018975837 0.008556296 0.024757504 0.028114172 0.019413078 0.018169928 -0.024998263 -0.01577618
0.019547744 -0.030768337 0.00013425403 0.010714372 0.0062928423 0.03235928 -0.015938783 -0.01341841
0.022962302 0.0070928102 -0.004301527 0.0054501127 -0.016012352 -0.004183722 0.031645805 -0.021220421
-0.005986312 -0.036302283 -0.039030775 -0.025981888 0.0225142 0.03118794 0.011497141 0.019850712
-0.031054111 0.018891888 -0.031591564 -0.02158333 0.03181587 -0.021904625 0.0055866786 0.010644816
0.00962663 0.0145267695 0.0021332207 0.023393285 -0.022593644 0.009850896 -0.015459974 -0.021728229
0.020197257 0.00077577983 0.007882498 -0.027944356 0.004837017 -0.03277129 0.010946449 0.013106263
-0.045339897 0.014938507 -0.009734247 -0.022487078 0.030489484 0.02636049 0.011991203 0.011828578
-0.022696506 0.0025884027 0.027849136 0.011855611 0.029737422 0.012177509 -0.032395933 0.017168269
0.0027248824 0.032234438 0.027975474 -0.0020477907 -0.024233289 -0.022035189 0.026041795 -0.009051471
-0.00013554748 -0.021331105 0.03298729 0.004233321 -0.008226406 -0.0015459844 0.0064811353 -0.030390555
-0.014114384 -0.02542452 -0.027348451 -0.0006965917 -0.017223563 0.025618555 -0.021260196 0.0098718265
0.030547801 0.02436827 0.013919553 -0.018414183 -0.01123317 -0.0117877405 0.004755346 0.013086393
0.007248677 -0.003404562 -0.005323805 -0.0072277896 0.011294334 -0.011952669 -0.033030085 0.0060284296
0.0071998825 -0.019875195 -0.01829329 0.034338493 -0.021639423 -0.014126274 -0.036425244 0.020597106
-0.02863669 0.025440482 0.029002797 -0.02152184 -0.00748746 -0.016583933 -0.0058191135 0.02304068
0.029256912 0.021978188 -0.009539511 0.028032064 -0.027921315 -0.017792977 -0.0051332684 -0.014811151
-0.010985919 0.032769203 0.016346471 0.016972989 -0.023200901 0.018879678 -0.018884208 -0.027152058
-0.033389762 -0.024076 -0.016008576 0.025340812 -0.0017420562 -0.017733043 -0.02031183 -0.022937628
-0.030217482 0.022105712 -0.006453469 0.020985648 -0.020101957 -0.007859325 0.0025217063 -0.032925554
-0.03306921 0.017235978 0.003651335 -0.017554246 0.028127784 0.018670661 0.018297756 0.017057138
0.021838589 0.016015027 -0.028395666 -0.031338498 -0.009452206 0.021354472 -0.00499777 0.006300758
0.009789756 0.018236907 0.034401532 0.007540286 0.012491527 -0.008731272 0.03155143 -0.03471379
0.034193974 0.017137267 -0.02237845 0.03049015 -0.016130311 -0.0367438 0.018302523 -0.02011992
-0.00234902 -0.02079193 0.03032539 0.008916549 -0.017557984 0.024841296 -0.006271051 0.03811268
0.03339824 -0.028527187 0.030585147 -0.018580565 -0.023684572 -0.011107011 -0.0018519263 0.0035786543
-3.2493903e-05 -0.031548496 -0.013304754 0.028722629 0.024985991 0.03481367 0.025194906 -0.0062143607
-0.009056374 -0.016263215 -0.023193138 0.023169836 0.020291284 0.027428731 -0.003634176 0.005919715
0.017335536 0.0118394755 0.009507245 -0.0020095701 -0.023619987 0.029944504 0.031464722 0.010639845

bias f4 [128]
00000000: 1b0b bcbb 1e87 37bc 4d3b f0bc 190d 5aba
00000010: e79e 94bb d628 cabc ec10 eabc 9dc2 b63c
00000020: e5eb babc e6da 9abb 01dd 533c 98fe 153b
00000030: 1163 54bc c8a6 a7bc 1e92 0abd 8eed 7e3b
00000040: 4bf9 383c d91e e7bc a5e2 0a3c 27cd 3bbc
00000050: 37e0 e7bc 5370 2ebb 7f0e e3bc 8637 863c
00000060: 5c2e 8bbc 71f0 92bc 547e 193b aecd 0b3d
00000070: 3de1 a2bc 8925 aebc cbab c5bc 0bae a7bc
00000080: b7c5 f9bc 0d83 a9bc 9bdc 51bb e4f5 ee3b
00000090: ad9d cd3c b4b0 d13c 74b7 c3bc b7ea 0cbc
000000a0: cbdc f33c c0db 083d b621 dc3c eb02 a73b
000000b0: e01b ec3c 3eb6 e93c 9c5d fbbc 5e38 15bd
000000c0: efbe dcbc a8e2 d53c c980 adbb 1253 1abd
000000d0: 19f1 43bb 6871 483c 2fd7 bdbc a122 bbbb
000000e0: c793 973c cec2 06bd 7f42 3c3c de4d 283b
000000f0: 8094 fd3c b33d 54ba 68b0 df3c d46f 95ba
00000100: 23b4 c33c 90e8 43bc 9a96 81bc 72d6 aebc
00000110: 14b9 8bbb a6a4 99bc 49ff a0bc 80f2 8f3b
00000120: d09e fa3c 82d0 24ba b52c bb3c a328 80bc
00000130: c885 613c 55e8 adbc cc33 34bb 3cb0 5b3c
00000140: 0c56 d83c 8a91 c43c 96f1 f73a 4efb 233c
00000150: 2a3c ee3c 53c6 143c 60b0 003b f0ee ff3b
00000160: 2930 9bbc 4fce 343c 6784 4c3c c6cd 493c
00000170: 0085 7e37 ca97 be3c dc4c 823b dfce abbb
00000180: 8a22 15bd f601 11bd da85 203c 042c d5bb
00000190: b80d a1bb c19a af3c 46f2 d93a eabd a7bc
000001a0: d9f3 d53c 2e57 b3bc 81af a73c 76bc 02bd
000001b0: f1d1 c83c ff67 023d 8fda 9dbc 2994 85bb
000001c0: 435e cdbc b5bf 26bb 0bfc 1d3d 9f65 e83c
000001d0: 948f 0fbd 8486 9c3a 21fa 223b 29f4 993b
000001e0: 6f53 18ba eb29 693c 7361 62bc 92e1 0cbd
000001f0: 0ffa e1bc f1cd 033d 4b18 87bc 2552 da3b
-0.0057386286 -0.011201648 -0.029325152 -0.0008317992 -0.004535544 -0.024677675 -0.028572522 0.022309596
-0.022817561 -0.0047258018 0.012931109 0.0022887345 -0.012963072 -0.02046527 -0.033830754 0.0038898918
0.011289905 -0.028212951 0.008476888 -0.011462486 -0.028305156 -0.0026617243 -0.027716873 0.016383898
-0.01698988 -0.017936917 0.0023421245 0.0341317 -0.019882793 -0.021258133 -0.024129769 -0.020468732
-0.030489786 -0.020692373 -0.003202236 0.007292496 0.0250996 0.025596954 -0.023891188 -0.008600882
0.029768368 0.033412695 0.026871543 0.0050967834 0.028821886 0.028529283 -0.030684285 -0.03643071
-0.026946513 0.026109055 -0.0052948934 -0.03767688 -0.0029898344 0.012234069 -0.023173897 -0.005710915
0.018503083 -0.032900624 0.011490463 0.0025681178 0.0309546 -0.0008096352 0.027305797 -0.0011401125
0.023889607 -0.011957303 -0.015818883 -0.02134249 -0.0042640064 -0.018755268 -0.01965298 0.004392922
0.030593306 -0.00062871736 0.022848466 -0.015644377 0.013764806 -0.021228949 -0.0027496694 0.013408717
0.026408218 0.02399518 0.0018916603 0.010008646 0.029081423 0.009080487 0.0019636378 0.007810466
-0.018943863 0.011035516 0.012482739 0.012317127 1.5170546e-05 0.023265738 0.0039764475 -0.005243167
-0.036409892 -0.03540226 0.009797538 -0.006505491 -0.0049149655 0.021436097 0.0016627989 -0.0204763
0.026117252 -0.021892156 0.020469429 -0.03191801 0.02451417 0.03183746 -0.019269256 -0.0040765
-0.025069362 -0.0025443856 0.038570445 0.02836877 -0.035049036 0.0011941944 0.0024868327 0.0046982956
-0.00058107724 0.014231185 -0.013817179 -0.034394808 -0.027585058 0.032178823 -0.016491076 0.0066626244
