promptPGpot/checkpoints/exp0_autopot_0.1randompolicy/ckpt_11.pt (torch, 394727 bytes, 2 tensors)

weight f4 [128, 768]
0	0xbc532e37	-0.012889436
1	0xbbc5f4d3	-0.006041148
2	0x3d138910	0.036019385
3	0x3b9e4452	0.0048299218
4	0x3bb1f0ee	0.0054303324
5	0x3c8d497e	0.017246958
6	0xbc2de072	-0.010612594
7	0xbc801c05	-0.01563836
8	0xbcbbf264	-0.02294273
9	0x3ccaf341	0.024774196
10	0x3c8c481b	0.017124226
11	0x3ca5a762	0.020221416
12	0x3cd42e72	0.025901053
13	0x3c9e3fa0	0.019317448
14	0x3c7cc131	0.01542692
15	0xbcee5387	-0.029092563
16	0x3c28332f	0.010266109
17	0xbcac9a2b	-0.021069607
18	0xbbdc6ab4	-0.006726587
19	0xbd0c18ed	-0.03420346
20	0xbd249216	-0.04017838
21	0xbca56deb	-0.020194015
22	0xbb4bb02d	-0.003108035
23	0x3cb46203	0.022019392
24	0xbbfacbfe	-0.0076537123
25	0x3c267b0e	0.010161174
26	0x3c3aee4d	0.011409354
27	0x3ce16dcf	0.027518181
28	0x3c1938f0	0.009351954
29	0x3c579b2e	0.013159556
30	0xbcbb6220	-0.022873938
31	0xbcb086ea	-0.021548707
32	0x3c6b4986	0.014360791
33	0xbcd0e3b8	-0.02549921
34	0x3a9c481e	0.0011923348
35	0x3c7e1a0f	0.015509143
36	0x3b4a230b	0.003084364
37	0x3ccce5d6	0.025011938
38	0xbc97a68c	-0.018512033
39	0xbc8d124f	-0.017220644
40	0x3cee87ee	0.02911755
41	0x3c582695	0.013192792
42	0xbc7e03fc	-0.01550388
43	0x3c122d30	0.008921906
44	0xbc8a4228	-0.016877249
45	0xbbad6966	-0.0052921055
46	0x3d0c7240	0.034288645
47	0xbcc11c88	-0.023573175
48	0xbc6dce02	-0.014514448
49	0xbd1a6fb4	-0.037704185
50	0xbcfc604c	-0.030807637
51	0xbd0b0b07	-0.033946063
52	0x3ca535c9	0.020167248
53	0x3d08fad4	0.033442333
54	0x3c0ca03e	0.008583127
55	0x3cb15de4	0.021651216
56	0xbd0d1eed	-0.03445332
57	0x3c56f19f	0.01311913
58	0xbd0f2521	-0.03494752
59	0xbc5b60ec	-0.013389807
60	0x3d18d2b1	0.037310306
61	0xbcafd49b	-0.021463683
62	0xbb88f2ae	-0.0041793203
63	0x3c04f345	0.008114641
64	0x3c77c14d	0.01512177
65	0x3c241ee6	0.010017132
66	0x3bcdddf9	0.0062825647
67	0x3cbf400e	0.023345973
68	0xbca66db0	-0.020315975
69	0x3bfb9788	0.007677976
70	0xbc430ab6	-0.011904409
71	0xbbc41d78	-0.0059849583
72	0x3cad738c	0.021173261
73	0x3b7ff457	0.003905555
74	0x3c3d6bd6	0.011561355
75	0xbcdb0ffc	-0.02674102
76	0x3c121056	0.008915028
77	0xbcec65d4	-0.02885715
78	0x39c0b94e	0.00036759157
79	0x3c0fe1ca	0.00878186
80	0xbd217f9d	-0.039428342
81	0x3c91f6ce	0.017817881
82	0xbc613c08	-0.013747223
83	0xbcb0008a	-0.021484632
84	0x3cecc005	0.028900156
85	0x3cc80cee	0.024420228
86	0x3c2473e1	0.010037393
87	0x3c59c5e7	0.0132918125
88	0xbc9f9186	-0.01947857
89	0x3baa3e34	0.0051954035
90	0x3d064901	0.032784466
91	0x3c257b98	0.010100268
92	0x3ce77118	0.02825217
93	0x3c844749	0.016147273
94	0xbce9387d	-0.028469319
95	0x3c8e0f27	0.01734121
96	0xbbc430c8	-0.0059872605
97	0x3d055db8	0.03256008
98	0x3cfac52c	0.030611597
99	0xbb8c64d0	-0.0042844787
100	0xbc9ea9df	-0.01936811
101	0xbc8dd48d	-0.017313266
102	0x3cd4b586	0.025965463
103	0xbbf9a512	-0.007618555
104	0x3bc6e816	0.0060701473
105	0xbc85349e	-0.016260441
106	0x3d1d775a	0.0384439
107	0x3b40b09a	0.0029402138
108	0xbbc2c8bb	-0.005944339
109	0xbb6c9134	-0.003609729
110	0x3bf84885	0.0075770044
111	0xbd052ca3	-0.032513272
112	0xbc9c1605	-0.019053468
113	0xbd03ffe7	-0.03222647
114	0xbcb9e23e	-0.022690888
115	0xb7426c28	-1.1588483e-05
116	0xbc18b680	-0.009320855
117	0x3c5172f8	0.012783758
118	0xbc886576	-0.016649943
119	0x3c55b244	0.01304299
120	0x3d010eb4	0.031508163
121	0x3c962534	0.018328287
122	0x3c26e7a4	0.010187063
123	0xbcc5f64a	-0.024165291
124	0xbc4b7d36	-0.012419989
125	0xbc407c9c	-0.011748459
126	0x3c4deeef	0.012569173
127	0x3c96e8f0	0.01842162
128	0x3ba8301f	0.0051326896
129	0xb9ba57fa	-0.00035542232
130	0xbc1793bf	-0.009251534
131	0xbb6186a6	-0.0034412532
132	0x3bf8f35e	0.007597371
133	0xbc16f655	-0.009214004
134	0xbcdb2208	-0.026749626
135	0xbae29c76	-0.0017289061
136	0x3c807e6b	0.01568528
137	0xbcba1502	-0.022715095
138	0xbc82fcb5	-0.01598964
139	0x3d211aad	0.03933208
140	0xbc943fac	-0.018096767
141	0xbc1c1703	-0.009526971
142	0xbd16f369	-0.036853228
143	0x3c8d307e	0.017235037
144	0xbce51d1e	-0.027967986
145	0x3cc10695	0.023562709
146	0x3ce385ff	0.027773855
147	0xbccea079	-0.025223004
148	0xbbfb3a85	-0.007666888
149	0xbc926dae	-0.017874565
150	0xbc541b65	-0.0129459845
151	0x3ca894b6	0.020578723
152	0x3cfb791e	0.030697402
153	0x3cd5f0ce	0.026115801
154	0xbc05982d	-0.008153957
155	0x3ca91f83	0.020644909
156	0xbcb0bf4a	-0.021575589
157	0xbc83c397	-0.016084475
158	0xbac58a7b	-0.0015071178
159	0xbc9a0fd5	-0.018806377
160	0xbc07691c	-0.008264806
161	0x3d0d15bc	0.034444556
162	0x3c521530	0.012822434
163	0x3c42d172	0.011890756
164	0xbce88d33	-0.028387642
165	0x3cd606a0	0.026126206
166	0xbc697b7a	-0.0142506305
167	0xbce622a4	-0.02809269
168	0xbcee09aa	-0.029057343
169	0xbcd7c982	-0.026341204
170	0xbc9b1ee5	-0.01893563
171	0x3cefc775	0.029269913
172	0xbae161cf	-0.0017195287
173	0xbc8187fe	-0.015811916
174	0xbcb3964f	-0.021922259
175	0xbcbcd3ae	-0.023050155
176	0xbcd3956d	-0.025828088
177	0x3caaab27	0.020833565
178	0xbbc92971	-0.0061389734
179	0x3ca33848	0.019924298
180	0xbc9dcc12	-0.019262347
181	0xbc52e503	-0.012871983
182	0x3be03480	0.006842196
183	0xbcf3a950	-0.02974382
184	0xbce9e631	-0.028552147
185	0x3c85c49c	0.016329102
186	0x3b8f7598	0.004378032
187	0xbbe75d2e	-0.0070606684
188	0x3cc3e9be	0.023915168
189	0x3c3867c8	0.011255212
190	0x3c91b005	0.017784128
191	0x3c3dc141	0.01158172
192	0x3cb69288	0.022286668
193	0x3c78cde6	0.015185809
194	0xbd041796	-0.032249056
195	0xbd031c5f	-0.03200948
196	0x3aec9056	0.0018048387
197	0x3cbc5399	0.022989081
198	0x3afbb430	0.001920348
199	0x3c8007a4	0.015628643
200	0x3c157959	0.00912317
201	0x3c8595a5	0.016306708
202	0x3d05438f	0.032535132
203	0x3c676ba2	0.014124783
204	0x3c7c14b6	0.015385797
205	0xbc1a4ea0	-0.00941816
206	0x3d0c6606	0.034276985
207	0xbd03ddbd	-0.032193888
208	0x3cf96e68	0.030448154
209	0x3c5af446	0.013363903
210	0xbc929ba6	-0.017896485
211	0x3ce15f7a	0.027511347
212	0xbc0290e7	-0.007969118
213	0xbd172e2a	-0.03690926
214	0x3c4ec9c0	0.012621343
215	0xbce6a385	-0.028154144
216	0xbb636a6c	-0.0034700884
217	0xbcbdf2ac	-0.023187004
218	0x3cb9672f	0.02263221
219	0x3c404119	0.0117342705
220	0xbcc3daac	-0.023907982
221	0x3cf627d2	0.030048285
222	0xbc0a4976	-0.008440366
223	0x3d297ccb	0.041378777
224	0x3d0ca387	0.03433564
225	0xbd073fab	-0.033019703
226	0x3cac7bb0	0.021055073
227	0xbcae53a7	-0.021280123
228	0xbce5f707	-0.028071893
229	0xbc350ffb	-0.011051173
230	0xbab8eae3	-0.0014108088
231	0x3b60bbfd	0.0034291737
232	0xbc29370a	-0.010328064
233	0xbcd1fa25	-0.025631974
234	0xbc737f66	-0.014861917
235	0x3cb1efaf	0.021720735
236	0x3ca3b7dd	0.019985134
237	0x3cf62453	0.030046618
238	0x3c766da7	0.015040792
239	0xbb84d7f8	-0.004054066
240	0xbac586c3	-0.0015070069
241	0xbc9c55f3	-0.019083953
242	0xbceaf9e3	-0.028683608
243	0x3ce2d60a	0.027689952
244	0x3cba3f88	0.022735372
245	0x3d1ed69c	0.038778886
246	0x3ba24c5d	0.004952951
247	0x3c7f36bc	0.015577015
248	0x3cabd1cd	0.020974064
249	0x3c78d513	0.01518752
250	0x3c0c285f	0.008554547
251	0x3a7b1fe2	0.0009579641
252	0xbd09e296	-0.033663355
253	0x3cf17d2f	0.029478638
254	0x3cdbbfe5	0.0268249
255	0x3b2091e9	0.0024501032

bias f4 [128]
0	0xbbf31d8c	-0.0074192937
1	0xbc07e383	-0.008293989
2	0xbcf19f2f	-0.02949485
3	0x399437f2	0.00028270442
4	0xbbd1a5a5	-0.00639792
5	0xbccdfc20	-0.025144637
6	0xbccf6ab9	-0.025319444
7	0x3cbb0841	0.022831084
8	0xbcc652ff	-0.024209497
9	0xbb9e9fba	-0.0048408182
10	0x3c04cccd	0.008105469
11	0x3b38eab6	0.002821607
12	0xbc64e055	-0.013969501
13	0xbcbf94a4	-0.023386307
14	0xbd0a5747	-0.03377464
15	0x3b9cb568	0.0047823675
16	0x3c356eb3	0.011073756
17	0xbced503f	-0.028968928
18	0x3c03f36e	0.008053644
19	0xbc6031f0	-0.013683781
20	0xbcf116de	-0.02942985
21	0xbb850182	-0.0040590176
22	0xbcd08738	-0.025455102
23	0x3c93b944	0.018032677
24	0xbc95f95e	-0.018307384
25	0xbc8e92fe	-0.017404076
26	0x3b36998b	0.0027862515
27	0x3d05a709	0.03263
28	0xbc8d87e8	-0.01727672
29	0xbca9a273	-0.020707345
30	0xbcdaf7f1	-0.026729556
31	0xbc8c343a	-0.017114747
32	0xbcf8c9f6	-0.03036974
33	0xbc91b337	-0.017785652
34	0xbb06d91d	-0.0020576187
35	0x3c090584	0.008363131
36	0x3ccf0596	0.025271218
37	0x3ccc0bc2	0.02490795
38	0xbcb56850	-0.022144467
39	0xbbd10266	-0.0063784597
40	0x3cf3fa09	0.029782312
41	0x3cebdd41	0.028792026
42	0x3cec61ab	0.028855165
43	0x3be079eb	0.0068504713
44	0x3d08d936	0.033410273
45	0x3ceff7e5	0.02929301
46	0xbd09c8b3	-0.033638667
47	0xbd0ee562	-0.034886725
48	0xbce0dd66	-0.027449321
49	0x3cdb3070	0.026756495
50	0xbbd70287	-0.0065615806
51	0xbd189fcc	-0.03726177
52	0xbb88aeff	-0.004171252
53	0x3c52ab76	0.012858262
54	0xbccddc5b	-0.025129488
55	0xbbcaed3d	-0.006192832
56	0x3c92090e	0.017826583
57	0xbd1106a3	-0.03540672
58	0x3c5c239f	0.013436227
59	0x3bbca02f	0.0057564
60	0x3cfd5a01	0.030926706
61	0x3a7c7fbf	0.0009632073
62	0x3cefa290	0.02925232
63	0xbb028d82	-0.001992077
64	0x3cc857e1	0.024455966
65	0xbc3d8210	-0.011566654
66	0xbc86e43c	-0.016466253
67	0xbca67df4	-0.020323731
68	0xbb8d1202	-0.004305125
69	0xbc9a4995	-0.018833915
70	0xbcbf8efc	-0.02338361
71	0x3b9ad806	0.004725459
72	0x3cea6a33	0.028615093
73	0x3abdf3d5	0.0014492223
74	0x3cbc20c6	0.022964846
75	0xbc811356	-0.01575629
76	0x3c64ed57	0.013972602
77	0xbcb1ca2d	-0.02170285
78	0xbb9b8c99	-0.004746985
79	0x3c32c082	0.010910155
80	0x3cdf30c0	0.027244925
81	0x3cbb640c	0.022874855
82	0x3b711d94	0.0036791312
83	0x3c167c48	0.009184904
84	0x3cf47d41	0.029844882
85	0x3c05bc79	0.008162611
86	0x3abfce9b	0.0014633717
87	0x3bfab393	0.0076508014
88	0xbc98dcbc	-0.018659942
89	0x3c1ef1a7	0.009701169
90	0x3c463408	0.012097366
91	0x3c360525	0.011109625
92	0x3907c5bb	0.00012948264
93	0x3cc6771b	0.024226716
94	0x3b0023a5	0.0019552496
95	0xbc1265ac	-0.008935373
96	0xbd16c655	-0.036810238
97	0xbd0cdc9a	-0.03439007
98	0x3c12b228	0.008953609
99	0xbc11cabb	-0.008898432
100	0xbbb21fb5	-0.0054359087
101	0x3caae31f	0.020860253
102	0x3af2a62a	0.0018512656
103	0xbc9e70d1	-0.019340904
104	0x3cd674a6	0.02617867
105	0xbcc10615	-0.02356247
106	0x3caac917	0.02084784
107	0xbd0e5ca5	-0.03475632
108	0x3cb7a249	0.02241625
109	0x3d04fc24	0.032467023
110	0xbcb12d87	-0.021628154
111	0xbbbfd5fb	-0.005854366
112	0xbcdc838b	-0.026918193
113	0xbab06eb1	-0.0013460723
114	0x3d1474bc	0.03624414
115	0x3ce777e4	0.02825541
116	0xbd186f40	-0.03721547
117	0xbafae8b9	-0.0019142843
118	0x3b021186	0.001984687
119	0x3b6fdea3	0.0036601208
120	0xb7d95548	-2.5908128e-05
121	0x3c81a447	0.015825404
122	0xbc457a4e	-0.0120530855
123	0xbd13ce58	-0.036085457
124	0xbce44c43	-0.027868396
125	0x3d0c5b86	0.03426697
126	0xbc94b91e	-0.018154677
127	0x3c0b8cd7	0.008517466
