promptPGpot/checkpoints/exp0_autopot_0.1randompolicy/ckpt_2.pt (torch, 394659 bytes, 2 tensors)

weight f4 [128, 768]
-0.012098439 -0.0076074707 0.03481544 0.0037185594 -0.0001718844 0.021056829 -0.011410864 -0.015091938
-0.023251232 0.025758544 0.013326597 0.023712037 0.022283986 0.018515883 0.008791735 -0.026365181
0.012921871 -0.017387219 -0.0112274485 -0.03193182 -0.03419214 -0.023134097 -0.010100284 0.018357428
-0.001670738 0.008587868 0.02638697 0.02959217 0.019903418 0.016843403 -0.024198476 -0.017614525
0.020469565 -0.029942682 -0.0012755913 0.011981296 0.0054875277 0.031278294 -0.01732422 -0.012995303
0.025204964 0.008265567 -0.00619383 0.0043224427 -0.014683982 -0.0053252587 0.033622645 -0.02328079
-0.0049505257 -0.03557682 -0.03833922 -0.025610195 0.021990465 0.030016052 0.010362436 0.021308847
-0.031167824 0.020041518 -0.030328242 -0.01927189 0.03210535 -0.02086434 0.00550601 0.011213705
0.008617807 0.013308786 0.0024247593 0.022037296 -0.021480324 0.007729825 -0.015390712 -0.020957489
0.020156132 0.0021364046 0.008936109 -0.028002672 0.0069710845 -0.033431638 0.013254973 0.012376327
-0.043062 0.013696259 -0.010507653 -0.020682242 0.02904298 0.024821144 0.009919007 0.011624021
-0.02124678 0.0012311211 0.028148843 0.010773435 0.029302776 0.01212463 -0.033408634 0.01683
0.00039548264 0.032892022 0.027685588 -0.0035574937 -0.024673814 -0.020030221 0.026081452 -0.0063133854
0.00054662407 -0.019738792 0.034545317 0.0034907975 -0.006825922 -0.00035875585 0.0051494874 -0.029281223
-0.014067461 -0.024962118 -0.026664244 -0.000833589 -0.018011784 0.02442873 -0.021691859 0.0085303765
0.030002968 0.021603454 0.0123807555 -0.017042443 -0.0121849375 -0.012031902 0.0031417578 0.011152128
0.0060280403 -0.0019307104 -0.00699575 -0.0085350415 0.011123365 -0.012948908 -0.030001624 0.0053301007
0.011180993 -0.020258876 -0.017721253 0.0366344 -0.020283863 -0.012132971 -0.03487366 0.021256566
-0.029201712 0.024191327 0.02956974 -0.01961351 -0.007402565 -0.01835498 -0.00675261 0.020790147
0.03058296 0.022486506 -0.008736259 0.026663793 -0.02578135 -0.017370995 -0.0028525847 -0.015941339
-0.0124160135 0.03157435 0.01738912 0.014585422 -0.0249515 0.021263814 -0.020002067 -0.02968675
-0.033458453 -0.023080755 -0.01758503 0.025492022 -0.0028802431 -0.017646197 -0.019693324 -0.025145095
-0.029745081 0.019763662 -0.007895846 0.02072794 -0.018836139 -0.009379046 0.0042760735 -0.033145025
-0.035132322 0.018469976 0.002347714 -0.018979693 0.027577749 0.016551249 0.021508796 0.01801062
0.022786755 0.014508314 -0.029106705 -0.030992158 -0.0076507386 0.022012535 -0.0053653284 0.007388106
0.01225905 0.02229138 0.033997342 0.009253577 0.01311519 -0.010463266 0.03250987 -0.034077987
0.03192689 0.014991947 -0.02029554 0.028840901 -0.01624934 -0.03596156 0.01728959 -0.022559669
-0.003456761 -0.020592825 0.02814256 0.010797129 -0.020129718 0.024466304 -0.006623238 0.035745364
0.035171144 -0.029544171 0.02760764 -0.019511677 -0.025427354 -0.009324845 -0.0035412079 0.006188942
0.0019619393 -0.031440835 -0.013290977 0.025216384 0.024262149 0.03509505 0.024495792 -0.0049176654
-0.010916425 -0.018033607 -0.022888346 0.0222289 0.020405034 0.026351193 -0.0047950475 0.008796925
0.017460926 0.014183804 0.008290687 -0.004808567 -0.02405444 0.030521339 0.031628884 0.009486314
00000000: 8838 46bc 1748 f9bb a39a 0e3d 13b3 733b
00000010: de3b 34b9 5f7f ac3c a2f4 3abc 2d44 77bc
00000020: 5e79 bebc 9503 d33c cd57 5a3c bf3f c23c
00000030: e88c b63c 9fae 973c 360b 103c cbfb d7bc
00000040: 41b6 533c a46f 8ebc 55f3 37bc f1ca 02bd
00000050: 0f0d 0cbd b883 bdbc a97b 25bc 5162 963c
00000060: aafc daba 21b4 0c3c 7d29 d83c 476b f23c
00000070: 7e0c a33c 2dfb 893c e23b c6bc 564c 90bc
00000080: caaf a73c 5b4a f5bc be31 a7ba 334d 443c
00000090: b8d0 b33b ab1d 003d 86eb 8dbc 40ea 54bc
000000a0: a47a ce3c 4d6c 073c 9df5 cabb 47a3 8d3b
000000b0: 1695 70bc 827f aebb e6b7 093d 5bb7 bebc
000000c0: 0538 a2bb 00b9 11bd 9609 1dbd 79cc d1bc
000000d0: 5925 b43c 39e4 f53c 35c7 293c e48f ae3c
000000e0: aa53 ffbc 1c2e a43c ef72 f8bc 15e0 9dbc
000000f0: e680 033d b1eb aabc c26b b43b b0b9 373c
00000100: b431 0d3c 180d 5a3c b6e8 1e3b 8f87 b43c
00000110: 81f7 afbc 794a fd3b 5329 7cbc 0aaf abbc
00000120: 791e a53c ec02 0c3b c268 123c dc65 e5bc
00000130: b26d e43b 9def 08bd 632b 593c 14c6 4a3c
00000140: c861 30bd 4666 603c 4a28 2cbc ce6d a9bc
00000150: 8beb ed3c b655 cb3c 5583 223c ae72 3e3c
00000160: ba0d aebc 925d a13a 6798 e63c 1083 303c
00000170: 600c f03c 62a6 463c 7ed7 08bd 11df 893c
00000180: c858 cf39 c9b9 063d e3cc e23c d724 69bb
00000190: bd20 cabc 6b16 a4bc c5a8 d53c 84e0 cebb
000001a0: 524b 0f3a 3fb3 a1bc 647f 0d3d ddc5 643b
000001b0: fcab dfbb 6517 bcb9 08bd a83b 2ddf efbc
000001c0: 357b 66bc 5b7d ccbc f96e dabc 3685 5aba
000001d0: 738d 93bc c31e c83c 20b3 b1bc fec2 0b3c
000001e0: c9c8 f53c baf9 b03c a7d8 4a3c 989c 8bbc
000001f0: 55a3 47bc 7421 45bc f3e5 4d3b 6ab7 363c
00000200: de86 c53b e40f fdba 9b3c e5bb 8fd6 0bbc
00000210: c63e 363c a827 54bc f7c5 f5bc 20a8 ae3b
00000220: 7c30 373c f1f5 a5bc 292c 91bc f40d 163d
00000230: 582a a6bc 5ec9 46bc afd7 0ebd 4022 ae3c
00000240: 6e38 efbc e42c c63c 3d3c f23c 83ac a0bc
00000250: 3791 f2bb 2f5d 96bc 0045 ddbb 1950 aa3c
00000260: 1e89 fa3c 9f35 b83c 8722 0fbc 076e da3c
00000270: 6933 d3bc 9e4d 8ebc 6ef2 3abb 6997 82bc
00000280: 896c 4bbc 1b54 013d a173 8e3c b2f7 6e3c
00000290: 1767 ccbc 7331 ae3c 60db a3bc a131 f3bc
000002a0: bb0b 09bd da13 bdbc 7b0e 90bc a5d4 d03c
000002b0: 76c2 3cbb c28e 90bc e553 a1bc 16fd cdbc
000002c0: f5ab f3bc 67e7 a13c 945d 01bc a4cd a93c
000002d0: 3f4e 9abc 92aa 19bc 4e1e 8c3b 14c3 07bd
000002e0: e9e6 0fbd 594e 973c 1bdc 193b 4d7b 9bbc
000002f0: bbea e13c 7c96 873c 3733 b03c 028b 933c
00000300: 4aab ba3c 48b4 6d3c 2f71 eebc 44e3 fdbc
00000310: 0cb3 fabb a253 b43c a3cf afbb ed17 f23b
00000320: 2fda 483c 6a9c b63c cc40 0b3d 519c 173c
00000330: 18e1 563c 1e6e 2bbc 1229 053d 5c95 0bbd
00000340: c5c5 023d c9a0 753c d542 a6bc c143 ec3c
00000350: 561d 85bc 6e4c 13bd e6a2 8d3c 0ecf b8bc
00000360: d38a 62bb 49b2 a8bc 3a8b e63c 71e6 303c
00000370: 14e7 a4bc 8f6d c83c bf07 d9bb bb69 123d
00000380: 9e0f 103d 9e06 f2bc 6b29 e23c f4d6 9fbc
00000390: 074d d0bc 3cc7 18bc 9c13 68bb 9ccc ca3b
000003a0: e193 003b 1bc8 00bd 66c2 59bc 9792 ce3c
000003b0: 6ac1 c63c d4bf 0f3d 66ab c83c 5e24 a1bb
000003c0: ceda 32bc 37bb 93bc 5780 bbbc 6219 b63c
000003d0: 7528 a73c 75de d73c c61f 9dbb fa20 103c
000003e0: 370a 8f3c 3063 683c a9d5 073c 2f91 9dbb
000003f0: d10d c5bc e307 fa3c 4a8d 013d 7c6c 1b3c

bias f4 [128]
-0.007652017 -0.010223764 -0.026233988 0.0015927061 -0.0027769904 -0.02505869 -0.025574028 0.02130991
-0.024861004 -0.0024295233 0.012582318 0.003738567 -0.01721207 -0.019251028 -0.031340946 0.002787502
0.0094565265 -0.028456774 0.01048823 -0.010864577 -0.03335211 -0.0009123299 -0.025361227 0.01678099
-0.019402245 -0.01999739 -0.0014811578 0.030829597 -0.020389698 -0.02146544 -0.024778131 -0.017855553
-0.030546809 -0.022110347 0.0005587635 0.0068741655 0.024687154 0.023170752 -0.024514286 -0.0062867193
0.028725982 0.031845067 0.02531522 0.007895212 0.029794967 0.028359925 -0.03274431 -0.03713029
-0.026218941 0.025891507 -0.0060558347 -0.037286162 -0.00017586809 0.010988456 -0.02317647 -0.003125826
0.018836165 -0.03178078 0.009853386 0.002900374 0.029052744 -0.0036784695 0.02967665 -0.0011956447
0.02218406 -0.011824413 -0.015375944 -0.020826314 -0.0017742111 -0.019541526 -0.02101713 0.0053016646
0.03171346 -9.6863296e-05 0.021683581 -0.017409666 0.011472492 -0.022542486 -0.0022853345 0.012194918
0.026337055 0.023626039 0.0010643549 0.010486492 0.030602371 0.01043786 0.00039127452 0.00923193
-0.021533377 0.0109215565 0.009872768 0.011005598 -0.0010301091 0.022007814 0.0018194853 -0.0065140356
-0.03580172 -0.037097353 0.007200644 -0.009685475 -0.005479154 0.023151228 -3.7938575e-05 -0.022940889
0.023578629 -0.019613141 0.02194067 -0.030950371 0.023634288 0.032962892 -0.016137198 -0.0021829323
-0.02441948 -0.00028258105 0.038438648 0.027991565 -0.035120025 0.001981599 0.0039671524 0.0030599604
-0.0019210271 0.013941772 -0.014621418 -0.03344142 -0.03089979 0.03126439 -0.017297285 0.0061517744
00000000: c5bd fabb 9381 27bc a9e8 d6bc 59c2 d03a
00000010: 2bfe 35bb e247 cdbc a080 d1bc 1f92 ae3c
00000020: 4ea9 cbbc a338 1fbb 1126 4e3c bf02 753b
00000030: 5400 8dbc 55b4 9dbc 5d5f 00bd 86ae 363b
00000040: 8cef 1a3c 2e1e e9bc d3d6 2b3c 5701 32bc
00000050: 399c 08bd 6c29 6fba 59c2 cfbc 4978 893c
00000060: 75f1 9ebc 91d1 a3bc 6923 c2ba 5a8e fc3c
00000070: 4c08 a7bc 4ad8 afbc 82fb cabc cf45 92bc
00000080: 4d3d fabc c220 b5bc fc79 123a ae40 e13b
00000090: b73c ca3c 97d0 bd3c 2fd2 c8bc d300 cebb
000000a0: c052 eb3c f96f 023d dd61 cf3c eb5a 013c
000000b0: 9314 f43c 1353 e83c e61e 06bd ee15 18bd
000000c0: 1bc9 d6bc 6d1a d43c 0670 c6bb 60b9 18bd
000000d0: 3b69 38b9 ed08 343c 95dc bdbc a8da 4cbb
000000e0: 4d4e 9a3c 902c 02bd 1970 213c 3314 3e3b
000000f0: 0500 ee3c 7a12 71bb 721c f33c 2eb7 9cba
00000100: 59bb b53c 2fbb 41bc 62eb 7bbc f29b aabc
00000110: a58c e8ba 8d15 a0bc 1e2c acbc 96b9 ad3b
00000120: f9e5 013d 1623 cbb8 c4a1 b13c b79e 8ebc
00000130: 1ef7 3b3c 05ab b8bc 8dc5 15bb 31cd 473c
00000140: cfc0 d73c 658b c13c d381 8b3a 89cf 2b3c
00000150: d3b1 fa3c 8f03 2b3c fa23 cd39 8541 173c
00000160: c466 b0bc 54f0 323c 64c1 213c d350 343c
00000170: ba04 87ba bb49 b43c cc7b ee3a b173 d5bb
00000180: d3a4 12bd 65f3 17bd 61f3 eb3b d4af 1ebc
00000190: 7a8a b3bb a5a7 bd3c 3c20 1fb8 88ee bbbc
000001a0: f827 c13c bdab a0bc ecbc b33c a28b fdbc
000001b0: b29c c13c 1904 073d 2832 84bc 870f 0fbb
000001c0: 5c0b c8bc 6327 94b9 d871 1d3d 914e e53c
000001d0: 04da 0fbd b7dd 013b e3fe 813b 9e89 483b
000001e0: f9ca fbba 086c 643c ac8e 6fbc dff9 08bd
000001f0: 8e21 fdbc 170f 003d 09b3 8dbc d394 c93b
