promptPGpot/checkpoints/exp0_correct/ckpt_1.pt (torch, 394659 bytes, 2 tensors)

weight f4 [128, 768]
000000 bd b1 b5 bc c0 2c 61 ba 18 96 e0 3c c6 fe d8 bb
       -0.022179479 -0.0008589737 0.02741532 -0.0066221682
000010 f3 5c 24 bc 43 54 c8 3c 6c 0d 15 38 1f d0 07 bd
       -0.010031926 0.024454242 3.553687e-05 -0.033157464
000020 93 23 ac bc eb f1 0e 3d 93 b7 97 3c 67 38 e2 3c
       -0.021013057 0.03489868 0.018520152 0.027614785
000030 3c 29 03 3d d1 53 63 3c b2 aa 67 3c d4 81 f0 bc
       0.032021746 0.013874964 0.014139818 -0.029358782
000040 91 03 7b 3c 84 ba 31 bc 89 3a 09 bb 42 b2 ff bc
       0.0153206745 -0.010847691 -0.002093943 -0.03121293
000050 8e 80 c6 bc 97 e8 58 bc 41 23 bd bc d5 c3 9c 3c
       -0.024231222 -0.0132390475 -0.0230881 0.019136349
000060 42 ed c7 3b 47 3a ac 3b b9 e8 95 3c 41 ed f0 3c
       0.0061012814 0.0052559706 0.018299447 0.029410006
000070 d7 06 c6 3c af f4 26 3c 44 15 47 bc 94 25 ed bc
       0.024173183 0.010190173 -0.012151066 -0.028948583
000080 57 81 90 3c 74 81 05 bd f4 c4 d5 3b b4 25 b7 39
       0.017639799 -0.03259416 0.006523723 0.0003493257
000090 68 88 39 bb a1 fa ee 3c 27 86 d2 bc 4e d0 44 bc
       -0.0028310064 0.029172244 -0.025698734 -0.012012554
0000a0 3c 67 e0 3c 08 e5 d8 3b 58 41 09 ba 8e 33 6c 3c
       0.027392976 0.0066190995 -0.0005235872 0.0144165885
0000b0 d0 4a a3 bc 84 55 1e bc f5 3d 33 3d cc 53 40 bc
       -0.019933134 -0.009663943 0.04376026 -0.011738729
0000c0 c1 df 40 bc e1 7d e1 bc aa f6 e5 bc 4f b1 e7 bc
       -0.011772097 -0.027525844 -0.02807172 -0.02828279
0000d0 4c d9 96 3c 7f cd cf 3c 28 d6 df 3a 8d 20 09 3d
       0.018414162 0.025366543 0.0017077373 0.03347831
0000e0 6f 73 06 bd f8 46 ca 3c 11 78 0a bd 43 75 68 bc
       -0.03282493 0.024692044 -0.03380591 -0.014188114
0000f0 3e dd de 3c b0 be f0 bc b3 6f 91 bb 22 65 c2 3b
       0.027205106 -0.029387802 -0.0044383644 0.005932466
000100 cf ea 84 3b cf 71 b6 3c d7 b0 1c 3a c1 a0 bd 3c
       0.0040563117 0.022271065 0.0005977279 0.023147942
000110 a5 f1 57 bc 1f 90 21 3c 35 7d 8f bb b8 9a 8d bc
       -0.013180171 0.009861021 -0.0043789395 -0.01728569
000120 8a 64 12 3d 00 83 65 3c 22 47 dd ba 63 de 19 bd
       0.035740413 0.014008284 -0.0016882161 -0.0375656
000130 ce cf 87 bb 9f 27 f9 bc 87 dd 8f 3c 9f b3 8b 3c
       -0.0041446453 -0.0304144 0.017561687 0.017053423
000140 1e da 08 bd c8 b5 86 3b 05 19 ad bc d0 cf 57 bc
       -0.033411138 0.0041110255 -0.021130094 -0.013172105
000150 1a 2a a0 3c d2 f6 b7 3c 9f 8e 82 3b 96 2a 91 3a
       0.019551326 0.02245656 0.003984287 0.0011075314
000160 94 be ba bc 2f 76 a1 3b 4d c0 dc 3c e2 f8 56 3c
       -0.022795953 0.0049274187 0.026947165 0.013120862
000170 e8 0a 0d 3d 3d 56 c3 3b c6 bf f2 bc e2 19 da 3b
       0.03443423 0.005961208 -0.02963246 0.0066559175
000180 ea b0 08 bc e9 25 e8 3c 30 f1 ad 3c 99 c1 e2 bb
       -0.008342961 0.02833839 0.021233171 -0.0069200513
000190 f7 76 24 bd e2 99 61 bc a3 5b ea 3c 0d 44 a9 ba
       -0.040152516 -0.013769599 0.028608149 -0.0012913957
0001a0 69 45 ab bb 33 d0 42 bc 30 f9 b4 3c 6e 3b c7 bb
       -0.00522678 -0.011890459 0.022091478 -0.0060800826
0001b0 20 7b 36 bc 70 34 6d 3b 46 65 4d 3c 5e 2e f2 bc
       -0.011137754 0.0036194585 0.0125363525 -0.029563125
0001c0 d6 ae 52 bc 52 4b 31 bc 33 e7 00 bd 7b f3 a6 3a
       -0.012859067 -0.01082118 -0.03147049 0.0012737358
0001d0 fa 35 20 bc d8 5f 98 3c cc d9 df bc 47 12 4b 3c
       -0.009778494 0.01860039 -0.027325533 0.012394494
0001e0 82 20 32 3d 26 a5 71 3c 11 fe 98 3c b3 2b 6e bc
       0.043488033 0.014748847 0.018675836 -0.014536786
0001f0 98 90 a0 bc 35 9e b9 bc 69 70 b6 39 b6 1f a1 3b
       -0.019600198 -0.022658447 0.00034797497 0.0049171103
000200 ca b3 6e 3b 8c 13 85 bc 68 f7 92 bc 23 94 ad bb
       0.003642308 -0.016244672 -0.017940238 -0.0052972003
000210 ec ac 59 b9 d9 81 79 bc 35 4f bb bc b9 48 09 bc
       -0.00020759151 -0.015228712 -0.022864917 -0.008379155
000220 55 9e b1 3c 3d 12 af bc 80 4b 67 bc 95 21 21 3d
       0.021681944 -0.021371001 -0.014117122 0.039338667
000230 26 24 67 bc 38 e8 81 bc 80 b2 f9 bc d4 eb cc 3c
       -0.01410774 -0.0158578 -0.030480623 0.025014795
000240 c4 26 1e bd 34 43 ce 3c 31 45 24 3d 66 d2 93 bc
       -0.03861119 0.02517853 0.04010505 -0.018044662
000250 f0 41 0c bb 3c 3d 7d bc e2 e7 64 bc 09 9b 88 3c
       -0.0021401607 -0.015456494 -0.013971301 0.016675489
000260 de d9 1a 3d bc 01 0b 3d 8b 29 43 bc 0e a2 02 3d
       0.03780543 0.0339372 -0.01191176 0.03189283
000270 fb ad ca bc f3 f8 72 bc 97 2e ec 3b b0 e8 5c bc
       -0.024741163 -0.014829862 0.0072077024 -0.013483211
000280 28 6b 59 bc 37 23 b7 3c 9e e5 c4 3c b0 f6 cf 3b
       -0.013270177 0.022355659 0.024035271 0.006346546
000290 1f a5 c2 bc e8 a7 01 3d ac 96 8b bc fc fe cb bc
       -0.023760376 0.03165427 -0.01703962 -0.02490186
0002a0 49 ce 1f bd 53 07 98 bc 28 29 c5 bc ca 51 08 3d
       -0.03901509 -0.01855818 -0.024067476 0.033281125
0002b0 28 ac 98 ba ba e9 54 bc 81 fe f5 bb db 98 4c bc
       -0.0011647986 -0.012995178 -0.007507146 -0.012487615
0002c0 a1 f8 0a bd a8 10 17 3c af 86 8f bc f5 de ed 3c
       -0.033928517 0.00922028 -0.017520277 0.029036978
0002d0 05 57 1f bc cb c8 91 bc 8f 32 b2 3b bf c4 36 bd
       -0.009725337 -0.01779594 0.005438156 -0.044621225
0002e0 1e e7 f8 bc fe d4 ba 3c 24 84 39 ba 2c ca b5 bc
       -0.030383643 0.02280664 -0.00070768804 -0.02219113
0002f0 3b 9a 0b 3d be 84 de 3c 9e 2c 1f 3c 5f 3a a2 3c
       0.034082633 0.027162906 0.009715227 0.019803224
000300 6f a8 90 3c 2b 26 88 3c 6b 49 dd bc 59 5a 16 bd
       0.01765844 0.016619762 -0.027012547 -0.036707256
000310 f8 43 e2 bb 7f 4c a6 3c 0d 94 d6 39 ae 05 6a 3c
       -0.006905075 0.020300148 0.00040927567 0.014283581
000320 7d 66 65 3c e9 88 82 3c 65 d4 b6 3c c5 df e7 39
       0.014001486 0.015934424 0.022318074 0.00044226475
000330 52 7e 30 3c ed 10 a3 bc b4 14 26 3d cc ac 10 bd
       0.010772305 -0.019905532 0.040547088 -0.035321042
000340 b6 dc 00 3d 59 7f e1 3b 4e ca 38 bc 2b 82 af 3c
       0.031460486 0.006881636 -0.011278702 0.021424374
000350 bf 0f fe bb cf 82 16 bd 90 b0 4d 3c 2e c4 b6 bc
       -0.007753342 -0.036745843 0.012554303 -0.022310343
000360 d3 b6 45 bc 82 19 98 bc ce 34 54 3c d1 61 97 3c
       -0.0120675145 -0.01856685 0.012952043 0.01847926
000370 54 0f 58 bc d1 e6 e0 3c 01 82 91 ba f9 fd 07 3d
       -0.013187248 0.027453812 -0.0011101366 0.03320119
000380 1c 19 2b 3d c2 24 2c bd c2 92 9f 3c cf e8 fa bc
       0.041771993 -0.042027242 0.01947916 -0.03062859
000390 e7 3a 09 bd 5d 05 c7 ba 2e c1 70 3b ae 9e 41 bb
       -0.03350344 -0.0015184093 0.0036736238 -0.0029544043
0003a0 7e 09 8c bc 3b 43 32 bd 39 95 71 bc f9 e2 95 3c
       -0.01709437 -0.043521147 -0.01474505 0.018296706
0003b0 c3 45 8c 3c 93 34 0e 3d c5 e5 08 3d 1a b8 60 ba
       0.017123109 0.034718107 0.03342225 -0.0008572355
0003c0 65 50 1a bc a3 83 af bc 05 12 d7 bc 7a 8b be 3c
       -0.009418582 -0.021425074 -0.02625371 0.023259867
0003d0 5d 5d 36 3c ac 9f 28 3d d2 4c df bb 2c 34 0a 3c
       0.011130658 0.0411679 -0.0068145776 0.00843529
0003e0 37 d7 b1 3c b7 75 86 3c d0 a2 b4 3b 45 bd 1e bc
       0.021709068 0.016413553 0.005512573 -0.00968868
0003f0 3c 4c 02 bd 70 c8 26 3d d6 60 dd 3c ca b2 da 3b
       -0.031810984 0.040718496 0.027023714 0.0066741453

bias f4 [128]
000000 91 22 91 bc 5c 09 67 bc e2 0b ca bc 20 4d 4c b9
       -0.017716678 -0.014101353 -0.02466387 -0.00019483687
000010 6f 5b f5 3a 71 80 ad bc 59 3c f6 bc 4f e1 d5 3c
       0.0018719266 -0.02117941 -0.030058073 0.026108412
000020 3d fa 7f bc b9 be ae bb 67 24 20 3c 03 cb d1 3b
       -0.015623626 -0.0053327945 0.009774304 0.0064023747
000030 93 5f 7c bc 45 cb be bc cf b5 e6 bc 23 e8 9f 3b
       -0.015403646 -0.023290286 -0.028162865 0.004879968
000040 ca f0 bb 3b f9 18 c7 bc 82 b8 85 3a 0b 9d a8 bc
       0.0057354914 -0.0243039 0.0010202082 -0.020582696
000050 91 74 fb bc fb 48 98 bb 20 ef bf bc ca 6b b8 3c
       -0.030695232 -0.004647372 -0.023429453 0.022512335
000060 db 9a d0 bc 15 5e 82 bc 64 0b fc 3b d3 9d fe 3c
       -0.025464466 -0.015914002 0.0076917876 0.031081116
000070 70 ab c7 bc 71 28 a5 bc 20 45 01 bd 46 c7 4e bc
       -0.02437374 -0.020160886 -0.031560063 -0.012620753
000080 14 c3 1c bd 68 44 a1 bc ff 55 40 3a cb ea 4c 3c
       -0.03827198 -0.019685939 0.0007337033 0.012507151
000090 86 f5 ae 3c ae 17 dd 3c 9d 04 c4 bc 41 96 18 bc
       0.02135731 0.02698883 -0.023927981 -0.009313167
0000a0 4e 19 b5 3c 7e d7 10 3d b1 ad bc 3c 0f 36 7d 3c
       0.022106793 0.03536176 0.023032041 0.015454783
0000b0 14 40 02 3d 4d d3 05 3d 78 cc f9 bc b8 53 1c bd
       0.03179939 0.032672215 -0.030493006 -0.038165778
0000c0 09 39 a5 bc 1e 3f 93 3c 03 53 0d bc 8e c4 1a bd
       -0.020168798 0.017974433 -0.008625749 -0.037785105
0000d0 74 a1 a4 ba c4 07 84 3b 49 26 d3 bc cd 72 52 3b
       -0.0012560324 0.004029246 -0.025775092 0.0032111884
0000e0 32 d8 8a 3c 96 97 e2 bc 0a e1 40 3b 2e 0a 32 3c
       0.016948793 -0.027660172 0.0029431009 0.010866685
0000f0 ed bd 01 3d 02 89 58 bc 7a 9a 13 3d 56 dc 39 bc
       0.031675268 -0.013216259 0.036035992 -0.011344036
000100 4c 30 e6 3c 27 6d 98 bc 60 22 35 bc 39 2d 04 bd
       0.028099202 -0.018606735 -0.011055559 -0.03226969
000110 3a e5 1e 3c 5f 62 ee bc 5f 7f cb bc 78 c5 5c 3b
       0.009698207 -0.029099641 -0.024841009 0.0033687036
000120 82 f0 07 3d 58 09 e1 3b 5f 1a 9a 3c 45 32 84 bc
       0.03318835 0.006867569 0.018811403 -0.016137252
000130 2d 9b 9b 3c dd 4b 81 bc 46 91 2d bc 5f a2 86 3c
       0.018994892 -0.015783245 -0.010593718 0.016434846
000140 6a 29 0f 3d f9 c7 d9 3c 8d 53 df bb a7 12 4d 3c
       0.034951605 0.026584612 -0.00681538 0.012516654
000150 f6 d7 01 3d 08 c1 27 3b 3b e2 c5 3a ed 55 5e 3b
       0.031700097 0.0025597233 0.0015097329 0.0033925727
000160 95 3d a0 bc 88 4d 97 3c 15 49 a1 3c fc ce 15 3c
       -0.019560615 0.018469587 0.019688169 0.009143587
000170 aa d4 04 bc 75 d4 a5 3c ad bd 7b 3b 31 00 b7 bb
       -0.008107344 0.020242909 0.0038412616 -0.0055847396
000180 95 b3 32 bd d2 b4 fe bc aa ac 00 3c 89 29 0c bc
       -0.043628294 -0.031092081 0.007853666 -0.008554825
000190 0b fe 62 3b 1a 4c 80 3c e3 0f d9 3b b3 68 c5 bc
       0.0034636285 0.015661288 0.0066242083 -0.024097776
0001a0 2f 86 04 3d 84 5a ac bc 60 da 45 3c 04 bf aa bc
       0.03235453 -0.021039255 0.01207599 -0.020843036
0001b0 b7 fa e8 3c f4 fa e8 3c aa 34 d8 bc 85 f7 b7 bb
       0.028439863 0.028439976 -0.0263923 -0.0056142234
0001c0 c1 cf e1 bc f0 2d a0 bb d1 09 25 3d 5f 21 ec 3c
       -0.027564885 -0.0048882887 0.040292565 0.028824506
0001d0 23 b2 1a bd d3 ae e0 3b 58 f4 12 3b 22 17 4c 3a
       -0.03776754 0.006856778 0.0022423472 0.00077854295
0001e0 18 8e e4 3b 25 30 a7 3c dc 01 47 bc 9c d8 d3 bc
       0.0069749467 0.0204087 -0.012146439 -0.025860123
0001f0 9a 39 0c bd 7e b6 1d 3d 8d 76 93 bc 7a d2 6f 3b
       -0.03423462 0.038504116 -0.018000865 0.003659396
