promptPGpot/checkpoints/exp1/ckpt_best_loss.pt (torch, 394819 bytes, 2 tensors)

weight f4 [128, 768]
00000000: 6cb4 96bc cedf 04bc 9fbe 023d ad8e 3abc
00000010: d166 31bb 0b0e 9f3c cfbe dcbb c2b3 cbbc
00000020: 19f2 85bc 8a6c 933c 9e0d 0dbb b8f2 603c
00000030: 3bf8 dd3c 336c 013d 4dcb 983c a9ba 09bd
00000040: aaba d13b 0b2b b9bc 045b 6bbc af96 63bd
00000050: 8ff1 06bd b75a d4bc ce5f b6bb 1240 813b
00000060: f5cd f53b 644d 73bc d408 c23c 2292 053d
00000070: 57e9 e53c 0bbb b8ba 6ba4 b7bc bffd 22bd
00000080: 949e 9a3c 115a d8bc 9e33 b3bb a842 d23c
00000090: 36fa ab3c ec83 083d 8007 6aba f351 90bb
000000a0: e564 a63c 42f0 ac3c 1919 553b 58ae 3d3c
000000b0: 4e3e 1abc 54dd bd3c 7fdb fa3c 0c70 4cbd
000000c0: 9919 dbbb 5a67 2dbd bae6 3fbd 9fea 03bd
000000d0: b444 583d db78 f93c 51f4 193c d080 d93c
000000e0: 3b3c cebc 81fc 5e3d fae8 35bd a7de 55bc
000000f0: 1b84 3a3d e4ef b9bc 20c7 07bc 144b 903c
00000100: 9d1d a73c 6d68 2b3b 4447 d2bc d7b7 163d
00000110: f484 07bd 89f2 523c 46cc babc ce6a 1ebc
00000120: f5d0 293d 5a2f cb3c 788c 80bc e3a9 00bd
00000130: 7a29 913c 49c6 52bc d2d6 1e3b 06ac e638
00000140: df59 d3bc 9b9d b23c bb94 68bc b474 e1bc
00000150: 35ce 123d bc87 163d 4ead 493c 7851 493c
00000160: a14f efbc eea5 bd3b bc85 f43c 77a4 9bbc
00000170: 5f39 da3c 1fa3 ee3c 931c 94bc 8da2 c63c
00000180: 703e ac3b 1920 003d 67d1 8b3c ad7f 60bc
00000190: b607 35bd 2fa8 5ebc e6ad 1e3d 43cb 01bc
000001a0: 8364 25bb a7be fbbc 40be e43c 4ec1 c1ba
000001b0: bec5 5fbc a7cc 15bc 9e2f 5c3c afc7 59bc
000001c0: ef07 bdba 25d9 d0bc c633 c1bc 5d23 21bb
000001d0: c5a1 4ebc b324 e93c 4dfa 3ebc 45f6 513b
000001e0: 9c14 0c3d 1448 d53c 3093 ae3b a83c 9cbc
000001f0: d599 fabc a0c3 79ba 54a3 863b 9cfa 4d3c
00000200: 471c 103c 113e 03bc 84ff 8dbc 6e5a 933c
00000210: e3c4 bf3b 9cb6 1abd ecb2 09bd dcca 1dbb
00000220: e62d ed3c ee64 e0bc fc9c 47bb b3d5 223d
00000230: 10e5 9dbc a6a7 56bc b860 17bd 184d 923c
00000240: 79fe 85bc 1fb4 733d 4251 983c 09d0 2abd
00000250: 976e cebb 5265 f4bc 8f32 f3bc f07d 8d3c
00000260: eb19 c73c 23ab 873c 16c8 04bd 1f3b 113c
00000270: 1e74 3bbc a516 05bd 29ab 983b a804 14bc
00000280: 6e7d 2dbc 49bd c63c 65d8 b33c 0819 c83c
00000290: 5951 c4bc 987e d23b ed5d 85bb 51ea d5bc
000002a0: df1c 4ebd 269f 0dbd 1e47 353b e751 e43c
000002b0: 37f7 04bc c4e3 ebbc 9cd4 32bc 41ee e6bc
000002c0: 85bf 9fbc 8387 1e3c 9c75 9d3a 7ee3 893c
000002d0: b7f3 8fbc 4ed0 efba 36a7 92bb 0f1c f6bc
000002e0: d6fe 0abd 7723 2f3c e226 1ebc 49c5 92bc
000002f0: 1496 5a3b d7c6 b03c 555f 933c 7f38 803b
00000300: e966 573c b01a e53c 3505 0bbd 9cc6 febc
00000310: eaa9 893c 8276 9e3c 11d0 0f3c 4916 e63c
00000320: de2f f03c ea8a 863c bc2e 273d e52c 3f3b
00000330: 43e6 833c c8b3 03bc 7b8a 523d 84d6 0bbb
00000340: a152 0d3d 2a74 643c 3028 adbc a490 ba3c
00000350: 1ddf 8f3c 18f4 43bd df7e cf3c 94bb 00bd
00000360: 4a56 e139 55db c9bc 9fdf 403c 02ea b53c
00000370: 5c38 40bc 6d42 013d 5984 8dbc b0a2 f43c
00000380: 9fae 1c3d 638e 0fbd 6996 e33c 54ba 15bd
00000390: 71c0 d9bc 150d 4cbc a405 78bb 888a 01bb
000003a0: 5729 e3bc 50d6 dbbc 5989 a2bc b5ea 813c
000003b0: 5a69 c13b f131 c23c 9525 893c 9554 d3bb
000003c0: 4d53 a6bb 9210 93bc 2bb6 10bd 77fc b83c
000003d0: 6222 f93c 2d64 2a3d 25ab 533c 40e7 6ab8
000003e0: 2c84 613c a7f0 1d3c 4f00 dd3c 938b 36bc
000003f0: 16b9 c6bc 27bd 753c ff8a 9a3c 8078 e4bb
-0.018396579 -0.00811 0.03192007 -0.011386556 -0.002706934 0.019415876 -0.0067366133 -0.024865989
-0.016350793 0.017996091 -0.002152301 0.013729744 0.027095905 0.031597327 0.018651629 -0.03362528
0.006400426 -0.022603532 -0.014364962 -0.055563625 -0.032945212 -0.025922162 -0.00556562 0.0039444054
0.0075013586 -0.014849994 0.02368585 0.032610066 0.028065367 -0.0014093829 -0.022417268 -0.039792772
0.018874444 -0.026410135 -0.0054687997 0.02566655 0.020993333 0.033328936 -0.0008927509 -0.0044043004
0.020311782 0.021110658 0.003251618 0.011577211 -0.009414269 0.023176827 0.030622242 -0.049911544
-0.006686401 -0.04233489 -0.046850897 -0.032206174 0.052799895 0.030453136 0.0093966285 0.02655068
-0.025175205 0.054440025 -0.044411637 -0.013053573 0.04553614 -0.022697397 -0.008287221 0.017613925
0.020399863 0.0026154772 -0.025668748 0.036796417 -0.03308578 0.012875208 -0.022802483 -0.009669019
0.041459043 0.024802852 -0.01569198 -0.031412017 0.017719973 -0.012864658 0.002423693 0.000109992965
-0.02579969 0.021803668 -0.014195616 -0.027521469 0.035841186 0.03675054 0.012309385 0.01228749
-0.029212775 0.0057876026 0.029848926 -0.018999321 0.026638685 0.029130517 -0.018080031 0.024247432
0.0052564666 0.03128061 0.017067624 -0.013702315 -0.044196807 -0.013589903 0.03874006 -0.0079219965
-0.0025236912 -0.030730559 0.02792275 -0.0014782341 -0.013657985 -0.009143031 0.013439087 -0.013292237
-0.001442192 -0.025494168 -0.023584258 -0.0024587729 -0.012611811 0.028459882 -0.011656356 0.0032037657
0.034199342 0.026035346 0.0053276047 -0.019071892 -0.030590931 -0.00095277466 0.0041088257 0.012571957
0.008795804 -0.008010403 -0.017333753 0.017987456 0.005852328 -0.037771806 -0.0336179 -0.0024077212
0.02895255 -0.027391877 -0.003045856 0.03975458 -0.019274265 -0.013101494 -0.036957473 0.017859027
-0.016356694 0.05949795 0.018593434 -0.041702304 -0.0062998044 -0.02983347 -0.029687194 0.017271966
0.02430435 0.016561097 -0.03241738 0.008864193 -0.011441259 -0.0324923 0.0046590758 -0.009034313
-0.010588987 0.02426018 0.02195377 0.024425998 -0.02396457 0.0064237826 -0.0040700347 -0.026112707
-0.050320502 -0.034575604 0.0027660797 0.027871085 -0.008115581 -0.02879513 -0.010914948 -0.02818978
-0.019500503 0.009675863 0.00120132 0.01683211 -0.017572267 -0.0018296333 -0.0044754995 -0.030042676
-0.033934437 0.010689608 -0.009652825 -0.017916339 0.0033353614 0.02157919 0.017989794 0.003912985
0.013147094 0.027966827 -0.033940513 -0.031100564 0.016804654 0.019343618 0.008777634 0.028086798
0.0293197 0.016423661 0.040816054 0.0029171046 0.016101008 -0.008038469 0.051401597 -0.0021337578
0.03450263 0.013943711 -0.021137327 0.022774048 0.017562443 -0.047840208 0.025329052 -0.03142889
0.00042979635 -0.024640718 0.011772065 0.02220631 -0.011732187 0.03155749 -0.017275022 0.029862732
0.03825247 -0.0350479 0.027781682 -0.03655465 -0.026581021 -0.012454291 -0.003784516 -0.001976641
-0.027729673 -0.02683559 -0.019840883 0.015858987 0.0059024515 0.023705455 0.016741553 -0.006449292
-0.005075848 -0.017952237 -0.03532998 0.022581322 0.030411903 0.04159944 0.012919222 -5.6005316e-05
0.013764422 0.0096398955 0.026977686 -0.0111416755 -0.024258178 0.014998711 0.018865107 -0.0069723725

bias f4 [128]
00000000: 9bb7 b2bb 8f93 8abb ea7e f5bc 1655 843b
00000010: 8c4d 283a a531 cdbc 3a57 dcbc a914 c13c
00000020: 86b0 d1bc 027b a0ba 2a8b 633c b9a2 f03a
00000030: c50e 9dbc f1a8 c2bc df34 15bd fd89 d53a
00000040: 131c dd3b 492b eabc f0f8 aa3b 0fbd 1dbc
00000050: 0667 efbc 0831 c3ba bbb8 c9bc 4aa9 893c
00000060: 7c8f d5bc 7911 80bc 6625 a63a 770d bf3c
00000070: c34e 83bc 2a50 a5bc ea10 edbc 09e9 82bc
00000080: 04bf f2bc 63df a2bc 6b95 8bbb e56a 2c3c
00000090: 5172 d63c b5c1 ab3c 70fc b9bc 5594 89bc
000000a0: c1a9 e93c d0e0 e33c 6d90 b53c 0563 d83b
000000b0: d93e 013d 9e10 d73c 5d22 02bd 77e8 0fbd
000000c0: 965f c3bc 85b6 ed3c 0dbb 5a3a 0af3 13bd
000000d0: 70dc f4ba 187e 2b3c 1429 b0bc d2b5 853a
000000e0: ce29 703c 8b5c f6bc fe51 8e3c 65d8 1d3b
000000f0: d154 e63c 60b9 60bb af2b ee3c 9bf6 9dbb
00000100: d51d 973c f211 5bbc eefb 63bc bca9 97bc
00000110: 13c3 a1bb 6fda 9dbc f632 b2bc 720a 023c
00000120: 2d38 e43c 7d4e 263a 3bda c43c 0bf9 adbc
00000130: 1e9b 4f3c 7f3d edbc 977b 1fbc da3c a33c
00000140: 4ba8 e73c a0cc cb3c 2439 5c3b 52de 193c
00000150: 7545 d63c 1e86 493c 0308 ceb9 dc33 e33b
00000160: 9493 9dbc 3447 623c 34eb 453c e699 313c
00000170: 15c2 0fbb 6e28 b83c 1344 eb3a f888 d8bb
00000180: 4831 2ebd a1cc 00bd a367 c93b 9ab9 1cbc
00000190: 02b1 b0bb 1d7c c73c a197 0c3b bbf9 94bc
000001a0: 7a02 b73c 0975 92bc 0879 c13c 9a35 f3bc
000001b0: 8a29 b53c 004f ec3c f40d a2bc 58eb 6f3a
000001c0: 45f1 dabc 1c36 87bb 89a3 083d 2535 eb3c
000001d0: 6862 f2bc 9f0d 013c cf30 d6ba f7c1 a43b
000001e0: 46d1 c3b9 fab6 a23c 8916 74bc 9770 00bd
000001f0: eefb edbc 7231 053d 0161 55bc 170c 193c
-0.0054540164 -0.004229016 -0.029967744 0.0040384633 0.0006420247 -0.025048086 -0.026897062 0.023569422
-0.025596868 -0.001224369 0.01388816 0.0018359042 -0.019172082 -0.023762198 -0.036427375 0.0016291734
0.0067477315 -0.028585093 0.005217664 -0.009627595 -0.02922393 -0.0014891932 -0.02462422 0.016804356
-0.026069395 -0.015633332 0.001267594 0.02332185 -0.016028767 -0.020179827 -0.02893873 -0.01598026
-0.029632099 -0.01988191 -0.0042597554 0.0105235325 0.026177557 0.02096639 -0.02270338 -0.016794363
0.028523328 0.02781716 0.022163594 0.006603601 0.031554077 0.02625304 -0.031771053 -0.035133805
-0.02384929 0.029017696 0.0008343913 -0.036120452 -0.0018681418 0.010467075 -0.021503963 0.0010201281
0.0146584045 -0.030073425 0.017373081 0.002408528 0.028116615 -0.003429018 0.029073564 -0.0048206574
0.018446842 -0.013370978 -0.013915045 -0.018513553 -0.0049365847 -0.019269196 -0.021752816 0.007937061
0.027858818 0.0006344093 0.024029842 -0.021236917 0.01267126 -0.028959988 -0.009734056 0.019926477
0.02827849 0.024877846 0.0033603394 0.009391384 0.026156167 0.012300042 -0.0003929735 0.0069336724
-0.01923541 0.013810921 0.012080003 0.010839915 -0.002193575 0.022480216 0.0017949365 -0.006608125
-0.042527467 -0.03144515 0.0061463877 -0.009565735 -0.0053921947 0.024351174 0.0021452683 -0.018185487
0.022340048 -0.017878072 0.023617283 -0.029688645 0.022114534 0.028846264 -0.019782044 0.00091521954
-0.026726374 -0.0041263234 0.033359084 0.028711865 -0.02958794 0.007876783 -0.001634145 0.005028005
-0.0003734922 0.01986264 -0.014897951 -0.031357374 -0.029050793 0.032517858 -0.013023616 0.009341261
