promptPGpot/checkpoints/exp1/ckpt_3.pt (torch, 394659 bytes, 2 tensors)

weight f4 [128, 768]
-0.014724032 -0.009593324 0.036280353 0.0017299165 0.000413892 0.02869291 -0.011058065 -0.029648887
-0.022021193 0.027559703 0.019792354 0.032109786 0.024116747 0.014283183 0.005378009 -0.01948946
0.017330868 -0.01708803 -0.01828156 -0.032529533 -0.035163347 -0.021257557 -0.014861568 0.019287646
-0.00075063825 0.015834717 0.022396801 0.030348953 0.01720218 0.005637709 -0.022455536 -0.021703174
0.021166725 -0.03045767 0.001471917 0.009364558 0.0078092027 0.027286258 -0.017236285 -0.016038997
0.020993715 0.004588348 -0.013045833 0.006688739 -0.017276898 -0.00019120274 0.033533547 -0.017904164
-0.006514199 -0.03874094 -0.036123365 -0.02506206 0.019783612 0.03174386 0.010823745 0.022749327
-0.02320622 0.019382166 -0.03408469 -0.022989763 0.037578024 -0.028458038 0.006290158 0.007210614
0.0043492625 0.010330428 0.0057790563 0.031076377 -0.023540962 0.0077036237 -0.008098805 -0.016196849
0.020804329 0.005322345 0.0077963783 -0.032345165 -0.0012257588 -0.03250301 0.011429458 0.017528962
-0.040110722 0.012272566 -0.015538695 -0.02271404 0.027206602 0.024146097 0.01260082 0.009098124
-0.025958557 0.003647217 0.02814364 0.009822 0.026339084 0.013480572 -0.03711642 0.010257779
0.0016754624 0.031021316 0.036526747 -0.0044570155 -0.033253472 -0.022218276 0.022690918 -0.0070556025
-0.0012792585 -0.018781666 0.029234556 0.0025314584 -0.013997766 1.1473188e-05 0.0105542885 -0.033415187
-0.016134059 -0.021367503 -0.026652439 -0.0030476174 -0.027188715 0.023153212 -0.021714455 0.004290264
0.03787955 0.021938689 0.011596416 -0.020102758 -0.008437286 -0.015880167 0.008327568 0.018041579
0.008061616 -0.011679139 -0.005551788 -0.011873385 0.011489339 -0.0076786373 -0.028883839 0.0068979883
0.012903205 -0.02662784 -0.01402359 0.027091656 -0.021113824 -0.013452081 -0.034405764 0.01861762
-0.030580442 0.022398973 0.030213075 -0.023828339 -0.0097736865 -0.018653136 -0.0047240327 0.027509563
0.03092391 0.026469544 -0.0065364516 0.03525896 -0.025404915 -0.018807394 -0.0034256654 -0.01538378
-0.007952249 0.032213356 0.013488929 0.013667622 -0.016987685 0.022320211 -0.026136287 -0.02860758
-0.036032446 -0.023987848 -0.01849326 0.029657323 0.00078037137 -0.01307237 -0.015190283 -0.01640257
-0.021836085 0.021234706 -0.0045352923 0.022367224 -0.020489734 -0.006274142 0.003242972 -0.037629515
-0.03494788 0.025570225 0.0021087527 -0.018993208 0.028247032 0.018571557 0.014434418 0.011210722
0.019140977 0.0149639975 -0.034170385 -0.03321806 -0.0035159115 0.022566758 0.0028103022 0.0057551884
0.013362198 0.027254667 0.03596267 0.0012346061 0.016481314 -0.01032757 0.030837333 -0.033376902
0.031020395 0.017235734 -0.022674972 0.03091101 -0.009651808 -0.03679664 0.016525451 -0.019783063
-0.0035152733 -0.020215392 0.024334583 0.019325314 -0.018843917 0.03568712 -0.008669463 0.032104675
0.034146372 -0.029733527 0.021838332 -0.01987722 -0.023690242 -0.008316983 -0.0018700883 0.0018277918
-0.0052870642 -0.039043278 -0.0094775 0.02735204 0.029321777 0.034160726 0.034649752 -0.0090750605
-0.018729474 -0.01589319 -0.018369192 0.018358218 0.015342644 0.029753326 -0.00222548 0.0046956483
0.014411367 0.016918153 0.0068519847 0.00017465863 -0.023670146 0.030493977 0.023299504 0.008978272
00000000: 113d 71bc 512d 1dbc b59a 143d 5ebe e23a
00000010: a5ff d839 650d eb3c e32c 35bc 39e2 f2bc
00000020: ca65 b4bc e3c4 e13c 9323 a23c 8d85 033d
00000030: 7c90 c53c 0304 6a3c 023a b03b 5ca8 9fbc
00000040: 77f9 8d3c 32fc 8bbc 36c3 95bc b03d 05bd
00000050: 7107 10bd 5424 aebc ef7d 73bc 2001 9e3c
00000060: 7bc6 44ba cfb7 813c 7f79 b73c 5e9e f83c
00000070: 96eb 8c3c 88bc b83b acf4 b7bc dbca b1bc
00000080: d765 ad3c 5d82 f9bc 57ed c03a ce6d 193c
00000090: 57e4 ff3b 6e87 df3c 1c33 8dbc 3764 83bc
000000a0: 03fb ab3c da59 963b 31be 55bc 362d db3b
000000b0: 4888 8dbc 987d 48b9 795a 093d c1ab 92bc
000000c0: 1075 d5bb d2ae 1ebd 18f6 13bd f34e cdbc
000000d0: 3e11 a23c da05 023d 1456 313c cc5c ba3c
000000e0: f81a bebc 59c7 9e3c 639c 0bbd 0755 bcbc
000000f0: 6aeb 193d d520 e9bc ab1d ce3b 0447 ec3b
00000100: 4284 8e3b f540 293c 3d5e bd3b e393 fe3c
00000110: fad8 c0bc ae6e fc3b dab0 04bc 41af 84bc
00000120: d76d aa3c 1167 ae3b c378 ff3b 5d7c 04bd
00000130: a4a9 a0ba e021 05bd 9f42 3b3c e698 8f3c
00000140: 244b 24bd df12 493c 0396 7ebc cb12 babc
00000150: 61e0 de3c 09ce c53c ab73 4e3c 4c10 153c
00000160: 0aa7 d4bc 2606 6f3b 7e8d e63c 74ec 203c
00000170: 10c5 d73c 9edd 5c3c 6307 18bd 3e10 283c
00000180: 309b db3a 6a20 fe3c 129d 153d 280c 92bb
00000190: cb34 08bd 1a03 b6bc 4ee2 b93c af32 e7bb
000001a0: cbac a7ba 02dc 99bc 4f7d ef3c d3e6 253b
000001b0: e356 65bc f87c 4037 e5eb 2c3c 5dde 08bd
000001c0: 932b 84bc e70a afbc 3756 dabc 89ba 47bb
000001d0: deba debc ceab bd3c 83e2 b1bc 5895 8c3b
000001e0: 9627 1b3d c4b8 b33c e5fe 3d3c 8aae a4bc
000001f0: 8b3c 0abc 2017 82bc 5a70 083c efcb 933c
00000200: de14 043c dc59 3fbc c6eb b5bb 9688 42bc
00000210: c83d 3c3c 149d fbbb cd9d ecbc 8508 e23b
00000220: f767 533c a122 dabc 33c3 65bc 52ef dd3c
00000230: e6f6 acbc 1e66 5cbc 0fed 0cbd fb83 983c
00000240: d683 fabc 0d7e b73c 6981 f73c a633 c3bc
00000250: d021 20bc 76ce 98bc 0fcc 9abb bc5b e13c
00000260: 2454 fd3c a8d6 d83c bb2f d6bb b36b 103d
00000270: f81d d0bc f711 9abc 2181 60bb 400c 7cbc
00000280: 264a 02bc 27f2 033d ab00 5d3c 29ee 5f3c
00000290: c229 8bbc e0d8 b63c c41b d6bc 725a eabc
000002a0: c296 13bd 2a82 c4bc 2d7f 97bc eaf3 f23c
000002b0: d691 4c3a 7e2d 56bc aae0 78bc af5e 86bc
000002c0: 97e1 b2bc 68f4 ad3c ca9c 94bb 783b b73c
000002d0: 16da a7bc 5197 cdbb 0b88 543b 6821 1abd
000002e0: 8225 0fbd a678 d13c 0033 0a3b a597 9bbc
000002f0: 5266 e73c 6123 983c 567e 6c3c 2dad 373c
00000300: 8acd 9c3c 8e2b 753c 3ff6 0bbd a90f 08bd
00000310: 356b 66bb ecdd b83c 0c2d 383b 0596 bc3b
00000320: 1fed 5a3c 2e45 df3c 984d 133d 82d2 a13a
00000330: d203 873c f834 29bc 939e fc3c 38b6 08bd
00000340: 7c1e fe3c f431 8d3c ddc0 b9bc 1639 fd3c
00000350: 9e22 1ebc 13b8 16bd 6260 873c 1710 a2bc
00000360: 8060 66bb c09a a5bc 5259 c73c 1f50 9e3c
00000370: 8f5e 9abc a82c 123d 5d0a 0ebc 3180 033d
00000380: 11dd 0b3d ba93 f3bc 4de6 b23c 8dd5 a2bc
00000390: 0a12 c2bc f443 08bc c01d f5ba 8492 ef3a
000003a0: 1c3f adbb d8eb 1fbd 8447 1bbc 6311 e03c
000003b0: 3934 f03c 1eec 0b3d e6ec 0d3d 90af 14bc
000003c0: 8e6e 99bc 6f32 82bc fd7a 96bc f963 963c
000003d0: b75f 7b3c 3fbd f33c 5cd9 11bb f4dd 993b
000003e0: a71d 6c3c f097 8a3c 9d86 e03b 9224 3739
000003f0: e5e7 c1bc 81ce f93c 9ade be3c 9a19 133c

bias f4 [128]
-0.0078064483 -0.008114511 -0.025901949 0.0024360172 -0.005711706 -0.023135874 -0.027941244 0.024396822
-0.021979569 -0.0030974718 0.010597673 0.001103172 -0.013614548 -0.019921813 -0.038150143 0.0026286934
0.011401295 -0.026798876 0.008718097 -0.009465753 -0.03254908 -0.0016750142 -0.027329136 0.016584087
-0.024747208 -0.01635892 -0.0016797648 0.030924471 -0.018880177 -0.020743439 -0.021256981 -0.019464236
-0.03189754 -0.020841556 -0.0021070442 0.009709766 0.023573369 0.026186286 -0.023123305 -0.005574474
0.030375633 0.03132627 0.025390444 0.007939969 0.026551673 0.02692909 -0.033525962 -0.034047298
-0.027527437 0.026576066 -0.007068016 -0.037211977 -0.0019210705 0.016190045 -0.025151167 -0.0033433307
0.02019707 -0.034933273 0.009583911 0.003180963 0.032268226 -0.0021182352 0.027041094 -0.0017164777
0.021362748 -0.008666142 -0.015520868 -0.021683412 -0.00079136214 -0.017084371 -0.023380531 0.004627842
0.03035372 -0.0010118063 0.01972933 -0.01427594 0.013949284 -0.02636086 -0.0020017002 0.019481193
0.026761413 0.024677953 0.00049743 0.007170974 0.03332702 0.010153673 0.00028182924 0.013009892
-0.022275208 0.01407428 0.009952635 0.010319131 0.0008261681 0.020386823 0.00086806255 -0.0037171252
-0.03302805 -0.031581383 0.0071800356 -0.00875967 -0.004035776 0.022367992 0.006336849 -0.022205483
0.024109615 -0.023072489 0.021467978 -0.029222839 0.020504434 0.027788319 -0.016927153 -0.0015550681
-0.028571231 -0.00256052 0.03559493 0.028677875 -0.034864895 0.003960789 0.0045670494 0.008082511
0.003179474 0.017560162 -0.01364063 -0.036580067 -0.0314444 0.033326793 -0.015540955 0.0072427867
00000000: 3ccd ffbb baf2 04bc 5330 d4bc 96a5 1f3b
00000010: 4329 bbbb 7287 bdbc 09e5 e4bc d8db c73c
00000020: 7f0e b4bc f4fe 4abb dda1 2d3c 4f98 903a
00000030: 8e0f 5fbc 1233 a3bc 5343 1cbd 2846 2c3b
00000040: 7fcc 3a3c 5189 dbbc 59d6 0e3c 3f16 1bbc
00000050: 2f52 05bd 268c dbba 5ae1 dfbc 5adb 873c
00000060: a8ba cabc 2403 86bc 8e2b dcba 5155 fd3c
00000070: 9aaa 9abc 25ee a9bc 1f23 aebc 7673 9fbc
00000080: ffa6 02bd e9bb aabc 5616 0abb b615 1f3c
00000090: f01c c13c 9f84 d63c 166d bdbc 14aa b6bb
000000a0: 52d6 f83c fa4f 003d 9fff cf3c a516 023c
000000b0: e582 d93c 659a dc3c 8552 09bd 2e75 0bbd
000000c0: 3881 e1bc 0db6 d93c d19a e7bb 966b 18bd
000000d0: 6ecc fbba fca0 843c d209 cebc c81b 5bbb
000000e0: 5374 a53c 3116 0fbd d605 1d3c b477 503b
000000f0: b02b 043d 17d2 0abb 4985 dd3c 6ffb e0ba
00000100: ee00 af3c 6ffc 0dbc 3d4b 7ebc 69a1 b1bc
00000110: 6a73 4fba 86f4 8bbc 8788 bfbc 27a5 973b
00000120: 5da8 f83c 969e 84ba 679f a13c a2e5 69bc
00000130: 8a8b 643c bbf2 d7bc f52e 03bb 0697 9f3c
00000140: c03a db3c 6b29 ca3c f665 023a 7dfa ea3b
00000150: ea81 083d 975b 263c 7bc2 9339 7127 553c
00000160: 7f7a b6bc cf97 663c 6010 233c 9311 293c
00000170: 3493 583a 4402 a73c b18e 633a 039b 73bb
00000180: 6c48 07bd 7b5b 01bd 8146 eb3b b884 0fbc
00000190: 8b3e 84bb 143d b73c 58a5 cf3b 46e8 b5bc
000001a0: 8781 c53c 8402 bdbc 9ddd af3c bc64 efbc
000001b0: eaf8 a73c 54a4 e33c d0aa 8abc 6dd3 cbba
000001c0: 370e eabc 66ce 27bb fdcb 113d dded ea3c
000001d0: 7ece 0ebd 82c9 813b 30a7 953b 826c 043c
000001e0: b95e 503b 54da 8f3c f37c 5fbc fbd4 15bd
000001f0: d8cb 00bd ad81 083d 7d9f 7ebc e654 ed3b
