promptPGpot/checkpoints/exp1/ckpt_6.pt (torch, 394659 bytes, 2 tensors)

weight f4 [128, 768]
00000000: 71d0 6dbc 9cc8 ecbb 0264 063d f6c4 313b
00000010: 7f05 293b 11dc f03c 26b7 b4bb 5bef c5bc
00000020: 6600 d7bc 1128 f93c a689 a33c 0f03 d43c
00000030: 661b f13c 1581 8b3c 63a3 2b3c 4bb8 d5bc
00000040: 054c 903c bf27 71bc d733 05bc 2ce1 0bbd
00000050: 35ad 20bd 0e24 a2bc 3c6b 8abc b613 bd3c
00000060: 0c75 2abb f81c 753c 05dd a93c 932b dc3c
00000070: 7862 9e3c 0672 253c 35c7 b7bc 5002 9ebc
00000080: 7bca c93c eb90 02bd 267c 7c3b 3e90 0e3c
00000090: 06bd 983b 7a07 be3c 5115 98bc e999 adbc
000000a0: e52d b93c ce53 fc3b c84e 54bc c63a 123c
000000b0: b77d 93bc bc7f 7fbb 8897 133d 6532 9abc
000000c0: 14be 05bc 6066 15bd 0cec 17bd 1b42 dabc
000000d0: a9cc c53c 4ae9 e83c 9739 113c 866f c83c
000000e0: cf2e e7bc c760 953c f2b4 dbbc 7313 aabc
000000f0: 6c0d 163d 3dd8 e6bc 08fe b939 055c 1f3b
00000100: bf5b 8a3b 1e4c 183c 9e53 093c 887d 163d
00000110: f965 b0bc a5b5 b63b e95e 23bc f7de 9fbc
00000120: 75b3 c83c a815 883b 0e0c b53b f9b4 00bd
00000130: 0524 f13b 3530 e6bc a651 0b3c 44a9 553c
00000140: b90d 2abd 81c4 613c 835a 51bc d230 90bc
00000150: dcbd e73c 78b9 ad3c 2f71 273c ed3b 9a3b
00000160: 15d0 c1bc 8ea6 a13b 5b65 c93c 78bb 0d3c
00000170: 7a20 c83c e3a0 153c e453 1abd c2f8 2e3c
00000180: f43d 58bb 0414 1f3d 7724 0c3d 64d3 f0ba
00000190: 1c97 eebc 46c0 92bc ccdb d63c e362 95bb
000001a0: c889 723b acd6 80bc 0dd7 e13c ddb3 98b8
000001b0: 0bb0 22bc bbf2 2cba 611e 363c f921 f4bc
000001c0: 946f 8fbc cdfd d7bc 5c64 e9bc ef76 fdba
000001d0: 813b aebc 4e2b 913c 216f b1bc 75c0 ca3a
000001e0: 2c37 183d de0e 803c b51b 353c 6a65 9cbc
000001f0: fdf7 22bc 6487 7fbc e83e f73b b275 223c
00000200: 3da5 f53b 7e31 4fbb 0a6c 26bc 95fe bfbb
00000210: 2fda 4b3c 65f0 a0bc 5569 e6bc 5a52 b63b
00000220: c36f 813c b1f9 b0bc 3cc6 69bc 8bf9 e23c
00000230: 2913 8cbc ea1f 4dbc e04e 09bd 99b9 933c
00000240: 38ed f1bc 3349 c53c fdd5 0a3d 4de6 aebc
00000250: f478 c4bb eb75 8bbc 9497 cabb 4626 b73c
00000260: 0418 093d bf9e d53c 619b c6bb 2d00 023d
00000270: 5156 aabc 1489 a9bc ed4b 563b 764b 81bc
00000280: 3e7b e5bb d183 003d c6f6 543c 811c 4a3c
00000290: 5369 acbc 8d82 f33c 1913 dbbc 4193 debc
000002a0: 3752 09bd 7c1a a6bc 6778 7fbc cae1 fc3c
000002b0: e8ce 653a 3868 7ebc 868e 83bc fe3f 84bc
000002c0: c924 bfbc 3dd9 a13c 3257 e8bb c964 8a3c
000002d0: e730 91bc c076 95bb fd3c 0d3c fd7d 18bd
000002e0: cd62 0fbd 9b52 db3c 2409 ce3a c79e 7ebc
000002f0: f9e5 c23c 0426 8e3c 9efd 783c 4646 a53c
00000300: a3c5 b93c d9a1 673c ade6 0cbd d464 0bbd
00000310: b3a6 87ba da96 ad3c a263 183b a2dd aa3b
00000320: d666 593c 8a71 d63c c0a6 063d 288b 113c
00000330: f34c 843c 3174 51bc d326 243d bd68 0fbd
00000340: 659e b13c f32f 623c d171 8dbc 8c38 b93c
00000350: 4a10 6dbc 43eb 0fbd 1ac8 5b3c 0575 b5bc
00000360: 8d9c 82bb 2592 c2bc b0c0 a13c 3376 d73c
00000370: 1c12 b1bc 3d9b f83c 3801 f7bb 76f2 de3c
00000380: b680 1c3d 802d e4bc 6825 a13c 6b38 aabc
00000390: 450f cdbc 6ebd d4bb bf05 49bb ca6a 9eb8
000003a0: c310 18bc 5a9e 20bd 920f 8cbc 1508 ad3c
000003b0: 158b d03c bb43 073d fa6c f23c 9ba0 13bc
000003c0: 58ac 98bc b3a8 94bc 276a 9cbc 4d09 9e3c
000003d0: f5f2 703c 7604 de3c 40f7 d1ba 09c7 a13b
000003e0: 3f98 923c 42af af3c 420f b33b 64e6 10ba
000003f0: 7e9a d0bc 891e bd3c b47b f53c 184f 223c
-0.014515028 -0.007226063 0.03281022 0.0027125455 0.002579063 0.02940181 -0.005514997 -0.024161985
-0.026245307 0.030414613 0.019963097 0.025880365 0.02943201 0.017029325 0.010475966 -0.026088854
0.017614374 -0.014718949 -0.008130035 -0.034150288 -0.039227683 -0.019792583 -0.016896836 0.023080688
-0.0026009707 0.01496052 0.020735273 0.026876247 0.019334063 0.010097986 -0.022433857 -0.019288212
0.024632683 -0.031876486 0.0038526147 0.008701382 0.004661205 0.023196924 -0.018564852 -0.021191554
0.022604892 0.00770042 -0.012958236 0.0089251455 -0.018004281 -0.0038986048 0.036033183 -0.018822858
-0.008162994 -0.036474586 -0.037090346 -0.02664285 0.024145441 0.028431553 0.008863828 0.024467241
-0.028220562 0.018234624 -0.02681968 -0.020761227 0.036633894 -0.028179282 0.00035475218 0.0024316323
0.004222363 0.0092954915 0.008381752 0.03674081 -0.021533 0.005575853 -0.009971359 -0.019515498
0.024499634 0.0041529723 0.0055251187 -0.03142259 0.00735903 -0.028099159 0.008503353 0.013040844
-0.041516993 0.01377976 -0.012777927 -0.017601404 0.028288774 0.021206602 0.010219856 0.0047068507
-0.023658792 0.004933185 0.024584463 0.008650653 0.024429549 0.009132597 -0.03767766 0.010679426
-0.0032995911 0.038837448 0.034214463 -0.0018373546 -0.029124789 -0.017913949 0.026227854 -0.0045589074
0.0037008394 -0.015727364 0.027568365 -7.281427e-05 -0.009929667 -0.0006597449 0.011115641 -0.029801356
-0.01750926 -0.026366139 -0.028490238 -0.0019337813 -0.021268608 0.017720845 -0.021659436 0.0015468734
0.03716199 0.01563209 0.011053969 -0.019091327 -0.00994682 -0.0155962445 0.007545341 0.009915756
0.0074965046 -0.0031615193 -0.010157594 -0.005859206 0.012442156 -0.019645879 -0.028126398 0.0055640163
0.015800362 -0.021603437 -0.014268454 0.027706882 -0.01709898 -0.012519816 -0.033522487 0.018032836
-0.02953206 0.024082756 0.03389548 -0.02135005 -0.005995864 -0.017024001 -0.0061826203 0.022357117
0.03347017 0.026076673 -0.006061003 0.03173845 -0.020793112 -0.020695247 0.0032699064 -0.015783053
-0.007003217 0.03137571 0.0129982885 0.012335897 -0.021046316 0.029725337 -0.026742505 -0.027169826
-0.03352567 -0.0202763 -0.015592671 0.030869383 0.0008766488 -0.015527777 -0.016059171 -0.016143795
-0.02333297 0.019756908 -0.0070904726 0.016893761 -0.017723514 -0.0045612752 0.008620498 -0.037229527
-0.035006333 0.026772788 0.0015719277 -0.015540785 0.0237913 0.017352112 0.015197186 0.02017511
0.022677248 0.014137709 -0.034399677 -0.034031704 -0.0010349363 0.021190096 0.0023252745 0.005214409
0.013269147 0.026177187 0.03287387 0.008883275 0.016149973 -0.01278405 0.04007609 -0.035011996
0.021681974 0.013805377 -0.017266186 0.022609971 -0.014469216 -0.035136472 0.013414407 -0.022150526
-0.0039859475 -0.023751328 0.0197452 0.026301479 -0.02161508 0.03034746 -0.007537987 0.027215224
0.038208686 -0.027853727 0.019671157 -0.020778855 -0.025031695 -0.0064923083 -0.003067359 -7.553918e-05
-0.00928134 -0.039213516 -0.017097268 0.021122018 0.025456944 0.033023577 0.02959298 -0.009010459
-0.018636867 -0.018146848 -0.019093586 0.019291544 0.014706363 0.027101737 -0.0016019121 0.004937057
0.017894862 0.021445874 0.0054644654 -0.0005527495 -0.025464293 0.02308585 0.029966213 0.009906553

bias f4 [128]
00000000: 2f65 2abc 6f27 43bc 4517 adbc 2b09 1d3b
00000010: c2b3 60bb d74a bcbc 5dea f2bc 202d bb3c
00000020: 4586 a1bc c595 9ebb ca57 523c fba2 cc3a
00000030: 9539 34bc d7ac 7abc aded 0ebd ba98 b439
00000040: bd1c 0b3c 090f f2bc 5887 093c 1668 4ebc
00000050: 8844 01bd ef0d 80ba 4ca8 dabc e933 2f3c
00000060: cabc adbc 3635 90bc bfcf 45bb abaf 033d
00000070: 8034 97bc 6941 bfbc 06bd acbc 6ba4 aabc
00000080: 2f06 f3bc c237 9cbc e0db e83a 77ff 373c
00000090: 2a04 c13c 886a ca3c faf3 cfbc 0575 6bbb
000000a0: 5ec4 063d 3e5d 023d 824d 073d 2696 283c
000000b0: e5ab d43c 3f71 d73c d45a 05bd e86b 10bd
000000c0: 2814 dabc 1916 cd3c 2c49 04bc 30b3 22bd
000000d0: 2345 31bb 3e5d 9f3c 62cc fabc c931 f4bb
000000e0: 2f9f a73c a93b 17bd dc37 cf3b da60 fd3b
000000f0: b87e 053d b2f1 83bb dbd7 b23c 7cce afba
00000100: badf cd3c dc9b 3dbc 8858 9cbc 55e5 a5bc
00000110: daaa 16ba 3d29 60bc cd17 c6bc bf88 4cba
00000120: 2f37 e83c b0cc 863a 633f 8b3c 25ab abbc
00000130: 5d6c 6b3c bb40 cabc 5703 f53a 1925 833c
00000140: b531 dd3c ae26 b53c 7096 d13a 7d49 c93a
00000150: 9c25 f43c 5248 0a3c 8c17 4a3b bc1f 333c
00000160: 2fe2 9abc 521b 483c ebba 4d3c b2a4 da3b
00000170: 95b3 3fbb 5034 743c eb92 a33a ef91 bfbb
00000180: d23b 09bd aaff 0fbd b15c 143c f753 bcbb
00000190: 47bd acbb 047c 9e3c dc91 103c 5b76 bfbc
000001a0: af1b d93c 51ea bebc c56b 9b3c 5cd4 04bd
000001b0: a52b bb3c 07f7 f33c a5f4 4ebc d149 6ebb
000001c0: d453 d3bc b4f0 05bb 14f1 163d 7465 e93c
000001d0: eeab 0ebd 6816 77ba 8808 ec3b 5401 cd3b
000001e0: 7581 493b 6040 693c 2401 0dbc b596 2abd
000001f0: dc94 f7bc 4075 0f3d e2bf 8ebc 7426 ae3b
-0.010400101 -0.011911257 -0.02112926 0.0023961763 -0.0034286832 -0.022984905 -0.029652769 0.022848666
-0.019717345 -0.0048396313 0.012838313 0.0015612537 -0.011000057 -0.015299997 -0.034894634 0.00034446066
0.008490738 -0.029548185 0.008394085 -0.012598058 -0.031559497 -0.0009769778 -0.026691578 0.010693529
-0.021208186 -0.017603498 -0.003018364 0.032149952 -0.018457651 -0.02334662 -0.021086227 -0.020830354
-0.029666035 -0.019069556 0.0017765723 0.011230341 0.023561556 0.024709001 -0.025384892 -0.0035927903
0.032902114 0.031827204 0.0330329 0.010289704 0.025960872 0.026299117 -0.032557324 -0.035259157
-0.02662094 0.025034951 -0.008074086 -0.039721668 -0.0027049265 0.019453641 -0.030615035 -0.007452224
0.020461647 -0.03692213 0.0063237976 0.007732493 0.03259155 -0.004026615 0.021831444 -0.0013412978
0.025131095 -0.011572804 -0.019085184 -0.020250956 -0.0005747505 -0.013681707 -0.024181271 -0.0007802359
0.028346626 0.001028439 0.016997999 -0.020955632 0.014369098 -0.024689069 0.0018693012 0.0160089
0.027001241 0.02211317 0.0015990268 0.0015356984 0.02980309 0.008440094 0.003083679 0.010932859
-0.01890668 0.012213545 0.012556772 0.0066724652 -0.0029251326 0.01490505 0.0012479698 -0.005846254
-0.033504315 -0.03515593 0.0090553025 -0.005747314 -0.005271587 0.019346245 0.008823838 -0.023371866
0.026502458 -0.02330509 0.018972287 -0.032429084 0.02284796 0.029780878 -0.01263157 -0.0036359916
-0.025796808 -0.002043766 0.036851004 0.02849076 -0.034831934 -0.0009425641 0.0072031654 0.006256262
0.0030747328 0.01423654 -0.008606229 -0.04164763 -0.030222349 0.035023928 -0.017425481 0.0053146426
