promptPGpot/checkpoints/exp1/ckpt_16.pt (torch, 394727 bytes, 2 tensors)

weight f4 [128, 768]
000000 b3 ee 94 bc 33 41 0d bc b6 8b 0f 3d 5c 91 d3 ba
       -0.018180227 -0.008621502 0.035045348 -0.0016141343
000010 fe 39 01 bb 57 c7 b6 3c c4 d4 3b bb 0f c3 9e bc
       -0.0019718404 0.02231185 -0.0028660754 -0.01938012
000020 76 a5 ce bc 4b e6 ca 3c 97 59 24 3c 6d c3 c1 3c
       -0.025225382 0.024768015 0.0100311255 0.023652757
000030 68 41 fa 3c c4 68 e0 3c d2 31 66 3c 43 71 0c bd
       0.030548766 0.027393706 0.014049964 -0.034287702
000040 e8 02 75 3c e0 76 70 bc 15 3d 6e bc 4d bf 35 bd
       0.014954306 -0.0146767795 -0.01454093 -0.04437189
000050 0a 9c 18 bd 5d 1a b2 bc fb dc 30 bc 54 88 81 3c
       -0.037258185 -0.021741087 -0.010794873 0.015812077
000060 f9 f9 14 3a 3a 5b 87 3b 18 d3 bb 3c bc 76 e4 3c
       0.0005683001 0.004130748 0.022927806 0.027888648
000070 f3 f1 c7 3c 08 43 e2 3b 85 28 ba bc 3a 20 df bc
       0.024407363 0.0069049634 -0.0227244 -0.027237047
000080 6a 95 b0 3c e6 3a de bc 80 b2 6e ba 20 c1 7d 3c
       0.021555621 -0.027127694 -0.0009105578 0.015487939
000090 85 0d 44 3c 22 8e e3 3c 4a 53 35 bc 50 af 41 bc
       0.011966114 0.027777735 -0.011067221 -0.011821583
0000a0 09 30 c1 3c 2e 7b 7c 3c c9 74 90 bb 9a 7b d8 3b
       0.023582475 0.015410228 -0.004408453 0.0066065313
0000b0 0d 70 54 bc 2a c5 83 3a b8 12 0b 3d 3c 28 03 bd
       -0.012966168 0.0010053266 0.0339534 -0.032020792
0000c0 46 82 15 bc af dd 20 bd af 9d 2f bd 00 c7 fe bc
       -0.009125298 -0.039273914 -0.04287499 -0.03110075
0000d0 b9 8d 18 3d 20 13 f3 3c 8d 8b e4 3b f0 25 e0 3c
       0.037244532 0.029672205 0.0069746436 0.02736184
0000e0 5e df c9 bc 38 e2 25 3d 02 a5 e6 bc 5c bc 57 bc
       -0.024642643 0.040498942 -0.028154854 -0.013167467
0000f0 d2 5a 1a 3d e7 38 bc bc 54 b0 23 ba 39 1f 16 3c
       0.03768427 -0.022976352 -0.00062442315 0.0091627175
000100 1b 37 50 3c 67 59 db 3b 5a 93 08 bc cb b5 23 3d
       0.012708451 0.006694007 -0.008335913 0.039968293
000110 fd cd e0 bc 84 92 05 3c 6f 57 96 bc 41 6c 91 bc
       -0.027441973 0.008152608 -0.018352238 -0.017751815
000120 81 bc 0a 3d d3 51 d6 3b ce 88 ad bb 53 36 03 bd
       0.033871178 0.006540516 -0.0052958494 -0.03203423
000130 06 cd 78 3c 6e 95 9c bc 42 10 08 3c 84 79 45 3a
       0.0151856 -0.019114222 0.008304657 0.0007533061
000140 8e 55 0c bd bd af 8f 3c 17 87 1b bc 69 9b b6 bc
       -0.03426128 0.017539853 -0.009492657 -0.022290902
000150 db ce 09 3d 0a d9 ec 3c e1 d4 18 3c 56 9a 8e 3b
       0.03364454 0.028912086 0.009328098 0.0043518944
000160 cf 59 dd bc 22 7a c0 3b b0 d6 ce 3c 36 d3 d5 bb
       -0.027020363 0.0058739344 0.025248855 -0.0065254224
000170 24 dd c5 3c c9 e7 9e 3c e4 2e e9 bc bb ac 81 3c
       0.0241533 0.019397633 -0.028464742 0.015829435
000180 f4 d4 53 ba 87 75 0a 3d 30 b9 d3 3c 45 21 b3 bb
       -0.0008080744 0.03380349 0.02584514 -0.0054666125
000190 f2 aa 0f bd bf 1a 4f bc 2d 9c 14 3d 0b cb 98 bb
       -0.035075136 -0.012640654 0.036281753 -0.0046628765
0001a0 09 6b 4d bb df d6 b0 bc db ad d5 3c 09 ab 44 bb
       -0.0031344316 -0.021586834 0.026083877 -0.0030009171
0001b0 76 32 43 bc 1e ca ab ba 26 44 18 3c ca 61 a4 bc
       -0.011913886 -0.00131065 0.009293592 -0.02006616
0001c0 80 72 29 bc 3e 11 c6 bc 6d 14 f9 bc af f8 1e bb
       -0.01034224 -0.024178144 -0.030405248 -0.0024257114
0001d0 34 df b0 bc 12 19 bd 3c ad dd 82 bc 7a 24 a3 3b
       -0.021590807 0.023083244 -0.015974844 0.0049787136
0001e0 ba 64 15 3d 40 06 99 3c 54 de 0d 3c ce cc 9b bc
       0.036473013 0.018679738 0.008658964 -0.019018557
0001f0 01 93 8e bc be 29 04 bc 1b b7 cb 3b 87 77 29 3c
       -0.017404081 -0.008066593 0.006216896 0.010343439
000200 b3 47 1b 3c b2 af 5c bb 42 59 1c bc 28 d0 5a 3b
       0.009477544 -0.0033674059 -0.009542765 0.003338823
000210 6f 52 48 3c 5f 84 da bc f4 03 e6 bc d9 41 2f 3a
       0.012226685 -0.026674448 -0.028078057 0.0006685532
000220 d5 6c b8 3c ae 87 ac bc d5 88 42 bc e4 0a dc 3c
       0.022512833 -0.02106079 -0.011873444 0.026860662
000230 fe 6f af bc 1b 33 4b bc 9a 9a 0f bd 7a 52 ca 3c
       -0.021415707 -0.012402321 -0.03505955 0.024697531
000240 26 fa af bc 3a ce 11 3d e7 3f c2 3c f0 e1 f3 bc
       -0.021481585 0.035597064 0.023712112 -0.029770821
000250 6d 81 5d bb 96 8d bc bc 12 af 9b bc c2 56 8f 3c
       -0.0033799068 -0.023016732 -0.019004378 0.017497424
000260 78 fd ff 3c f9 5d 8f 3c a5 b9 9b bc cd ae b5 3c
       0.031248793 0.017500864 -0.01900942 0.022178078
000270 ca f7 71 bc bd 27 d1 bc 41 b0 87 3b af 73 1c bc
       -0.01476855 -0.025531644 0.004140884 -0.0095490655
000280 36 80 10 bc 9c c0 dd 3c d8 eb 81 3c b4 27 92 3c
       -0.00881963 0.027069382 0.01585953 0.017841198
000290 41 ba e0 bc 87 dc bc 3c f5 25 a9 bc 8d 34 cf bc
       -0.027432563 0.023054374 -0.020647982 -0.025293613
0002a0 dc db 1b bd a1 00 b4 bc 36 b5 31 bc 42 c7 e5 3c
       -0.03805147 -0.021972956 -0.010846427 0.028049115
0002b0 24 78 23 ba 10 90 b5 bc 1c 74 5e bc 9a e5 bc bc
       -0.0006235859 -0.02216342 -0.013577487 -0.023058701
0002c0 18 c2 88 bc db 6f 85 3c 70 a9 53 bb 99 8d 20 3c
       -0.016694114 0.016288688 -0.0032297038 0.0097993845
0002d0 4d b9 b0 bc d7 51 6e bb 26 e4 ca 39 5e bd 0a bd
       -0.021572733 -0.0036364698 0.00038698426 -0.033872
0002e0 2d 60 18 bd c6 88 a3 3c 66 c6 e6 bb 92 0c 54 bc
       -0.037201095 0.01996268 -0.007042694 -0.01294245
0002f0 55 2e 88 3c 01 e9 8b 3c c5 b4 78 3c 16 8a 5c 3c
       0.016623655 0.017078878 0.015179818 0.013460657
000300 8c b8 93 3c 25 ab a4 3c 89 c2 fb bc c3 44 f0 bc
       0.018032335 0.02010114 -0.03073241 -0.029329663
000310 2b 43 02 3c 5a 06 a5 3c 83 73 51 3b 57 b5 68 3c
       0.007950584 0.02014463 0.003195972 0.014203391
000320 35 86 b3 3c a8 06 d6 3c b9 b9 13 3d 27 91 55 3c
       0.02191458 0.02612622 0.03606579 0.013035095
000330 05 53 75 3c 28 81 2d bc 8f ee 37 3d 2b 5e 88 bc
       0.014973407 -0.010589875 0.04490524 -0.016646465
000340 ee 55 ff 3c a3 77 64 3c ab 5d 9e bc ae 45 c1 3c
       0.031168904 0.013944539 -0.019331774 0.023592796
000350 6a dd 99 ba 2e 47 24 bd eb c2 96 3c 78 fc e7 bc
       -0.001173896 -0.040106945 0.018403491 -0.028318629
000360 f7 b9 0e bb 3c 8b f1 bc d7 9e 9c 3c 64 f9 c0 3c
       -0.0021778324 -0.029485337 0.01911871 0.023556419
000370 1b b2 8b bc e1 2d d8 3c 9e cd 48 bc 14 34 dc 3c
       -0.0170527 0.026389064 -0.012256054 0.026880302
000380 b5 16 21 3d 85 f1 ec bc b8 ca 9e 3c b8 d6 d6 bc
       0.039328296 -0.02892376 0.019383773 -0.026225433
000390 f2 82 d7 bc 2f ba 14 bc 56 97 1a bb 65 e3 ad 3b
       -0.026307557 -0.009077593 -0.0023588738 0.0053066486
0003a0 46 cd 3a bc d7 0c 05 bd 6c 0e bb bc f2 95 81 3c
       -0.01140148 -0.03248295 -0.022834025 0.01581857
0003b0 c0 ae 65 3c 14 32 e5 3c 7e 40 c0 3c 86 2e fe bb
       0.014018714 0.02797798 0.023468252 -0.007757011
0003c0 47 af 89 bc 74 1d 90 bc ae 4f b1 bc 59 57 97 3c
       -0.016807212 -0.01759217 -0.02164444 0.018474268
0003d0 08 14 b9 3c 19 c4 0f 3d e8 1e 77 3a 19 61 16 3b
       0.02259256 0.035099123 0.00094269076 0.0022946058
0003e0 39 dc 8c 3c d3 18 87 3c 02 aa 76 3c c4 1f 7a bb
       0.017194854 0.01649133 0.015055181 -0.0038165906
0003f0 b5 70 e6 bc 6e 2b ad 3c 20 37 eb 3c 86 41 54 3b
       -0.028129915 0.021138873 0.02871281 0.0032387688

bias f4 [128]
000000 54 97 03 bc f1 11 04 bc 91 f7 e2 bc 4c 6c 28 3b
       -0.008031685 -0.008060918 -0.02770594 0.0025699316
000010 5d f6 49 bb 8c 90 cf bc ed 0c ea bc 3a 36 b4 3c
       -0.003081701 -0.02533748 -0.028570617 0.021998513
000020 b0 18 c8 bc ec 26 59 bb 28 10 47 3c ec e5 58 3b
       -0.024425834 -0.0033134772 0.012149848 0.0033096028
000030 b0 ba 61 bc a2 ee b1 bc 2f 91 0f bd 46 9a 32 3b
       -0.01377742 -0.021720234 -0.035050567 0.0027252599
000040 c3 b5 09 3c d5 e3 f1 bc 3e 1f fe 3b b4 cd 33 bc
       0.008405152 -0.029527584 0.007755189 -0.010974336
000050 e9 07 07 bd 42 3a 1e bb d8 36 dc bc 9c 6f 69 3c
       -0.032966528 -0.002414361 -0.02688162 0.014247801
000060 81 ee bd bc 37 81 8b bc 90 28 ca ba 44 e1 eb 3c
       -0.023185017 -0.017029388 -0.0015423466 0.028793938
000070 7a 71 95 bc 83 d0 ae bc 7a 94 da bc 68 d5 ab bc
       -0.018242586 -0.02133966 -0.026682127 -0.020975783
000080 93 a7 f0 bc 82 b3 ac bc d8 7e 19 b8 63 37 21 3c
       -0.02937678 -0.02108169 -3.6596175e-05 0.009839865
000090 28 ff bf 3c 95 02 c4 3c e8 cb c3 bc 82 ec 48 bc
       0.023437098 0.023927012 -0.023900941 -0.012263419
0000a0 a0 0c 03 3d ff 13 f0 3c a8 0b cb 3c a3 20 db 3b
       0.031994462 0.02930641 0.024785832 0.00668724
0000b0 01 7b d7 3c e2 48 dc 3c 54 fd 04 bd 0c 8b 0f bd
       0.02630377 0.026890222 -0.032468155 -0.035044715
0000c0 ad 0d d9 bc c2 a6 cc 3c 4e 45 78 bb 03 4a 18 bd
       -0.026495779 0.02498186 -0.0037883106 -0.037179958
0000d0 ec 1a 0f bb e0 f9 46 3c 04 70 c8 bc 7d 5d 16 bb
       -0.0021836115 0.012144536 -0.024467476 -0.0022943907
0000e0 6e 4f 95 3c 54 0c 04 bd cc e1 54 3c 69 2e 9e 3b
       0.018226352 -0.03223832 0.012993287 0.00482731
0000f0 c6 a1 02 3d a6 1b 46 bb bb 31 e0 3c 8f 73 de ba
       0.03189256 -0.0030228882 0.027367463 -0.0016971695
000100 89 69 a7 3c b5 36 33 bc b9 cd 87 bc 86 e7 99 bc
       0.020436065 -0.010938336 -0.016577588 -0.018787157
000110 d0 8d 6a ba a3 8b 95 bc 02 fa c3 bc 51 64 b0 3b
       -0.00089475233 -0.01825506 -0.023922924 0.0053830524
000120 7e c8 ec 3c 0e d6 2f ba 05 3a ae 3c 37 ed a5 bc
       0.028904196 -0.0006707617 0.0212679 -0.020254714
000130 27 02 43 3c 62 6a cc bc 3c 1e ad bb 9b f1 99 3c
       0.011902369 -0.024953071 -0.0052831452 0.018791964
000140 b3 b7 de 3c a6 ea c2 3c 11 f6 25 39 7f 5d fa 3b
       0.027187204 0.02379353 0.00015827293 0.00764054
000150 f6 f1 f5 3c bb 36 15 3c 6c 05 a5 38 3c 82 18 3c
       0.030022603 0.009107287 7.868823e-05 0.009308394
000160 95 68 9e bc b9 31 51 3c 61 be 51 3c c3 3a 10 3c
       -0.019336978 0.012768202 0.0128017375 0.008803072
000170 3a 0c eb ba 3c 65 98 3c 9a ec 8b ba b6 28 c2 bb
       -0.0017932721 0.01860296 -0.0010675371 -0.0059252633
000180 8b 4d 16 bd e4 22 0e bd cb 8d 12 3c 5b 5f 02 bc
       -0.036695044 -0.034701243 0.008944939 -0.007957305
000190 6e c8 da bb 04 d2 ab 3c 50 b6 89 3b e7 ff a3 bc
       -0.006676725 0.020974167 0.0042026415 -0.020019485
0001a0 3e 36 d8 3c ca 64 a5 bc 18 d3 ae 3c ac 20 00 bd
       0.026393052 -0.020189662 0.021340892 -0.03128116
0001b0 bc be b8 3c 61 09 ec 3c 7e 45 8d bc 2e cc 41 bb
       0.022551887 0.028813066 -0.01724505 -0.0029571163
0001c0 af 37 dc bc 43 75 27 bb 57 0d 0a 3d 03 1b e3 3c
       -0.02688202 -0.0025552071 0.033704128 0.027722841
0001d0 1d 01 09 bd de bb 5f 3b e5 cd 46 3b 99 b7 ce 3b
       -0.033448327 0.0034139077 0.0030335125 0.0063085076
0001e0 59 d5 8d 39 b4 20 80 3c c7 9c 55 bc 74 14 04 bd
       0.00027052572 0.015640594 -0.013037867 -0.032246068
0001f0 12 c3 fa bc ed 26 14 3d e3 81 87 bc 86 c5 cc 3b
       -0.030610595 0.036169935 -0.016541427 0.0062491326
