promptPGpot/checkpoints/exp1/ckpt_14.pt (torch, 394727 bytes, 2 tensors)

weight f4 [128, 768]
-0.018072627 -0.008072429 0.035265725 -0.0015630596 -0.0005217918 0.023120832 -0.004359353 -0.020295108
-0.023426797 0.025010994 0.012087432 0.023306629 0.029946512 0.026492644 0.014815387 -0.030892031
0.013909795 -0.014904818 -0.013337213 -0.0421841 -0.036932383 -0.021507457 -0.010863332 0.016622802
-0.00041806576 0.0049522803 0.021485686 0.026974045 0.022096494 0.008204557 -0.022702115 -0.026197871
0.02029284 -0.028612077 0.0011305215 0.012951094 0.00974629 0.025829956 -0.0120707415 -0.01489523
0.023642102 0.0147473365 -0.004562212 0.009059967 -0.014073422 -0.0009268818 0.03372635 -0.031400967
-0.0113333445 -0.038883507 -0.04105104 -0.030241221 0.034784034 0.029936496 0.006877211 0.026591266
-0.026767768 0.038016245 -0.030297097 -0.015442811 0.038359325 -0.023289721 -0.0018135454 0.007780872
0.0110929245 0.005472456 -0.0042722323 0.039822683 -0.026645392 0.00800652 -0.016839458 -0.018352449
0.032362606 0.005725785 -0.0026601555 -0.030124685 0.0133624 -0.020632874 0.0082243215 0.0023980783
-0.03619889 0.018305523 -0.01032903 -0.02171376 0.033344697 0.028070303 0.009399169 0.0049391584
-0.025764914 0.0072475458 0.02511138 -0.005220927 0.025085453 0.01817736 -0.030538855 0.014403351
-0.0013517418 0.033084128 0.028090002 -0.004801196 -0.033151813 -0.014918646 0.0346246 -0.005572311
-0.0016052044 -0.021178039 0.025721807 -0.00027942483 -0.01075106 -0.0025345809 0.00948198 -0.022810431
-0.012262008 -0.022246834 -0.028901137 -0.0026343632 -0.02249359 0.021440418 -0.017424032 0.0047489447
0.037154052 0.019496866 0.008793166 -0.02026376 -0.015005052 -0.009461226 0.007427963 0.010385222
0.009038629 -0.0028756538 -0.008778732 0.0028825211 0.010879226 -0.02660829 -0.02910061 0.0010719313
0.020699533 -0.021713361 -0.012498567 0.024939485 -0.020544864 -0.011664405 -0.03561405 0.021128938
-0.022064872 0.037342288 0.025150528 -0.029444015 -0.0028341033 -0.02194203 -0.01470657 0.018643504
0.03194844 0.019308683 -0.016996149 0.024122205 -0.016023798 -0.024641208 0.0036223978 -0.0105285635
-0.007260797 0.028728258 0.013932764 0.017697368 -0.026919793 0.023347009 -0.019534048 -0.02531679
-0.038633827 -0.023614898 -0.010942244 0.028392708 -0.00040931284 -0.019624466 -0.014097656 -0.021805264
-0.01593277 0.018520547 -0.0028042395 0.010449741 -0.02078802 -0.0030222284 0.0021933063 -0.034964975
-0.035361532 0.020638738 -0.004703799 -0.0121447975 0.01809966 0.017748294 0.015621888 0.013245601
0.018657409 0.019643577 -0.032519694 -0.02897849 0.005513705 0.019262716 0.002980067 0.013076184
0.0200657 0.025677336 0.034664314 0.011751246 0.015562643 -0.01011035 0.04282996 -0.018486667
0.03066081 0.013997863 -0.018325314 0.023688192 -0.0025583466 -0.03818509 0.018806713 -0.028131867
-0.0011120178 -0.029745447 0.018838035 0.021739334 -0.017660014 0.028907254 -0.010677952 0.027922854
0.038229674 -0.028300162 0.02010602 -0.02568385 -0.026322506 -0.009464438 -0.0032724491 0.0068429774
-0.011917981 -0.0330137 -0.021320261 0.016512075 0.016431494 0.028202824 0.02396983 -0.0057467273
-0.016576597 -0.01825215 -0.021305457 0.018545698 0.021905849 0.03422752 0.00067007204 0.0025851107
0.017346347 0.01698428 0.012714984 -0.0013950143 -0.028196696 0.021557804 0.02929582 0.004105995
00000000: 0c0d 94bc 3942 04bc cb72 103d 94df ccba
00000010: dbc8 08ba e667 bd3c e7d8 8ebb ed41 a6bc
00000020: 8ee9 bfbc dbe3 cc3c 5d0a 463c 8bed be3c
00000030: 6352 f53c 1a07 d93c 3dbc 723c 4911 fdbc
00000040: e9e5 633c 5633 74bc 5384 5abc 3cc9 2cbd
00000050: 6946 17bd 6830 b0bc 1efc 31bc 8b2c 883c
00000060: d62f dbb9 bd46 a23b c002 b03c acf8 dc3c
00000070: b503 b53c 686c 063c c9f9 b9bc eb9c d6bc
00000080: 2c3d a63c e063 eabc 022e 943a d330 543c
00000090: e7ae 1f3c 5899 d33c 5cc4 45bc 1f0b 74bc
000000a0: 15ad c13c d09e 713c 9c7e 95bb 4170 143c
000000b0: 3694 66bc fcf9 72ba a424 0a3d 4d9e 00bd
000000c0: 7eaf 39bc 5044 1fbd 2325 28bd 70bc f7bc
000000d0: b479 0e3d 623d f53c 3a5a e13b edd5 d93c
000000e0: 1448 dbbc ecb6 1b3d 9e31 f8bc d803 7dbc
000000f0: ab1e 1d3d 16ca bebc 7cb4 edba aff6 fe3b
00000100: 19bf 353c 4a52 b33b 15fe 8bbb 1c1d 233d
00000110: 7047 dabc c72d 033c e7f2 89bc e057 96bc
00000120: a78e 043d 5e9f bb3b 0156 2ebb 0bc8 f6bc
00000130: f8ed 5a3c 4606 a9bc 4ebf 063c 1429 1d3b
00000140: 4a45 14bd 77f5 953c 183b 29bc 0ee1 b1bc
00000150: 7394 083d b1f3 e53c f9fe 193c aad8 a13b
00000160: f110 d3bc d27c ed3b 61b6 cd3c 4f14 abbb
00000170: 0280 cd3c b0e8 943c 9f2c fabc 08fc 6b3c
00000180: ee2c b1ba 3983 073d 011d e63c 5a53 9dbb
00000190: 32ca 07bd 566d 74bc 86d2 0d3d ef97 b6bb
000001a0: b965 d2ba 917d adbc 8ab6 d23c c47f 92b9
000001b0: 3725 30bc 361b 26bb 4f5a 1b3c f1dc babc
000001c0: 97e6 48bc fe3e b6bc 14c2 ecbc 48a5 2cbb
000001d0: 7a44 b8bc d1a3 af3c d8bc 8ebc 099d 9b3b
000001e0: d92e 183d e4b7 9f3c 3611 103c 2f00 a6bc
000001f0: c0d7 75bc 4203 1bbc 4566 f33b c726 2a3c
00000200: c216 143c 7775 3cbb acd4 0fbc aee8 3c3b
00000210: c83e 323c a1f9 d9bc 6764 eebc 0c80 8c3a
00000220: 1192 a93c 38e0 b1bc cac6 4cbc e44d cc3c
00000230: b44d a8bc 101c 3fbc 0ae0 11bd 9816 ad3c
00000240: 64c1 b4bc 3af4 183d 7b08 ce3c 9334 f1bc
00000250: 5dbc 39bb c6bf b3bc d3f3 70bc 43ba 983c
00000260: 5edc 023d 3e2d 9e3c 823b 8bbc ee9b c53c
00000270: 5744 83bc 5cdc c9bc c065 6d3b ff7f 2cbc
00000280: fbeb edbb 8657 eb3c 3f46 643c 12fa 903c
00000290: e686 dcbc 3a42 bf3c de05 a0bc 2865 cfbc
000002a0: 813e 1ebd 0874 c1bc 1947 33bc d397 e83c
000002b0: 0a99 d6b9 7dc3 a0bc dbf9 66bc f4a0 b2bc
000002c0: 7185 82bc 67b8 973c 55c7 37bb 6435 2b3c
000002d0: a34b aabc 9410 46bb 93bd 0f3b 6f37 0fbd
000002e0: 41d7 10bd 9212 a93c 5322 9abb f9fa 46bc
000002f0: bd45 943c df64 913c f3f2 7f3c 1404 593c
00000300: 6cd7 983c 91eb a03c 5f33 05bd 4c64 edbc
00000310: 4fac b43b d8cc 9d3c 3a4d 433b 7e3d 563c
00000320: d360 a43c 4759 d23c 2bfc 0d3d 4c88 403c
00000330: 75fa 7e3c e2a5 25bc 786e 2f3d 5a71 97bc
00000340: 612c fb3c 4b57 653c f81e 96bc bd0d c23c
00000350: efa9 27bb f867 1cbd 8910 9a3c cd74 e6bc
00000360: 20c1 91ba b9ac f3bc 3952 9a3c b016 b23c
00000370: bcab 90bc e8ce ec3c 94f2 2ebc 78be e43c
00000380: b896 1c3d bed5 e7bc 61b5 a43c f066 d2bc
00000390: 4ca2 d7bc bb10 1bbc 9676 56bb 0e3b e03b
000003a0: a343 43bc 6039 07bd d4a7 aebc 5544 873c
000003b0: 579b 863c 9c09 e73c 605c c43c 0b4f bcbb
000003c0: a5cb 87bc 8885 95bc c888 aebc 26ed 973c
000003d0: e573 b33c 2832 0c3d c6a7 2f3a f66a 293b
000003e0: ed19 8e3c 9e22 8b3c 8252 503c ead8 b6ba
000003f0: c2fc e6bc fe99 b03c cafd ef3c 958b 863b

bias f4 [128]
-0.0077745738 -0.0076529817 -0.029279014 0.0031100353 -0.0010643069 -0.027019486 -0.027117822 0.020540392
-0.026804104 -0.003151516 0.013952406 0.0031168864 -0.014273838 -0.0221691 -0.0329197 0.0044281473
0.0075372458 -0.031069344 0.006364192 -0.010514036 -0.03148043 -0.0032127968 -0.025027506 0.014954195
-0.023887023 -0.018298168 0.0015891737 0.028144836 -0.016735854 -0.02273814 -0.02884214 -0.02120895
-0.02898262 -0.019439785 0.00011760653 0.0077813794 0.025190786 0.022330804 -0.023807157 -0.0139345955
0.031906385 0.02757994 0.023314387 0.003906679 0.029257078 0.028756395 -0.031121198 -0.03536748
-0.027353814 0.028819265 -0.0019795028 -0.03619302 -0.0026971123 0.010393178 -0.02282237 -0.0020987734
0.017470632 -0.030699454 0.01475818 0.0043037008 0.031808246 -0.0023886194 0.028930165 -0.0043113893
0.019722937 -0.01264662 -0.0143794 -0.017572224 -0.0026109663 -0.01905644 -0.02187804 0.0068478533
0.028389953 -0.0022093246 0.022147482 -0.022268225 0.01345806 -0.024016256 -0.006798948 0.018143779
0.02631383 0.02393333 0.0025607143 0.009632607 0.02847096 0.007412963 -0.0010299591 0.0069350717
-0.017864501 0.012116479 0.014335176 0.009010012 -0.0027256198 0.02062728 -0.000949547 -0.0064394055
-0.037907276 -0.035553936 0.009584764 -0.0068189274 -0.007987097 0.02088013 0.00085678673 -0.017934294
0.027313236 -0.018395156 0.020510077 -0.030666549 0.023651678 0.029142438 -0.019681262 -0.004502356
-0.025917893 -0.0030115817 0.03225694 0.02667942 -0.032013252 0.0026788386 0.0015203878 0.00437236
-0.0017224725 0.014263644 -0.014407866 -0.03046937 -0.029829659 0.03404741 -0.016634641 0.007568068
00000000: dac1 febb ddc5 fabb 8bda efbc bcd1 4b3b
00000010: 3780 8bba f857 ddbc 3226 debc 5344 a83c
00000020: 4894 dbbc aa89 4ebb a298 643c ad44 4c3b
00000030: d1dc 69bc f99b b5bc cfd6 06bd fe19 913b
00000040: 00fb f63b 2385 febc b68a d03b 1043 2cbc
00000050: a0f1 00bd c98d 52bb 7c06 cdbc 7102 753c
00000060: b8ae c3bc 0ae6 95bc d24b d03a 0090 e63c
00000070: a119 89bc 5645 babc 5a46 ecbc 64be adbc
00000080: f66c edbc 2f40 9fbc 86a3 f638 f1fa fe3b
00000090: e85c ce3c 17ef b63c 3a07 c3bc ee4d 64bc
000000a0: 45b0 023d 54ef e13c d0fd be3c 9903 803b
000000b0: 8aac ef3c 8892 eb3c e2f1 febc 7edd 10bd
000000c0: 1b15 e0bc 6116 ec3c 8cba 01bb 223f 14bd
000000d0: 09c2 30bb 2648 2a3c fbf5 babc 938b 09bb
000000e0: 921e 8f3c 6c7d fbbc 4bcc 713c 0f06 8d3b
000000f0: 5d49 023d 628a 1cbb f4fe ec3c 8e46 8dbb
00000100: ff91 a13c c533 4fbc 9397 6bbc a0f3 8fbc
00000110: bf1c 2bbb 401c 9cbc 9339 b3bc f563 e03b
00000120: 0c92 e83c 51ca 10bb a36e b53c da6b b6bc
00000130: 327f 5c3c bdbd c4bc b6c9 debb 43a2 943c
00000140: 1a90 d73c d50f c43c a8d1 273b 15d2 1d3c
00000150: ee3b e93c 71e8 f23b b1ff 86ba 993f e33b
00000160: 9358 92bc 3284 463c 16de 6a3c bb9e 133c
00000170: 50a0 32bb 8bfa a83c 05eb 78ba a601 d3bb
00000180: a944 1bbd 01a1 11bd 6a09 1d3c 4f71 dfbb
00000190: 50dc 02bc ce0c ab3c fc99 603a f1ea 92bc
000001a0: 02c0 df3c 70b1 96bc c004 a83c 6a38 fbbc
000001b0: 2ac1 c13c 1fbc ee3c 993a a1bc 8088 93bb
000001c0: c351 d4bc f55d 45bb da1f 043d cd8e da3c
000001d0: 5420 03bd 748f 2f3b c047 c73a 0446 8f3b
000001e0: 96c4 e1ba 0fb2 693c f80e 6cbc e69a f9bc
000001f0: 545d f4bc 4c75 0b3d 5f45 88bc 8efd f73b
