promptPGpot/checkpoints/exp1/ckpt_20.pt (torch, 394727 bytes, 2 tensors)

weight f4 [128, 768]
0	0xbca282cc	-0.01983776
1	0xbc24a337	-0.010048679
2	0x3d09fa20	0.033685803
3	0xbbfbbfff	-0.0076828
4	0xbb866005	-0.004100802
5	0x3c9f1e2b	0.019423565
6	0xbb8ec9e8	-0.004357565
7	0xbccfacbb	-0.025350919
8	0xbc8ab081	-0.016929867
9	0x3c940622	0.01806933
10	0x3b1ddc48	0.0024087597
11	0x3c9603a0	0.018312275
12	0x3cdd0bb2	0.026983116
13	0x3ced6e2c	0.028983198
14	0x3c842015	0.01612858
15	0xbd092ac6	-0.033488058
16	0x3c0aad12	0.008464115
17	0xbca5024a	-0.020142693
18	0xbc810103	-0.015747553
19	0xbd4d2e22	-0.050092824
20	0xbd02e305	-0.031954784
21	0xbcd91c84	-0.026502855
22	0xbbd699b3	-0.006549084
23	0x3ba85901	0.005137563
24	0x3c06b0dd	0.008220878
25	0xbc205e4f	-0.00978811
26	0x3cc1ec7a	0.023672331
27	0x3cfab79e	0.030605134
28	0x3ce43092	0.027855191
29	0x3ad84dbd	0.001650266
30	0xbcc67134	-0.024223901
31	0xbd15483e	-0.03644585
32	0x3c9d1684	0.019175775
33	0xbcd2a82e	-0.02571496
34	0xbba1227d	-0.0049174414
35	0x3ca4eca8	0.020132378
36	0x3c9deb83	0.01927734
37	0x3d0f4e35	0.034986693
38	0xbb5a59a9	-0.0033317602
39	0xbbded096	-0.0067997677
40	0x3c9c9b5b	0.019117048
41	0x3c7729f7	0.015085689
42	0x3a2b7b8c	0.0006541542
43	0x3bf06282	0.007335962
44	0xbc21b989	-0.009870895
45	0x3c93f4ad	0.018061006
46	0x3cf74680	0.030184984
47	0xbd2cd4bd	-0.04219507
48	0xbbb60223	-0.005554454
49	0xbd314e65	-0.043287653
50	0xbd34beae	-0.04412716
51	0xbcffc873	-0.031223511
52	0x3d452e2b	0.048139732
53	0x3d052980	0.03251028
54	0x3c1a0ffb	0.009403224
55	0x3ccb7bee	0.024839368
56	0xbcdd1f85	-0.026992569
57	0x3d47f6e3	0.048819434
58	0xbd26e101	-0.040741924
59	0xbc6e49ad	-0.014543933
60	0x3d2deca9	0.042462025
61	0xbcb3ccf1	-0.02194831
62	0xbb6b6cb9	-0.0035922958
63	0x3c89d278	0.016823992
64	0x3ca10462	0.01965541
65	0x3bce80a6	0.006301957
66	0xbca99a59	-0.020703482
67	0x3d095b1a	0.033534147
68	0xbd083007	-0.033248927
69	0x3c53c5a5	0.01292554
70	0xbcb217d7	-0.021739883
71	0xbc4f220a	-0.012642393
72	0x3d27abd3	0.04093535
73	0x3c850c2f	0.016241161
74	0xbc6814d9	-0.014165127
75	0xbd06182d	-0.0327379
76	0x3c6c4ed9	0.014423096
77	0xbc87e56d	-0.01658889
78	0x3b9f6578	0.004864391
79	0x3ac16d93	0.0014757387
80	0xbcf3b479	-0.029749142
81	0x3ca60957	0.020268125
82	0xbc510f24	-0.012759957
83	0xbce86a1a	-0.028370906
84	0x3d0f9b62	0.035060294
85	0x3d151f4d	0.036406804
86	0x3c58b6c0	0.013227165
87	0x3c301cd1	0.010749058
88	0xbcf9bc8e	-0.030485418
89	0x3b995288	0.004679028
90	0x3ce10d25	0.027472088
91	0xbc5c2924	-0.013437543
92	0x3ccd6cc9	0.025076287
93	0x3ce02508	0.027361408
94	0xbca12cf1	-0.01967475
95	0x3cb75b5d	0.022382433
96	0x3b95a74f	0.004567064
97	0x3cfb56cd	0.030681038
98	0x3ca2eaea	0.019887406
99	0xbc28dea6	-0.01030699
100	0xbd277bfe	-0.040889733
101	0xbc777aae	-0.015104933
102	0x3d19cc75	0.0375485
103	0xbbfcfb46	-0.007720384
104	0xbbda01b0	-0.006653033
105	0xbcf6b094	-0.030113496
106	0x3cdbb265	0.026818464
107	0xbaa7f0a1	-0.0012812802
108	0xbc7858a6	-0.015157854
109	0xbbc79b93	-0.006091544
110	0x3c04fe4c	0.00811727
111	0xbc8484f0	-0.01617667
112	0xbb8c5c02	-0.004283429
113	0xbce49539	-0.027903186
114	0xbce28a64	-0.02765388
115	0xbaeaefda	-0.0017924265
116	0xbc3bd800	-0.011465073
117	0x3cecef2a	0.028922636
118	0xbc155ef0	-0.009116873
119	0x3bbd96e9	0.005785812
120	0x3d0a481b	0.03376017
121	0x3cd79096	0.026314061
122	0x3c38c485	0.011277323
123	0xbc9df440	-0.019281507
124	0xbcd56d22	-0.026053015
125	0xbb1ff757	-0.00244089
126	0x3ba9b15a	0.0051786127
127	0x3c850f48	0.016242638
128	0x3c0ab3ac	0.008465689
129	0xbc2427c5	-0.010019247
130	0xbc77021b	-0.015076186
131	0x3c324544	0.010880772
132	0x3c544ade	0.012957303
133	0xbcef9823	-0.02924735
134	0xbd074071	-0.03302044
135	0xbb179954	-0.0023132162
136	0x3cd40b06	0.025884163
137	0xbcbf09ea	-0.023320157
138	0xbbb083b1	-0.0053867926
139	0x3d18cf91	0.037307326
140	0xbcaff14c	-0.021477364
141	0xbc64c577	-0.013963095
142	0xbd17da59	-0.037073467
143	0x3cc2d1f9	0.023781763
144	0xbc8da1da	-0.01728909
145	0x3d4505a8	0.048101097
146	0x3c9899da	0.01862805
147	0xbd17623f	-0.03695893
148	0xbb9a43ba	-0.0047077807
149	0xbcd6e03c	-0.02622997
150	0xbcdc2e0b	-0.026877424
151	0x3c92778b	0.017879268
152	0x3ccb95ca	0.024851698
153	0x3c7a4b43	0.015276733
154	0xbcf0ea3c	-0.029408567
155	0x3c766362	0.015038343
156	0xbc6f11ca	-0.014591644
157	0xbce40318	-0.027833506
158	0x3b13c968	0.0022550467
159	0xbc04c2a0	-0.008103043
160	0xbc345bd4	-0.011008222
161	0x3cdf31ed	0.027245486
162	0x3ca99ce8	0.020704702
163	0x3ccca6a6	0.024981808
164	0xbcb87764	-0.022517867
165	0x3c09e988	0.008417495
166	0xbc2787a2	-0.0102252085
167	0xbcd44747	-0.025912894
168	0xbd340cdd	-0.04395758
169	0xbd027625	-0.031850953
170	0xbaac3a04	-0.0013139849
171	0x3ccf039f	0.025270281
172	0xbc06dded	-0.008231622
173	0xbccd491e	-0.025059279
174	0xbc49d14b	-0.012317966
175	0xbcd3edcb	-0.025870224
176	0xbca55549	-0.020182269
177	0x3c3bd612	0.011464613
178	0x39c2ab9c	0.00037130422
179	0x3c7b524a	0.015339443
180	0xbca3f7b6	-0.020015579
181	0xbad59e19	-0.0016297727
182	0xbbdcfb68	-0.006743837
183	0xbcfa0eb7	-0.030524595
184	0xbd0e6d8e	-0.03477245
185	0x3c5416f1	0.012944923
186	0xbc076fed	-0.008266431
187	0xbc7ac107	-0.01530481
188	0x3c1abfcc	0.009445142
189	0x3cb9fd51	0.022703798
190	0x3c8c0b5f	0.017095266
191	0x3bc3edc4	0.0059792716
192	0x3c6e064a	0.014527867
193	0x3ce1175b	0.027476957
194	0xbcf70265	-0.030152509
195	0xbd016b89	-0.031596694
196	0x3c4c41d5	0.012466867
197	0x3ca2a973	0.01985619
198	0x3b534f8b	0.0032243456
199	0x3cc0146d	0.02344724
200	0x3cdc8a1e	0.026921328
201	0x3c817233	0.015801525
202	0x3d24ef3b	0.04026721
203	0x3ba64dbe	0.0050751856
204	0x3c81aea6	0.01583035
205	0xbbfd8910	-0.0077372864
206	0x3d40eef9	0.047102902
207	0xbc04956b	-0.008092265
208	0x3d0b47e2	0.0340041
209	0x3c7aa036	0.015296986
210	0xbcbccfd3	-0.023048317
211	0x3cdfca48	0.027318135
212	0x3c56d268	0.013111688
213	0xbd374e56	-0.04475244
214	0x3cc4d636	0.024027925
215	0xbce5a87f	-0.028034447
216	0xb99d6eb3	-0.0003002785
217	0xbce38ff3	-0.027778601
218	0x3c888de7	0.016669227
219	0x3ca496fd	0.020091528
220	0xbc45e340	-0.012078106
221	0x3cef2be2	0.02919573
222	0xbc8415b1	-0.016123625
223	0x3d00a464	0.031406775
224	0x3d14d832	0.036338992
225	0xbd0fc51b	-0.035100084
226	0x3cd7ece7	0.026358081
227	0xbd07e90c	-0.033181235
228	0xbccc0096	-0.024902623
229	0xbc4f346e	-0.012646778
230	0xbabe4fbd	-0.0014519613
231	0x3b8df121	0.0043317233
232	0xbca10d22	-0.019659583
233	0xbce63ee3	-0.028106159
234	0xbc8ae628	-0.01695545
235	0x3c94a840	0.018146634
236	0x3c25dc55	0.010123332
237	0x3cc54c02	0.024084095
238	0x3ca86d03	0.020559793
239	0xbc0f5469	-0.008748152
240	0xbc162dff	-0.00916624
241	0xbc84a101	-0.016190054
242	0xbcf13747	-0.029445304
243	0x3cc7060a	0.024294872
244	0x3ce58130	0.028015703
245	0x3d26f4f1	0.040760938
246	0x3c274195	0.010208507
247	0xba846efe	-0.0010103879
248	0x3c57e446	0.013176983
249	0x3c18cbb1	0.009325908
250	0x3cc8ff2a	0.024535734
251	0xbc2ba079	-0.010475271
252	0xbcbde210	-0.023179084
253	0x3c9f06e9	0.019412475
254	0x3cb00d62	0.021490756
255	0xbb8e2a1e	-0.004338517

bias f4 [128]
0	0xbb9c6b32	-0.004773521
1	0xbba07ef5	-0.004897947
2	0xbcefe895	-0.029285708
3	0x3b4d43a8	0.0031320844
4	0x3b023bf6	0.0019872165
5	0xbcc8ea9b	-0.024525931
6	0xbcd73ae9	-0.026273208
7	0x3cbcdcd4	0.023054518
8	0xbcd31e72	-0.025771353
9	0xbaa035c9	-0.001222306
10	0x3c81965b	0.015818765
11	0x3adee4e1	0.0017005467
12	0xbc97f361	-0.01854867
13	0xbcbe967b	-0.023265114
14	0xbd160482	-0.036625393
15	0x3ad10d2a	0.0015949358
16	0x3bd096c5	0.0063656294
17	0xbcebb89c	-0.028774552
18	0x3b99aba1	0.004689649
19	0xbc2e8b06	-0.010653263
20	0xbce0817b	-0.027405491
21	0xbaf81e88	-0.0018929997
22	0xbcc6ab1d	-0.024251515
23	0x3c84cdc4	0.016211398
24	0xbccce563	-0.025011724
25	0xbc84bd21	-0.016203465
26	0x3a584d26	0.0008251242
27	0x3cbf2d12	0.02333692
28	0xbc70b7ea	-0.014692286
29	0xbca4fac1	-0.0201391
30	0xbceb3ff2	-0.028717015
31	0xbc80dcf1	-0.015730353
32	0xbce5ed6d	-0.028067315
33	0xbca57f27	-0.020202233
34	0xbb87ba4e	-0.0041420823
35	0x3c232f90	0.00996007
36	0x3cd5aa62	0.026082221
37	0x3cab0fc0	0.020881534
38	0xbcb33983	-0.02187801
39	0xbc84bdf9	-0.016203867
40	0x3cef0b5b	0.02918022
41	0x3ce926fc	0.028460972
42	0x3cbc2905	0.022968778
43	0x3bd237c5	0.0064153397
44	0x3d0900cd	0.03344803
45	0x3cde78f0	0.027157277
46	0xbcfff2e0	-0.031243742
47	0xbd0c894e	-0.03431063
48	0xbcc1ab1e	-0.023641165
49	0x3cf12a52	0.029439125
50	0x393c5454	0.00017960492
51	0xbd193325	-0.03740229
52	0xba5767a6	-0.0008217044
53	0x3c365eab	0.011130969
54	0xbcb1e28a	-0.021714468
55	0xb9767e26	-0.00023507382
56	0x3c800800	0.015628815
57	0xbcfddee2	-0.030990068
58	0x3c8ca32f	0.017167656
59	0x3b57ce2b	0.0032929282
60	0x3cdca897	0.026935859
61	0xbb3c87b2	-0.0028767404
62	0x3ce9301e	0.028465327
63	0xbbb93cf6	-0.005653019
64	0x3ca0231e	0.019547995
65	0xbc5af258	-0.013363443
66	0xbc6a3c7b	-0.014296646
67	0xbc8f2d2a	-0.01747759
68	0xbbc65294	-0.0060523245
69	0xbc965727	-0.018352104
70	0xbca5890e	-0.020206954
71	0x3be02dc7	0.0068413946
72	0x3ce230c3	0.027611142
73	0xba067a2d	-0.00051299
74	0x3cbcf2f1	0.023065062
75	0xbcab3af2	-0.02090213
76	0x3c5633ef	0.013073905
77	0xbcee5c34	-0.0290967
78	0xbc0fa707	-0.00876785
79	0x3c9dc7ea	0.019260366
80	0x3ce62240	0.028092504
81	0x3cc09c44	0.023512013
82	0x3b5c7328	0.0033637974
83	0x3c1115b4	0.008855272
84	0x3cdad66a	0.026713569
85	0x3c4d055d	0.012513486
86	0xb9606ba9	-0.00021402411
87	0x3be323fd	0.0069317804
88	0xbc9a3461	-0.018823804
89	0x3c648e9c	0.013950016
90	0x3c3fe5bc	0.011712488
91	0x3c2bef8e	0.010494126
92	0xbb05fbba	-0.002044423
93	0x3cc0940d	0.023508096
94	0x3a8f3e53	0.0010928608
95	0xbbf587f7	-0.007493015
96	0xbd2a98be	-0.041649573
97	0xbd001058	-0.031265587
98	0x3bd675eb	0.0065448186
99	0xbc178b8d	-0.00924958
100	0xbbefb3d9	-0.0073151407
101	0x3cc659c6	0.02421273
102	0x3b176288	0.00230995
103	0xbc94bd9b	-0.018156817
104	0x3cb9478c	0.022617124
105	0xbc959e84	-0.018264063
106	0x3cd2eb75	0.02574704
107	0xbcfd0566	-0.030886363
108	0x3cb65585	0.022257576
109	0x3cf2123e	0.029549714
110	0xbc9c532f	-0.019082634
111	0x3a667c68	0.00087923417
112	0xbcd1d574	-0.025614478
113	0xbb457097	-0.0030126923
114	0x3d0ae5c5	0.03391053
115	0x3ce4fbdc	0.027952127
116	0xbcfb0d71	-0.030646058
117	0x3c01410c	0.007889044
118	0xbabfaa03	-0.0014622811
119	0x3b534c4d	0.0032241524
120	0xb9f9e49d	-0.0004766331
121	0x3ca193ef	0.01972386
122	0xbc674d6b	-0.014117579
123	0xbd01fb20	-0.031733632
124	0xbce077df	-0.027400909
125	0x3d0328ae	0.032021217
126	0xbc5f6ae9	-0.013636329
127	0x3c28e674	0.010308851
