promptPGpot/checkpoints/exp1/ckpt_final.pt (torch, 394803 bytes, 2 tensors)

weight f4 [128, 768]
000000 7d a3 e5 bb b7 9e e2 3a 1b a9 ff 3c 4d d3 6f 3c
       -0.0070080147 0.0017289732 0.031208565 0.01463778
000010 27 56 f9 3b c2 6a c5 3c 28 08 f2 bb 2b 50 d7 bc
       0.007609147 0.024098758 -0.007386226 -0.026283344
000020 1d 99 c8 bc 5c 6b 21 3d e4 bd e6 3c 9e b0 d6 3c
       -0.024487073 0.039409027 0.028166719 0.026207265
000030 61 77 91 3c d5 2e cb 3c f2 38 29 3c 4d e7 d6 bc
       0.01775712 0.024802605 0.010328518 -0.02623334
000040 66 51 76 3c b4 74 85 bc 31 b2 69 bc 09 25 c0 bc
       0.015034055 -0.016291 -0.014263676 -0.02345516
000050 d5 3f f0 bc b0 c2 26 bc 15 15 c5 bc 0a fa b3 3c
       -0.029327312 -0.010178253 -0.024057904 0.021969814
000060 77 07 93 bc e4 8b 83 3c 24 a9 01 3c 69 c4 f2 3c
       -0.017947895 0.016057916 0.007913861 0.029634671
000070 a3 ab 59 3b 13 4c d0 3b 55 07 88 bc 24 7e e0 bc
       0.0033213876 0.006356725 -0.016605059 -0.027403899
000080 ec c7 bc 3b e7 97 ea bc 21 62 46 3a 76 91 44 3c
       0.005761137 -0.028636886 0.0007567723 0.011997571
000090 fd 8b 11 3c 77 cc 07 3c 9b 7f 93 bc 09 d7 10 bd
       0.008883473 0.008288494 -0.018005183 -0.035361324
0000a0 d4 0c 06 3d 7b c2 8a 3c 48 25 68 bc 45 63 60 3c
       0.032727078 0.016938439 -0.014169045 0.013695543
0000b0 d5 b1 fc bc 3b a1 5c 3c 65 ac 0e 3d aa 2f 05 bd
       -0.030846516 0.013466175 0.034832377 -0.03251616
0000c0 ea f1 97 bc b7 9d d5 bc 50 6c 36 bd b1 7c af bc
       -0.01854797 -0.02607618 -0.04453689 -0.021421762
0000d0 a6 5b 1c 3d 9f 45 14 3d 20 79 d4 bb ed 94 0f 3d
       0.03817334 0.03619921 -0.006484166 0.035054136
0000e0 36 22 e3 bc 3d 7a a0 3c 56 17 fb bc ea f0 9a bc
       -0.027726274 0.019589538 -0.030650776 -0.018913705
0000f0 90 a1 13 3d a8 d3 c2 bc 6f 5c f6 ba e6 05 a2 38
       0.03604275 -0.023782566 -0.0018795858 7.7258606e-05
000100 e0 8b c2 3c 0d ed 36 3c f8 48 1a 3c 75 93 2f 3d
       0.023748338 0.011164916 0.009416811 0.042865235
000110 90 36 d6 bc 4b d1 4c 3c fb 98 b8 bc c9 c8 09 bd
       -0.026149064 0.012501071 -0.022533884 -0.03363875
000120 47 cf c0 3c 58 ec d6 ba 16 87 0d bc 6a 26 0f bd
       0.023536338 -0.001639734 -0.008638164 -0.034948744
000130 93 28 6b 3b a4 10 98 bc e5 b5 df 3b 17 b6 8e 3c
       0.0035882338 -0.018562622 0.0068271034 0.017420812
000140 b5 ae 01 bd cd 02 81 3c f4 de 76 bb ab 0b 8e bc
       -0.031660754 0.015748406 -0.0037669512 -0.017339548
000150 98 9c 28 3d d9 be e1 3c d8 93 be 3b 8e 75 75 bb
       0.041164964 0.027556824 0.005815964 -0.0037454101
000160 d8 57 c4 bc 53 4d 07 3c 03 eb 26 3d 9d dc 6e 3c
       -0.023967668 0.008258182 0.04075147 0.0145789655
000170 14 57 bf 3c be 7c 8f 3c 4e 35 03 bd 7f f8 a0 3c
       0.023356952 0.017515536 -0.032033257 0.019649742
000180 63 e9 aa bc cc 47 16 3d 50 a4 11 3d f4 25 c8 bb
       -0.02086324 0.036689565 0.03555709 -0.00610804
000190 15 88 1f bd 97 ba d1 bc 5c 3d c7 3c ed 7c 40 bb
       -0.038948137 -0.025601668 0.02432125 -0.0029371337
0001a0 18 fe a4 3c 42 29 81 bb 65 64 f2 3c 2d ff 2b bb
       0.020140693 -0.003941686 0.029588887 -0.0026244626
0001b0 da ea 20 3c 9b ed 05 3b 98 2b 02 bc e6 6b 43 bd
       0.009821618 0.0020435813 -0.007944964 -0.04771032
0001c0 7a 1f 2a bc a3 f4 d9 bc 11 37 da bc 6c df 35 3c
       -0.010383481 -0.02660591 -0.026637586 0.011100631
0001d0 e4 a6 9c bc 00 f2 18 3c 21 4d 05 bd 48 75 43 3c
       -0.019122548 0.009335041 -0.03254426 0.0119298175
0001e0 21 4e 20 3d fe ca c7 3c 09 55 d5 3b ce 76 02 bd
       0.03913701 0.024388786 0.006510381 -0.031851582
0001f0 ce 10 59 bc cb aa 27 bc 28 66 8f 3c 5b be c1 3c
       -0.013248635 -0.010233591 0.017504767 0.023650339
000200 30 b8 6d 3c 28 11 9e bc f3 05 90 bb ac 5e 16 bc
       0.014509246 -0.01929529 -0.0043952405 -0.009177845
000210 d2 af d5 3a e5 fc 42 bc c2 10 b7 bc 28 da 53 3b
       0.0016303009 -0.011901115 -0.022346858 0.0032326076
000220 c9 91 1c 3b 6a 74 04 bd eb a6 d0 bc 2b 6a de 3c
       0.0023890606 -0.032337584 -0.025470218 0.027150234
000230 27 71 b8 bc 8f e8 33 bc 13 d2 14 bd 26 57 ba 3c
       -0.022514893 -0.010980739 -0.036333155 0.022746634
000240 48 1d c7 bc 71 1b 9d 3c 3c b7 f8 3c d0 9b e4 bc
       -0.024305955 0.019178124 0.03036081 -0.027906328
000250 60 98 60 3c d2 94 c9 bc 37 d6 6c bc 57 8e fe 3c
       0.013708204 -0.024607096 -0.01445537 0.031073732
000260 87 f1 04 3d 86 a7 f6 3c 1d 28 6c bc b7 15 37 3d
       0.0324569 0.030109178 -0.014413861 0.044698443
000270 80 95 47 bc 3c d4 fc bc 97 61 10 3c 85 40 8c bc
       -0.01218164 -0.03086292 0.00881233 -0.017120609
000280 df 91 82 bc f5 a9 e9 3c c8 5f fe ba 7a 1e de 3c
       -0.015938697 0.028523425 -0.0019407207 0.027114142
000290 0e 48 e5 bc 8f 15 cd 3c 63 c2 e3 bc 82 b5 12 bd
       -0.02798846 0.025034694 -0.027802652 -0.03581763
0002a0 62 01 2e bd 4d 6f 92 bc ce 76 fb bc 18 d1 c5 3c
       -0.042481788 -0.017875338 -0.030696299 0.024147555
0002b0 de 8d 9e ba 82 90 c4 bc b1 64 3f bb 51 80 1d bb
       -0.0012096723 -0.023994688 -0.0029204304 -0.0024032781
0002c0 fe 6d 9d bb a6 c0 8c 3c df d2 a6 3b a3 5a 74 3c
       -0.004804372 0.017181706 0.0050910558 0.014914188
0002d0 77 93 92 bc c0 a9 8e bb f2 3e aa 3b fa 4c 4a bd
       -0.017892582 -0.004353732 0.005195492 -0.049389817
0002e0 16 73 fb bc 89 69 86 3c 6c bc c9 bb aa 55 86 bc
       -0.030694526 0.016407745 -0.006156495 -0.01639827
0002f0 a3 e1 14 3d a8 bb e4 3c 42 a2 8a 3c 0a b4 1e 3c
       0.036347996 0.027921513 0.016923074 0.009686479
000300 33 1f 90 3c 7f 6b d4 3b 56 cc e2 bc 96 c0 90 bc
       0.017593002 0.006482541 -0.027685326 -0.017669957
000310 0c 71 96 bc cc e6 ba 3c 1a eb 09 bc 08 fb 02 3c
       -0.018364452 0.02281513 -0.008417869 0.007994421
000320 6a 5c 82 3b a5 6a 9f 3c 41 54 e3 3c 0a 1a ce 3b
       0.003978302 0.019460032 0.027750136 0.006289725
000330 58 82 98 3b 2c 3d 20 bc cd f3 27 3d 6b 11 0e bd
       0.00465421 -0.0097802095 0.04100399 -0.03468458
000340 2a 6e 08 3d 15 5f a9 3c 27 90 b1 bc 06 10 db 3c
       0.033308186 0.020675221 -0.021675183 0.026741039
000350 5b 54 c4 b9 0f 3e 2e bd 2d 8e c9 3c 05 be fa bc
       -0.00037446883 -0.042539652 0.024603928 -0.030608186
000360 26 03 ac bb 1f 60 c5 bc 78 65 9b 3c d4 6b 08 3c
       -0.0052493988 -0.024093686 0.018969283 0.0083264895
000370 c9 61 a7 bc 4e 57 ef 3c b2 54 78 bb 8b c4 30 3d
       -0.02043237 0.029216435 -0.003789228 0.043156188
000380 9d a0 14 3d 67 0b 82 bc b2 97 62 3c 07 9e 3a bc
       0.036285985 -0.015874578 0.013830112 -0.011390216
000390 10 cb f7 bc 90 0e 4d bc 9c 1b c4 39 23 67 11 3c
       -0.030248195 -0.012515679 0.00037404604 0.008874687
0003a0 91 84 a4 bb df f9 25 bd 0f bb 56 bc c6 21 86 3c
       -0.005020686 -0.0405215 -0.013106122 0.016373526
0003b0 6b 90 8a 3c bf b2 a9 3c 1a 24 c2 3c cb ea 54 bc
       0.016914567 0.020715116 0.023698855 -0.012995432
0003c0 1e 2a ae bc 44 f2 b0 bc 57 ee 01 bd dd 15 42 3c
       -0.021260317 -0.021599896 -0.03172144 0.011846033
0003d0 b9 07 f1 3c 6f 7a 9f 3c 62 3c e4 39 3d 06 70 3c
       0.029422628 0.01946756 0.00043532538 0.014649925
0003e0 33 f8 42 3c 5e 87 8b 3c 57 d3 77 3c 48 49 1f ba
       0.011899996 0.017032322 0.015126071 -0.00060762884
0003f0 8b 26 24 bd e7 e0 b8 3c 2e 47 3e 3c 88 84 ec 3b
       -0.04007582 0.02256818 0.01161365 0.0072179474

bias f4 [128]
000000 bb a9 ce bb 26 65 12 bc dd dd c4 bc 3a 84 b3 ba
       -0.0063068545 -0.0089352485 -0.024031574 -0.0013696023
000010 e2 8e c6 bb 10 04 bd bc 15 a9 bf bc b9 4f bd 3c
       -0.0060595134 -0.023073226 -0.023396054 0.023109304
000020 b7 71 c1 bc 69 aa c2 bb 7a 0e 61 3c 02 20 ac ba
       -0.023613794 -0.0059407246 0.013736362 -0.0013132098
000030 19 20 30 bc 00 77 9c bc 16 6a fc bc 0e 33 31 3c
       -0.01074984 -0.019099712 -0.030812304 0.010815395
000040 38 50 42 3c 40 b5 e9 bc 21 15 0b 3c c8 c6 72 bc
       0.011859946 -0.02852881 0.008488924 -0.014817901
000050 52 bc eb bc 6d b0 92 bb 7a f1 ed bc bc 67 a6 3c
       -0.028776322 -0.004476598 -0.029045809 0.020313136
000060 6d 0d 8b bc b2 7f a0 bc 67 e5 26 bb 8c 32 00 3d
       -0.016974175 -0.01959214 -0.0025466324 0.031298205
000070 6a 6a 98 bc e0 40 a3 bc 71 e0 ba bc ae ed a9 bc
       -0.01860543 -0.019928396 -0.0228121 -0.020743217
000080 13 f9 01 bd 4a 97 96 bc 04 3d a2 39 71 56 b1 3b
       -0.031731676 -0.018382687 0.00030944508 0.005411916
000090 84 69 c7 3c e7 e2 f3 3c f6 1c cc bc be 99 f0 bb
       0.024342306 0.029771281 -0.024916153 -0.0073425462
0000a0 2f 04 0a 3d 7f db 07 3d 64 8f db 3c 5e 59 ab 3b
       0.033695396 0.033168312 0.026801772 0.0052291593
0000b0 97 42 ec 3c 1a 78 e9 3c 95 05 04 bd 75 35 13 bd
       0.028840346 0.028499652 -0.032231886 -0.035939652
0000c0 80 f6 ed bc 4a 73 d9 3c ee fd e9 bb c1 04 1f bd
       -0.029048204 0.026544232 -0.0071408665 -0.038822893
0000d0 52 95 8b ba 59 67 45 3c 02 09 e0 bc df 25 91 bb
       -0.0010649359 0.012048566 -0.027348045 -0.0044295634
0000e0 72 de b9 3c b9 b3 16 bd c7 38 49 3c f7 0c e5 b9
       0.022689078 -0.03679249 0.012281603 -0.00043687943
0000f0 24 a3 05 3d 23 0e 30 b9 e9 a6 d6 3c 4f 69 0f bb
       0.032626286 -0.00016789934 0.026202636 -0.0021882837
000100 03 46 bf 3c ce 87 c7 bb 90 03 78 bc 4d 06 ab bc
       0.023348814 -0.006089187 -0.015137568 -0.020877028
000110 16 0e a3 38 ac 86 78 bc db d6 a1 bc 50 63 8c 3b
       7.7750694e-05 -0.015168827 -0.019755771 0.0042843
000120 73 c7 ef 3c d2 d3 b5 bb cd 01 b6 3c b0 0e 85 bc
       0.02926991 -0.0055489326 0.022217656 -0.016242355
000130 5d 1f 92 3c 0e 83 b0 bc 39 98 b4 bb 69 34 31 3c
       0.01783722 -0.021546867 -0.0055113104 0.010815718
000140 91 60 b2 3c 6d dd 96 3c 95 d8 92 3b 87 e8 35 3c
       0.021774562 0.01841613 0.004481385 0.011102802
000150 17 15 06 3d fa b8 75 3c 52 7b 19 3b bc a1 39 3c
       0.032734957 0.014997715 0.0023419452 0.011330064
000160 64 75 8a bc 5a a4 31 3c c9 c6 02 3c 31 e2 1b 3c
       -0.01690168 0.010842407 0.007981964 0.009514377
000170 9c ed c4 ba 94 40 f1 3c 6a 78 12 3a 4f 83 ba ba
       -0.0015024426 0.029449739 0.0005587401 -0.0014229807
000180 03 d9 0a bd 63 ce 08 bd 40 19 37 3c c4 3c 06 bc
       -0.033898365 -0.03339995 0.011175454 -0.008193199
000190 16 53 0d bc 2c ca b6 3c 95 22 c7 3b a6 0a aa bc
       -0.008625766 0.0223132 0.0060771205 -0.02075703
0001a0 90 16 ff 3c eb f6 db bc 2f ea bc 3c d5 f9 02 bd
       0.031138688 -0.026851138 0.023060886 -0.03197654
0001b0 ae fd a0 3c 6d 21 05 3d 11 e0 b6 bc 8c 86 02 bc
       0.019652214 0.03250258 -0.02232364 -0.007966649
0001c0 ef 09 fc bc 20 ce 8a b9 68 71 21 3d 9f 09 e0 3c
       -0.030766455 -0.00026474986 0.039414793 0.027348338
0001d0 47 5c 0b bd fa 40 82 3a 7e 8a 72 3a fc e9 e7 3b
       -0.03402355 0.0009937577 0.00092522043 0.0070774537
0001e0 69 b1 fa ba 75 df 6b 3c 5d 48 4d bc fd d4 0a bd
       -0.0019126359 0.014396538 -0.01252946 -0.033894528
0001f0 80 df fc bc ba 4f f6 3c 55 9b 8e bc 55 59 26 3c
       -0.030868292 0.030067313 -0.017408052 0.010153134
