promptPGpot/checkpoints/exp1/ckpt_5.pt (torch, 394659 bytes, 2 tensors)

weight f4 [128, 768]
-0.013892005 -0.006275636 0.033340033 0.0026925325 0.0026849604 0.029142352 -0.006617042 -0.024678739
-0.025961969 0.030551516 0.01910764 0.026104562 0.029355412 0.016985422 0.00999401 -0.025170933
0.01747894 -0.01605661 -0.010347061 -0.034730073 -0.03906875 -0.01943197 -0.0167421 0.022447547
-0.003527936 0.015590544 0.020352082 0.027271302 0.01849751 0.009921368 -0.021680905 -0.020863846
0.023754748 -0.030724457 0.0028375085 0.009380409 0.004636828 0.022776973 -0.018549977 -0.019809268
0.023357922 0.008669083 -0.0128649045 0.008757122 -0.017092349 -0.0030888529 0.036346488 -0.01968404
-0.008228 -0.03642351 -0.036185857 -0.026192293 0.02349146 0.028740808 0.008800551 0.02417864
-0.027421912 0.019484399 -0.028059954 -0.020090617 0.037061907 -0.027763281 0.00032463373 0.002989074
0.0039467514 0.009131542 0.0075282576 0.035533775 -0.02140855 0.0058421525 -0.009919517 -0.019014213
0.02381997 0.0045991107 0.0060754917 -0.030990453 0.006946801 -0.02936388 0.008941325 0.013746929
-0.040830094 0.013323274 -0.013348606 -0.017727602 0.028329272 0.020913621 0.009794453 0.005454798
-0.023220394 0.0044637956 0.025547506 0.008678654 0.025152631 0.010418872 -0.03832836 0.010102485
-0.0026189485 0.037374638 0.03487384 -0.0031337533 -0.029409181 -0.017826075 0.025352597 -0.004134436
0.002556371 -0.015787652 0.028416896 0.0006401372 -0.0099371215 -0.0006796047 0.0114044715 -0.030886047
-0.01823301 -0.025356153 -0.027842792 -0.0024133446 -0.023063099 0.017409313 -0.022308841 0.0018039967
0.03699314 0.016153658 0.010295455 -0.019345775 -0.009560452 -0.015896944 0.00791908 0.010419301
0.0068747005 -0.0038274226 -0.009717289 -0.0068192994 0.012265687 -0.018416606 -0.02714863 0.005621924
0.015551013 -0.022424681 -0.0148621015 0.028004037 -0.016629111 -0.011634911 -0.03359313 0.018472161
-0.0301157 0.023308747 0.033215426 -0.021595314 -0.006418877 -0.017931016 -0.0062608514 0.023159755
0.034004986 0.026685964 -0.0056800772 0.032182705 -0.020367421 -0.019816477 0.003319806 -0.017143358
-0.00781885 0.030336453 0.012859637 0.013023044 -0.020511538 0.028719956 -0.02669749 -0.028380385
-0.034154758 -0.02079295 -0.016980186 0.029831214 0.00039782008 -0.014787955 -0.016193783 -0.016548088
-0.022610398 0.019780945 -0.0067014894 0.017500183 -0.017836573 -0.005883536 0.008555193 -0.037662096
-0.035182964 0.026606236 0.0006831597 -0.015821615 0.023407936 0.017584989 0.015467672 0.018468507
0.02173629 0.0136974 -0.03462974 -0.033225015 -0.0016058378 0.022460606 0.0019525043 0.0065422077
0.013527155 0.02764826 0.032906134 0.008051661 0.016964661 -0.0127682425 0.039029174 -0.033491343
0.02343911 0.013514049 -0.017092591 0.022807838 -0.013334252 -0.034968417 0.01365603 -0.02288751
-0.00473285 -0.023349792 0.019381633 0.024340855 -0.02148706 0.031382162 -0.007564036 0.027430385
0.038254276 -0.02809669 0.019236036 -0.020504838 -0.025586238 -0.006353289 -0.0033917995 -4.079845e-05
-0.0083765015 -0.039021235 -0.016812703 0.021883179 0.026348704 0.03267255 0.029885966 -0.008423688
-0.018702045 -0.019035263 -0.01888054 0.019331088 0.015655098 0.028243963 -0.0017060948 0.0062886733
0.01705848 0.021981439 0.005071951 -0.00025303251 -0.026415335 0.023653403 0.028738705 0.009420073
00000000: 4b9b 63bc daa3 cdbb 8f8f 083d 3375 303b
00000010: 29f6 2f3b f1bb ee3c c5d3 d8bb 112b cabc
00000020: 32ae d4bc 2c47 fa3c a087 9c3c 3cd9 d53c
00000030: c37a f03c 0325 8b3c ebbd 233c 4633 cebc
00000040: fe2f 8f3c 2789 83bc b886 29bc 1f41 0ebd
00000050: 8e06 20bd cb2f 9fbc ba26 89bc ebe3 b73c
00000060: f234 67bb 7b6f 7f3c 69b9 a63c 1168 df3c
00000070: 1788 973c 3c8d 223c 279c b1bc a8ea aabc
00000080: 5199 c23c dbb1 fbbc 7ef5 393b 49b0 193c
00000090: 88f0 973b c696 ba3c 1ff6 97bc 0c47 a2bc
000000a0: 1d59 bf3c c508 0e3c 52c7 52bc 087a 0f3c
000000b0: 4105 8cbc 5a6e 4abb 0ee0 143d 6d40 a1bc
000000c0: bcce 06bc d230 15bd 9f37 14bd 3891 d6bc
000000d0: 2a71 c03c d871 eb3c 3030 103c 4912 c63c
000000e0: eba3 e0bc bf9d 9f3c fddd e5bc 1495 a4bc
000000f0: 3ace 173d d26f e3bc 9a33 aa39 57e4 433b
00000100: c053 813b 779c 153c 9aaf f63b dd8b 113d
00000110: fc60 afbc 876f bf3b 7885 22bc b2c3 9bbc
00000120: 1922 c33c 23b4 963b eb14 c73b b1df fdbc
00000130: fea1 e33b 858c f0bc a37e 123c cd3a 613c
00000140: 753d 27bd dd49 5a3c 1db4 5abc 7a39 91bc
00000150: ca12 e83c 0b53 ab3c ea78 203c 2abe b23b
00000160: b238 bebc 0845 923b 0149 d13c ea30 0e3c
00000170: e40c ce3c ebb3 2a3c 33fe 1cbd e584 253c
00000180: aaa2 2bbb 2616 193d dfd7 0e3d a85f 4dbb
00000190: 86eb f0bc fd07 92bc 40b0 cf3c 2a7a 87bb
000001a0: ca88 273b 1b55 81bc 8dca e83c e1ce 273a
000001b0: 4fcf 22bc 8027 32ba d2d9 3a3c bc04 fdbc
000001c0: 655d 95bc b5b7 cfbc 9116 e4bc 3429 1ebb
000001d0: d3ee bcbc fa9d 8e3c 08c1 b6bc 1674 ec3a
000001e0: 1e86 173d ad54 843c 45ae 283c 087b 9ebc
000001f0: 71a3 1cbc 4f3a 82bc 07bf 013c b7b5 2a3c
00000200: 2b45 e13b 7fd5 7abb 4435 1fbc 6e74 dfbb
00000210: 05f6 483c 6cde 96bc ce66 debc 1e38 b83b
00000220: adc9 7e3c f7b3 b7bc 2c80 73bc b968 e53c
00000230: c639 88bc 5ba0 3ebc f398 09bd ee52 973c
00000240: 33b5 f6bc fcf1 be3c e60c 083d a8e8 b0bc
00000250: 7155 d2bb 11e4 92bc d427 cdbb 87b9 bd3c
00000260: d048 0b3d 869c da3c f11f babb 03d2 033d
00000270: 94d9 a6bc 2a56 a2bc 1a91 593b 3a70 8cbc
00000280: a21a 00bc 2784 f83c 3ab1 523c 9b5e 553c
00000290: d007 a8bc 1d46 eb3c b2b4 dabc fb7d e8bc
000002a0: dce5 0bbd fa55 aabc 081a 8bbc 9760 f43c
000002b0: 8292 d039 2e49 72bc d3a8 84bc db8f 87bc
000002c0: 7139 b9bc a60b a23c 2b98 dbbb 8b5c 8f3c
000002d0: 011e 92bc adca c0bb 152b 0c3c 9243 1abd
000002e0: 031c 10bd 52f5 d93c 1216 333a 559c 81bc
000002f0: 00c2 bf3c 650e 903c 1e6c 7d3c 444b 973c
00000300: 4e10 b23c 0f6b 603c ead7 0dbd f416 08bd
00000310: fa7a d2ba 4eff b73c 2ceb ff3a 0460 d63b
00000320: 00a1 5d3c 9b7e e23c 95c8 063d 1deb 033c
00000330: 79f9 8a3c e431 51bc 0edd 1f3d 382e 09bd
00000340: 6003 c03c 086a 5d3c c305 8cbc 81d7 ba3c
00000350: e877 5abc 0b3b 0fbd 8bbd 5f3c 967e bbbc
00000360: 0616 9bbb 1048 bfbc 3bc6 9e3c 7966 c73c
00000370: a105 b0bc 958a 003d bcdb f7bb b0b5 e03c
00000380: 84b0 1c3d 082b e6bc e494 9d3c c3f9 a7bc
00000390: 3b9a d1bc 402f d0bb f448 5ebb 011f 2bb8
000003a0: 983d 09bc bbd4 1fbd cbba 89bc 5a44 b33c
000003b0: 3dd9 d73c a7d3 053d 6ad3 f43c 8203 0abc
000003c0: 0835 99bc d7ef 9bbc 5dab 9abc 3b5c 9e3c
000003d0: 1f3f 803c e25f e73c 0b9f dfba 3711 ce3b
000003e0: 3abe 8b3c 6b12 b43c 9c32 a63b 73a9 84b9
000003f0: f964 d8bc c8c4 c13c 6f6d eb3c a656 1a3c

bias f4 [128]
-0.010563629 -0.011864154 -0.021770818 0.0025644482 -0.003293835 -0.021843445 -0.029161412 0.023528
-0.020303907 -0.0037088597 0.011799248 0.0017656661 -0.012025547 -0.016467333 -0.035662424 -0.00014038946
0.009245224 -0.028181829 0.009194439 -0.012038618 -0.032849293 4.6503006e-05 -0.02552481 0.011099803
-0.02170942 -0.016566517 -0.0020646637 0.032199796 -0.018658761 -0.022494974 -0.020196466 -0.019485041
-0.030280188 -0.01876223 0.0009891817 0.011790768 0.022223404 0.025150007 -0.025260197 -0.0029635173
0.03211414 0.031628285 0.03176443 0.010970224 0.026012665 0.02547103 -0.033629503 -0.03526705
-0.027435089 0.026089653 -0.008060616 -0.039330855 -0.0027420616 0.019372793 -0.029712645 -0.0069179963
0.021010501 -0.036472797 0.0061647417 0.007689682 0.032766156 -0.0037192402 0.02245849 -0.00194123
0.02461778 -0.011069118 -0.01727436 -0.019428473 -0.00091548264 -0.014054074 -0.025009997 0.00010125194
0.028617967 0.0008064733 0.017911162 -0.01969036 0.01473875 -0.02550917 0.0013888415 0.01688757
0.027907424 0.02253226 0.0011399467 0.002613675 0.031312138 0.008150909 0.0028022234 0.012241825
-0.019918272 0.012218763 0.012204028 0.0076567098 -0.0018393524 0.01483318 0.0009330629 -0.0062510017
-0.03210883 -0.034732074 0.0083483495 -0.0068683247 -0.0050223116 0.020994883 0.008362696 -0.023508314
0.025536837 -0.023366936 0.01891565 -0.03176456 0.022383539 0.029521627 -0.012975502 -0.0029904537
-0.026339317 -0.0021555976 0.036560256 0.029356182 -0.035202708 0.0001657164 0.007255505 0.0062848753
0.0023434148 0.014065844 -0.009613326 -0.04132311 -0.030278726 0.03599291 -0.01662906 0.0054250257
00000000: 1213 2dbc de61 42bc b758 b2bc 4d10 283b
00000010: 62dd 57bb 06f1 b2bc eae3 eebc cbbd c03c
00000020: 6154 a6bc 5710 73bb a251 413c ec6d e73a
00000030: cd06 45bc 80e6 86bc c312 12bd 8235 13b9
00000040: 4879 173c 94dd e6bc 46a4 163c a03d 45bc
00000050: fb8c 06bd 390c 4338 6819 d1bc f3db 353c
00000060: f4d7 b1bc 81b6 87bc 4f4f 07bb efe3 033d
00000070: 42da 98bc 6147 b8bc 0f73 a5bc 189f 9fbc
00000080: 280e f8bc 40b3 99bc 6ea7 813a 112e 413c
00000090: db0d b63c 6307 ce3c 79ee cebc 9237 42bb
000000a0: 1e8a 033d a98c 013d 6b1b 023d 74bc 333c
000000b0: 8318 d53c 9fa8 d03c 17bf 09bd 2f74 10bd
000000c0: 8dbf e0bc f8b9 d53c ad10 04bc 6419 21bd
000000d0: 29b4 33bb b1b3 9e3c ef67 f3bc 5cb0 e2bb
000000e0: 371e ac3c 8064 15bd 9a01 ca3b baf9 fb3b
000000f0: ce35 063d 7fbe 73bb defa b73c df70 feba
00000100: 3aab c93c 3f5b 35bc f582 8dbc 7628 9fbc
00000110: 00fd 6fba 0f43 66bc c4e1 ccbc 3957 d438
00000120: 3a70 ea3c 8269 533a 6eba 923c ae4d a1bc
00000130: cc7a 713c 9bf8 d0bc ca09 b63a cd57 8a3c
00000140: 1c9e e43c 9395 b83c 446a 953a 314a 2b3b
00000150: 2841 003d 648b 053c 82a5 373b f091 483c
00000160: a52b a3bc 3531 483c 67f3 473c 23e5 fa3b
00000170: 6d16 f1ba de06 733c cb98 743a 34d5 ccbb
00000180: 8c84 03bd 3843 0ebd 84c7 083c af0f e1bb
00000190: 3492 a4bb 76fd ab3c b003 093c 8294 c0bc
000001a0: a132 d13c 046c bfbc fef4 9a3c 8e1b 02bd
000001b0: af5d b73c 57d7 f13c 3397 54bc 7dfb 43bb
000001c0: 8dc5 d7bc ed44 0dbb 35c0 153d 607c f03c
000001d0: b730 10bd 28c4 2d39 96bf ed3b 5bf1 cd3b
000001e0: fa93 193b 6d74 663c 3681 1dbc 6c42 29bd
000001f0: 170b f8bc 4d6d 133d ab39 88bc 6ac4 b13b
