promptPGpot/checkpoints/exp1/ckpt_7.pt (torch, 394659 bytes, 2 tensors)

weight f4 [128, 768]
000000 3a 60 76 bc 20 fe 0b bc f9 b6 05 3d 50 73 7b 3b
       -0.015037591 -0.008544475 0.0326452 0.0038368292
000010 74 db 9b 39 50 7d ec 3c e8 e4 37 bb f2 fc b8 bc
       0.0002972741 0.028868347 -0.0028060023 -0.022581551
000020 21 94 dc bc 06 fc f0 3c 91 aa a6 3c 88 c8 d1 3c
       -0.026926102 0.02941705 0.020345004 0.025608316
000030 55 25 f2 3c 93 76 9a 3c 26 74 4e 3c 69 d4 e1 bc
       0.029558817 0.018855369 0.012600934 -0.027567105
000040 72 cb 91 3c 47 da 59 bc fc 89 db bb 0b ec 09 bd
       0.017797206 -0.01329667 -0.0066997986 -0.033672374
000050 f5 5c 1f bd 34 0f ab bc 71 a0 8a bc 45 53 ac 3c
       -0.03890701 -0.020881273 -0.016922208 0.0210358
000060 b2 28 05 bb f5 05 7d 3c 7a f8 af 3c 0f da d2 3c
       -0.0020318446 0.015443315 0.021480788 0.025738744
000070 23 1e 95 3c d3 19 16 3c 08 8e bc bc a2 e9 90 bc
       0.018202847 0.00916143 -0.023016945 -0.01768953
000080 5e b1 bb 3c b2 17 00 bd 59 ee a7 3b 5d d2 24 3c
       0.022911724 -0.031272598 0.005124849 0.01005992
000090 bf 6a bf 3b 9e 97 c0 3c 80 fd 89 bc 95 c5 b2 bc
       0.0058415825 0.023509797 -0.016844511 -0.02182273
0000a0 7f 73 b0 3c d9 1b fa 3b 8c 35 49 bc 34 59 ff 3b
       0.021539448 0.007632714 -0.012280833 0.0077926163
0000b0 fc 06 a0 bc af 6a c3 bb 3c 52 0e 3d 4f f0 a8 bc
       -0.01953458 -0.0059636454 0.034746394 -0.0206224
0000c0 81 77 1d bc f3 d7 1b bd 2c ba 1b bd 2c a5 dc bc
       -0.0096110115 -0.038047742 -0.038019344 -0.026934229
0000d0 51 fa db 3c fc 56 f3 3c e5 3e 0a 3c d6 b6 c8 3c
       0.026852759 0.029704563 0.008437847 0.024501245
0000e0 1c e8 e5 bc 01 3d a9 3c b1 c2 cd bc 40 21 ad bc
       -0.02806478 0.020658972 -0.02511725 -0.021134019
0000f0 24 b5 15 3d 82 a3 e3 bc 2e 37 95 39 be 52 12 3b
       0.036549702 -0.027787928 0.00028460607 0.002232715
000100 ba f6 e5 3b c9 b1 38 3c 7b c8 f0 3b 54 1a 1b 3d
       0.0070179375 0.011272856 0.007348118 0.037866905
000110 f1 2a c3 bc 10 3a e3 3b c4 22 55 bc 2e 4a ad bc
       -0.023824187 0.006934412 -0.013008777 -0.021153536
000120 16 0b da 3c 64 73 fd 3a 9a 54 2f 3b 97 13 00 bd
       0.026616614 0.0019336757 0.0026753307 -0.031268682
000130 b1 88 09 3c fb 38 ce bc 98 68 fe 3b d9 2a 2f 3c
       0.008394406 -0.025173655 0.0077639334 0.010691368
000140 20 e8 25 bd b6 8b 6e 3c 57 10 27 bc 24 bf 99 bc
       -0.040504575 0.014559677 -0.010196767 -0.0187679
000150 ee 40 f9 3c cc ba bf 3c 6c 59 2c 3c 8c 8f 56 3b
       0.030426469 0.023404501 0.010519367 0.003273937
000160 0a af cb bc d7 34 d1 3b 4e 1c bf 3c ce 96 07 3c
       -0.024863739 0.006384473 0.023328926 0.008275701
000170 6c dc c2 3c 18 0c 2f 3c 22 17 14 bd 63 0f 44 3c
       0.023786746 0.010684036 -0.036154874 0.011966559
000180 1a 91 88 bb 35 a0 1f 3d 48 87 13 3d 38 81 c4 b9
       -0.004167688 0.038971145 0.036017686 -0.0003748031
000190 c5 bc ed bc 2c a7 95 bc 0b 33 e2 3c 37 45 b7 bb
       -0.029020676 -0.01826819 0.02761223 -0.005592968
0001a0 96 98 2e 3b e5 46 85 bc 3b 85 da 3c 00 0a c1 ba
       0.0026641241 -0.016269157 0.026674857 -0.0014727712
0001b0 6a d6 1d bc a0 a7 9d ba 69 d1 25 3c 33 6d f3 bc
       -0.00963364 -0.0012028106 0.010120728 -0.029715156
0001c0 ac 8d 84 bc 33 d5 e6 bc a1 a0 fc bc 05 f4 b4 39
       -0.016180836 -0.028177833 -0.030838313 0.00034514084
0001d0 30 24 a1 bc 63 6f 9b 3c af ec ba bc 38 52 70 3b
       -0.019670576 0.018974012 -0.022817938 0.00366701
0001e0 74 d9 12 3d 3e 7f 87 3c 76 c1 4a 3c df 3d aa bc
       0.03585191 0.016540166 0.012375226 -0.020781456
0001f0 6d 52 1b bc bf 13 5c bc 79 5a 14 3c 45 aa 29 3c
       -0.009480101 -0.013432442 0.0090547735 0.010355537
000200 26 1f 22 3c 94 14 56 bb 10 cc 11 bc b9 c1 a3 bb
       0.009895122 -0.0032666074 -0.00889875 -0.004997459
000210 9e c6 67 3c b2 c8 a4 bc 5d d7 f1 bc 94 21 42 3b
       0.014146475 -0.02011523 -0.029521639 0.0029622065
000220 06 7d 67 3c 9c 38 a5 bc ab ea 6f bc 87 a3 d7 3c
       0.014128929 -0.020168595 -0.014643352 0.026323093
000230 f6 2f 98 bc 77 00 50 bc 33 ee 0e bd f7 8e a0 3c
       -0.018577557 -0.012695423 -0.034895133 0.019599421
000240 bd b3 db bc 2c 8d c7 3c dd d7 03 3d 89 66 a8 bc
       -0.026819104 0.024359308 0.032188285 -0.020556705
000250 69 27 8d bb 45 d0 88 bc 1e 0d ec bb 48 30 b5 3c
       -0.0043076766 -0.016700873 -0.007203712 0.022117749
000260 ef bc 06 3d b9 d6 c3 3c 4b d0 02 bc f9 4b 03 3d
       0.032895025 0.023906099 -0.007984231 0.032054875
000270 75 52 aa bc be 67 ae bc c8 3f 18 3b e5 68 60 bc
       -0.020791272 -0.021289703 0.0023231376 -0.013696884
000280 be f0 df bb 6b 7b 07 3d 0d 04 42 3c 4a 58 6a 3c
       -0.0068341186 0.033076685 0.011841786 0.014303276
000290 f7 c8 b7 bc 27 66 ed 3c 26 89 dd bc 4d f8 d9 bc
       -0.022434695 0.028979374 -0.027042937 -0.026607657
0002a0 e9 a1 0a bd 04 61 99 bc d3 79 8f bc 48 5d e9 3c
       -0.033845816 -0.018723018 -0.017514145 0.028486863
0002b0 ad 2a be 3a eb 1f 89 bc 8c 5f 83 bc da a6 66 bc
       0.0014508568 -0.016738852 -0.016036771 -0.014077866
0002c0 3b 2f bc bc e1 aa a9 3c 23 b2 97 bb 6f fc 64 3c
       -0.02297174 0.020711364 -0.00462939 0.0139762005
0002d0 f6 dc a2 bc b4 0e 09 bb 18 05 ea 3b d6 21 17 bd
       -0.019880753 -0.0020913305 0.0071417205 -0.036897503
0002e0 37 23 0d bd 3f c7 d0 3c 84 98 55 3a 02 3a 6a bc
       -0.03445741 0.025485633 0.0008148032 -0.014296057
0002f0 b5 10 bf 3c 6b 50 a8 3c 64 07 8b 3c 3e a0 b4 3c
       0.023323396 0.020546159 0.016971298 0.022049066
000300 b7 ed c5 3c c0 d7 80 3c c8 72 05 bd bb be 05 bd
       0.024161203 0.015727878 -0.032580167 -0.032652598
000310 0a 3c a4 ba dc 15 a5 3c 8a c9 8c b9 65 a9 c1 3b
       -0.00125301 0.020152025 -0.0002685304 0.005910086
000320 ca 50 68 3c 10 23 d5 3c f1 e3 07 3d 82 34 1f 3c
       0.014179418 0.026017696 0.033176366 0.009717109
000330 e1 e7 6a 3c f4 58 3c bc 3a cd 28 3d c1 2f 0e bd
       0.014337511 -0.011495817 0.041211344 -0.03471351
000340 57 e7 be 3c 3a 1c 80 3c 28 22 97 bc e7 aa b7 3c
       0.02330367 0.01563846 -0.018448904 0.02242036
000350 6b ba 68 bc 02 61 16 bd c4 26 7d 3c ec 7a b0 bc
       -0.014204602 -0.036713608 0.015451137 -0.021542989
000360 36 38 16 bb 13 cb cd bc bd 3a b2 3c 4a df c0 3c
       -0.0022921688 -0.025121247 0.021756524 0.023543973
000370 96 f8 a2 bc 81 6a ec 3c 4a 37 14 bc 63 53 e9 3c
       -0.019893926 0.028859379 -0.009046385 0.028482145
000380 ca 75 1a 3d c0 a0 e0 bc e0 12 9b 3c 23 fa a5 bc
       0.03770999 -0.027420402 0.018929899 -0.020260876
000390 e4 ee c3 bc a6 0e 06 bc 09 15 be ba 42 d1 0c 3b
       -0.023917623 -0.008182203 -0.0014502119 0.0021487032
0003a0 a7 f1 00 bc 20 ba 1a bd e6 bc 99 bc ad 33 aa 3c
       -0.007870114 -0.03777516 -0.018766832 0.020776594
0003b0 49 b7 bc 3c 7f 7e f6 3c 5a 6b f1 3c 2f c9 2f bc
       0.023036616 0.030089615 0.029470135 -0.010729118
0003c0 12 a4 a1 bc 47 60 88 bc 78 96 90 bc ba 93 9d 3c
       -0.019731555 -0.016647471 -0.017649874 0.01923548
0003d0 a1 4f 8c 3c c7 fc dc 3c e3 8c 63 ba ce 04 94 3b
       0.017127814 0.026976002 -0.00086803566 0.0045171743
0003e0 79 2f 90 3c da c4 a2 3c ca fa c5 3b f2 77 74 ba
       0.017600762 0.019869257 0.0060418593 -0.00093257346
0003f0 7b d9 de bc e8 23 a8 3c 05 cf f3 3c b8 1f 1f 3c
       -0.027203312 0.020524934 0.0297618 0.009712152

bias f4 [128]
000000 9b dd 0f bc 41 a2 42 bc a4 80 b8 bc 37 fb 05 3b
       -0.008780862 -0.011879505 -0.022522278 0.0020443925
000010 ce 42 00 bb 57 ba c8 bc f5 d8 e0 bc 8c 4f b1 3c
       -0.0019571069 -0.024502916 -0.027447203 0.021644376
000020 09 50 bb bc 8d 6b 9e bb 1d 0e 64 3c f3 2a 54 3b
       -0.022865312 -0.0048345984 0.0139193805 0.0032374233
000030 c5 2e 47 bc 35 d8 87 bc 24 30 06 bd 2e ae e9 3a
       -0.012157147 -0.016582588 -0.032760754 0.0017828399
000040 b6 9d fa 3b 3c 35 f7 bc b7 20 e9 3b 39 a2 4a bc
       0.007648195 -0.030176751 0.0071144956 -0.012367778
000050 70 cd f8 bc c5 85 f1 ba c2 1c d5 bc fd 9d 3e 3c
       -0.030371398 -0.0018426707 -0.02601469 0.011634347
000060 7d d9 ad bc af 60 95 bc 64 85 ba b9 1e b9 f7 3c
       -0.02122187 -0.018234579 -0.00035576068 0.030239638
000070 c9 e3 91 bc e1 89 bb bc fa ab c4 bc 74 b4 aa bc
       -0.017808812 -0.022892894 -0.024007786 -0.020838
000080 95 6f ed bc 0e 44 9d bc 8d 4e 12 3b 03 ca 20 3c
       -0.02898387 -0.01919749 0.0022324652 0.009813788
000090 f4 d2 cc 3c 44 06 ba 3c db 07 c7 bc 4f 52 e0 bb
       0.025002934 0.022708066 -0.024295738 -0.0068457494
0000a0 ab 93 07 3d c7 d6 00 3d 99 f2 fd 3c 7d 48 04 3c
       0.03309981 0.031454828 0.030999469 0.008073923
0000b0 5c 4a e7 3c 4f 77 e5 3c 84 28 01 bd 15 d0 13 bd
       0.0282337 0.028010992 -0.03153278 -0.036087114
0000c0 90 48 c6 bc 8d 19 d9 3c 80 b9 96 bb 9a c6 22 bd
       -0.024204522 0.026501441 -0.00459975 -0.039740182
0000d0 ae 63 05 bb 1d 30 92 3c 2a 6d e7 bc fb e9 c7 bb
       -0.0020353603 0.017845208 -0.028250296 -0.0061008907
0000e0 72 33 9d 3c 75 c4 12 bd 12 0f 1f 3c 24 76 b2 3b
       0.01918957 -0.035831887 0.009708183 0.0054462124
0000f0 00 63 f8 3c 10 17 56 bb a5 52 c0 3c 72 dd 53 bb
       0.030320644 -0.0032667555 0.023476908 -0.0032328037
000100 07 5b c6 3c 18 c7 4e bc a9 e2 84 bc bd 28 9a bc
       0.024213327 -0.01262071 -0.016221361 -0.018818254
000110 db 9e 3b bb 4a e1 68 bc 28 52 ba bc 08 2f 4e 3a
       -0.002862862 -0.014213869 -0.022744253 0.00078652846
000120 7e af df 3c ce d5 c8 b9 c2 57 91 3c 3c c7 ae bc
       0.02730536 -0.0003830627 0.017742041 -0.021335237
000130 10 bf 60 3c e0 c0 c5 bc e1 ac 19 ba 7e f6 7e 3c
       0.013717428 -0.024139822 -0.0005862248 0.015561698
000140 39 d4 d1 3c 9b 21 b3 3c 1f 7f 88 3b 5d 85 47 3b
       0.025613891 0.02186661 0.0041655446 0.003044448
000150 9e 6d eb 3c 01 8b 21 3c f8 bd 2a 3b 8d 95 09 3c
       0.028738793 0.009859801 0.0026053172 0.008397472
000160 48 75 90 bc 37 8d 41 3c b7 36 71 3c f3 26 d5 3b
       -0.017634049 0.011813453 0.014722518 0.0065048872
000170 1b 59 5e bb 3b 47 92 3c ac 60 2a 3a cd 10 e9 bb
       -0.0033927623 0.017856231 0.00064993906 -0.0071125985
000180 33 88 10 bd c2 8a 14 bd 7d ad 20 3c ea ea ab bb
       -0.03528614 -0.036265142 0.009806988 -0.00524651
000190 1b 68 d0 bb cc ac a6 3c b4 29 8f 3b 51 40 b0 bc
       -0.0063600666 0.020346068 0.004368985 -0.021515043
0001a0 8f e3 da 3c 4c cb ae bc ce 14 af 3c 2a 33 06 bd
       0.026719837 -0.021337174 0.021372225 -0.032763638
0001b0 17 f0 c9 3c b1 44 fa 3c f3 3f 6c bc 56 9c 9c bb
       0.024650617 0.030550333 -0.014419544 -0.004779379
0001c0 00 ea cc bc 49 42 ea ba 83 7d 15 3d 9f 2d dd 3c
       -0.025013924 -0.0017872538 0.03649665 0.026999293
0001d0 b6 13 0c bd 35 c4 59 3a 71 21 a0 3b 9b 73 93 3b
       -0.034198485 0.000830713 0.004886799 0.004499865
0001e0 08 3e 2d ba a6 44 6f 3c d3 d9 19 bc a2 68 1f bd
       -0.00066086696 0.014603769 -0.009390312 -0.038918145
0001f0 4c 6c f0 bc f0 b9 0c 3d a5 94 8c bc 36 51 ba 3b
       -0.029348515 0.03435701 -0.017160723 0.0056859506
