promptPGpot/checkpoints/exp1/ckpt_18.pt (torch, 394727 bytes, 2 tensors)

weight f4 [128, 768]
00000000: 0542 8fbc c40a 05bc df54 093d 2015 0abb
00000010: 883d 51bb 71d8 b73c b5d0 34bb 69ae cbbc
00000020: e3c2 acbc e2ea ba3c 641c f03b 076a c13c
00000030: 7d2c e23c a59b d23c 9af9 5a3c b805 0cbd
00000040: c214 503c 45c8 82bc e58c 8cbc cd60 42bd
00000050: 82ec 19bd e604 babc 6ff8 30bc e1d6 433c
00000060: 0d79 673b 9c49 f539 5261 c73c 36fe ed3c
00000070: fcbf d53c 45c9 873b fa49 b6bc 00a4 f9bc
00000080: 0e39 bb3c 9c31 dcbc 3c3b 77bb 4b6d 823c
00000090: 3f60 663c a679 ff3c bf57 1cbc 1706 1ebc
000000a0: bacf ba3c de56 753c c23a 97bb 3104 913b
000000b0: 09bf 30bc 0d93 063c 2dc0 073d a247 15bd
000000c0: bfb0 09bc 9f98 24bd 3e29 30bd 152d ebbc
000000d0: 5cb9 213d 9cbc fc3c 31bd bd3b a9d0 de3c
000000e0: ffab d3bc 63a4 3d3d d39e 03bd ae6e 65bc
000000f0: 48e0 1a3d 1151 b3bc 9023 b83a 8e14 4a3c
00000100: e427 773c 1cb0 a53b ee3d 53bc e79c 123d
00000110: 7baf ebbc 1848 113c 24ba 9dbc 9e45 7fbc
00000120: 076c 0e3d d03f 053c 248a 2fbc eaa5 0dbd
00000130: 285c 773c b2d3 a3bc 46f0 003c 9447 643a
00000140: 5300 07bd 0253 8e3c e230 33bc 1274 cdbc
00000150: 19a6 0a3d 32ff ff3c 9cde 213c 4426 bf3b
00000160: 8fdd e0bc d614 773b 7534 dc3c 8f7b 22bc
00000170: 086d b03c 7982 ae3c da5d d1bc dd94 8a3c
00000180: cd86 3b3a 2a8a fc3c de06 c63c d9a3 02bc
00000190: 7ffe 1dbd dce9 65bc 8692 1d3d 64d1 98bb
000001a0: 476c a9bb 0385 c6bc 9e81 de3c cc22 3dbb
000001b0: 62fd 54bc faa6 88ba 54dd ca3b fee7 a6bc
000001c0: 9788 2ebc 9fbf d6bc 6ab8 edbc 6ef3 78bb
000001d0: a49d 95bc d54e d63c 59b6 68bc a6ee 9f3b
000001e0: f209 163d efce ab3c b3af 473c 60f5 94bc
000001f0: 05cc 9dbc a20d edbb d283 b93b ff55 813c
00000200: d80a 0a3c dc98 f2bb b966 34bc ab10 7c3b
00000210: 4900 5c3c b58e c0bc 95f2 e9bc 8f3a 303a
00000220: 7094 c13c 8aa1 b8bc 4950 2abc 84ec f93c
00000230: d785 a8bc 15b3 3bbc f69c 0ebd e0f5 c93c
00000240: 8fa3 a7bc 0390 1c3d f1e4 b03c ef74 fbbc
00000250: e1cf 94bb 6f5d cebc 1d43 b3bc c702 8d3c
00000260: 9f2d f33c 4a0d 8c3c adc6 b0bc ba4e af3c
00000270: d098 6fbc afac d4bc 366d 233b e2a3 11bc
00000280: 9af8 44bc 1100 dd3c ffee 8d3c b834 a43c
00000290: d376 e0bc 4909 8c3c 54ba 99bc 367b d4bc
000002a0: c1c2 25bd 36c9 e1bc 6873 a0bb 5d76 ca3c
000002b0: 1ff2 b1bb 8c89 b4bc a1c8 3ebc 6956 d3bc
000002c0: 9aba 80bc 0fdb 803c 2244 13bb 5e64 283c
000002d0: 7aca adbc 0c5e 38bb 5868 8abb 187e 0dbd
000002e0: e809 16bd 5856 a23c cb36 0bbc d15b 46bc
000002f0: 6567 603c d6b5 8f3c bac2 833c 90f9 0f3c
00000300: 68e5 793c a96e bb3c ebee e6bc cb59 edbc
00000310: 1189 073c a20b a03c 17fb 493b 7790 853c
00000320: 8f56 ba3c 62c3 b53c 8f53 173d 253b ed3b
00000330: c958 8f3c 4293 29bc de95 303d 9b65 5fbc
00000340: 3418 073d e1d4 693c ca1a acbc a369 de3c
00000350: 9e9a 9f3b 58f6 24bd 9627 953c d442 e6bc
00000360: ff43 61bb 2ba1 f7bc 104a 9e3c 94b7 af3c
00000370: 6ca2 84bc b26c cd3c fa40 3ebc 6857 df3c
00000380: 594a 193d 2569 05bd 4069 b13c db3b dabc
00000390: b528 dcbc e224 21bc 616e 47bb e5f4 ac3b
000003a0: fc3f 32bc 3666 03bd 5ba6 93bc b9ce 823c
000003b0: 760b 5b3c e134 e63c 4cb3 cf3c 2ea2 12bc
000003c0: 003f 82bc cf10 8ebc fe0b b9bc e69f ae3c
000003d0: b284 bf3c a18b 143d 7168 cd3a 8f0a d63a
000003e0: a830 883c 8219 653c 55ed 873c d1c0 d8bb
000003f0: 2660 debc 45d0 be3c 61fd c53c 7e26 b53a
-0.017487535 -0.0081202425 0.033528205 -0.002106972 -0.0031927545 0.022442074 -0.002759022 -0.024863439
-0.021089023 0.022817079 0.007327603 0.023610128 0.027609104 0.025708983 0.013365174 -0.03418514
0.012700262 -0.015964637 -0.017157027 -0.047455598 -0.037579067 -0.022707414 -0.010801419 0.011953087
0.0035319955 0.00046784885 0.024338398 0.029051881 0.026092522 0.0041438662 -0.022252072 -0.03047371
0.022854354 -0.026879124 -0.0037724515 0.015921256 0.014061033 0.031185936 -0.009542405 -0.009645007
0.02280413 0.014974324 -0.004615159 0.0044255485 -0.010787734 0.008213771 0.033142257 -0.036445267
-0.008403956 -0.040184613 -0.04300808 -0.02870802 0.039483413 0.030851655 0.0057903756 0.027199106
-0.02583885 0.04629935 -0.03213389 -0.014003439 0.037811548 -0.021889241 0.0014048684 0.012334002
0.015085194 0.0050563943 -0.012893183 0.035794165 -0.028770199 0.008867286 -0.019253798 -0.015580563
0.03477099 0.00813289 -0.010714088 -0.034582056 0.015097655 -0.019998405 0.007869786 0.0008708176
-0.032959294 0.017373566 -0.010936948 -0.02507976 0.03384981 0.031249616 0.009879734 0.005833419
-0.027449397 0.0037701628 0.026880482 -0.009917154 0.021536365 0.021302449 -0.025557447 0.016916687
0.0007153571 0.0308276 0.024173196 -0.007973635 -0.038572785 -0.014032807 0.038469814 -0.004663633
-0.0051703784 -0.024233347 0.027161416 -0.0028859852 -0.012999864 -0.001042574 0.006190935 -0.020374294
-0.010652683 -0.026214419 -0.0290186 -0.0037986892 -0.018263645 0.026160637 -0.014203631 0.004880744
0.03663058 0.020972697 0.012187886 -0.01818341 -0.019262323 -0.007234291 0.005661466 0.015788076
0.008425437 -0.007403476 -0.011010819 0.0038462083 0.013427802 -0.023505548 -0.028558055 0.0006722593
0.02363035 -0.022537965 -0.010395118 0.030508287 -0.020571632 -0.011456271 -0.03481766 0.024653375
-0.020463733 0.038223278 0.021593543 -0.030695407 -0.0045413827 -0.025191037 -0.021882588 0.017213238
0.02968484 0.01709618 -0.021579111 0.021399844 -0.014623836 -0.025961248 0.002493692 -0.00888917
-0.012022162 0.02697757 0.017325876 0.02004467 -0.02740041 0.017094271 -0.018765606 -0.025937658
-0.040468935 -0.027561765 -0.00489657 0.024714643 -0.0054304744 -0.022038244 -0.011644513 -0.02579804
-0.015713979 0.015729455 -0.002247103 0.010277836 -0.021214712 -0.0028132228 -0.0042238645 -0.03454408
-0.03663054 0.019816563 -0.00849695 -0.012106852 0.013696526 0.01754276 0.016084064 0.008787528
0.015252449 0.022879915 -0.028190097 -0.02897348 0.008272425 0.019536797 0.0030819827 0.016304238
0.022746352 0.022187892 0.036944922 0.0072397166 0.01749839 -0.01035005 0.043111674 -0.0136350645
0.032982066 0.014271946 -0.021008868 0.02714998 0.0048707267 -0.040273994 0.018207353 -0.028108038
-0.0034372804 -0.030228218 0.019322425 0.021449842 -0.01619073 0.025076244 -0.011612171 0.027263358
0.03742442 -0.032570977 0.021656632 -0.02663987 -0.02687488 -0.009835454 -0.0030430781 0.005278217
-0.010879513 -0.032079898 -0.01802366 0.015967714 0.013369432 0.028101387 0.02535405 -0.008949799
-0.015899181 -0.017342 -0.022588726 0.02131648 0.023378704 0.036265973 0.0015671385 0.0016330051
0.016624764 0.013983132 0.01659266 -0.0066147824 -0.027145457 0.02329267 0.024168672 0.0013820676

bias f4 [128]
00000000: aa30 f4bb 9396 e5bb a2cc e6bc a2fb 4a3b
00000010: 4d6e 99ba 93e2 ccbc 637a dabc fd7a bb3c
00000020: aed7 cdbc f8c9 0abb 8b94 5b3c 5aa9 013b
00000030: 65dd 83bc 9641 b5bc 5314 12bd 152a 343b
00000040: ad89 e53b fca8 ecbc 4b8e bc3b 4310 26bc
00000050: b7db f0bc 66a8 08bb 051b cfbc e079 7c3c
00000060: 639c c6bc 9dfd 89bc fc7d c139 40eb d73c
00000070: 08b0 83bc d3a0 aabc 23bd e0bc 1524 96bc
00000080: 4826 f0bc a251 9dbc e87f e9ba 0eb6 1f3c
00000090: d491 d03c 00a9 b33c f7fd bebc d534 5fbc
000000a0: 8e5c fa3c 6473 ec3c 0947 c43c a557 d23b
000000b0: df93 fb3c 785b e03c 301d 01bd 86c1 0dbd
000000c0: af9c cfbc b0dc e73c f769 fcba 22b9 17bd
000000d0: a0b0 e5ba f74c 413c 26cc bebc 26ae b5ba
000000e0: 2f4f 8a3c 79f8 01bd bbcd 713c 90e3 4e3b
000000f0: 5a4a ed3c d0e6 53bb 74d3 e63c d81f 6cbb
00000100: 1abc a43c 6654 52bc c5cf 6bbc da0e 9abc
00000110: f5db 83bb 833d 94bc b25a a9bc fc77 c83b
00000120: 2c29 dd3c 29fc a3b9 87a2 b33c 3333 a9bc
00000130: 31dc 643c 69c3 dbbc 7b9e e0bb ab8d 993c
00000140: b976 da3c 9fc3 c53c a131 7e3b 3358 053c
00000150: 2de8 e53c 681c 3e3c 36bd 0139 7ead 003c
00000160: 48d2 9cbc 9107 603c 3c67 4b3c 4dbf 223c
00000170: c93f 17bb 5bbe b13c c2d8 ce3a 9cd3 d9bb
00000180: aba7 20bd 44ca 06bd da8b ff3b 7552 07bc
00000190: 7338 cbbb 15ff bb3c 33e5 2d3b 4e4f 9ebc
000001a0: c5b8 c73c 5fcb 9dbc ce83 bd3c 82e5 fbbc
000001b0: 4533 b93c d7e9 ed3c c0d0 96bc f13b ecba
000001c0: 0abc d8bc 0cf2 5fbb 0c86 0a3d 10b7 e43c
000001d0: f62e 02bd 1e5c a43b b4b8 703a 2d20 943b
000001e0: 6ea1 a8b9 1a7c 913c 5ca3 61bc 679b 04bd
000001f0: 32ef efbc 9435 fb3c d821 72bc 06bb 093c
-0.0074520903 -0.0070064752 -0.028173748 0.0030972739 -0.0011705846 -0.025010383 -0.026669687 0.022885794
-0.025127258 -0.0021177512 0.013402115 0.001978478 -0.01609678 -0.022126 -0.035663914 0.0027490903
0.0070049376 -0.028889172 0.0057542673 -0.010135713 -0.029401643 -0.0020852326 -0.025281439 0.015409917
-0.024244493 -0.016844565 0.00036905694 0.026357293 -0.01607515 -0.02082864 -0.027433937 -0.018327752
-0.029315129 -0.019203965 -0.0017814608 0.009747995 0.025460161 0.021931171 -0.02331446 -0.013623436
0.030561712 0.028863616 0.023959653 0.0064191394 0.030710159 0.027387366 -0.031521976 -0.034608386
-0.025343267 0.028303474 -0.0019257654 -0.03704179 -0.0017523952 0.011798135 -0.023290705 -0.0013861104
0.01688346 -0.031731103 0.014758523 0.0031568743 0.028966118 -0.003233362 0.028177 -0.0036029723
0.020109225 -0.012837505 -0.014392798 -0.01880591 -0.0040240237 -0.018095737 -0.02067313 0.006117819
0.026997171 -0.00031277657 0.021928085 -0.020654297 0.013968513 -0.026826577 -0.00685483 0.01874431
0.02666794 0.024141131 0.0038786905 0.008138704 0.028064812 0.011603452 0.00012372885 0.007853864
-0.019143239 0.013673679 0.01241475 0.009933305 -0.002307879 0.021697214 0.0015781152 -0.0066475403
-0.0392224 -0.03290774 0.007798654 -0.008259405 -0.0062017976 0.022948781 0.0026534318 -0.019324925
0.024380097 -0.019262014 0.023134138 -0.030749086 0.022607455 0.029042168 -0.018410087 -0.0018023235
-0.026456852 -0.003417137 0.033819243 0.027919322 -0.031783067 0.005015864 0.00091827963 0.004520437
-0.00032163732 0.017759372 -0.013771858 -0.032374766 -0.029288862 0.030665196 -0.014778577 0.008406406
