promptPGpot/checkpoints/exp1/ckpt_10.pt (torch, 394727 bytes, 2 tensors)

weight f4 [128, 768]
-0.015372266 -0.007812016 0.03090863 0.0058372277 -2.9042872e-05 0.027871294 -0.00010253026 -0.022707941
-0.026922587 0.027829744 0.017120646 0.023666453 0.030459015 0.022092402 0.016538393 -0.028898802
0.017624566 -0.012174066 -0.005353987 -0.0363516 -0.037914917 -0.021812985 -0.016560048 0.018652994
-0.0035528827 0.013710064 0.022568058 0.025437267 0.016497945 0.007277328 -0.020707607 -0.019753277
0.01908764 -0.0298606 0.0040253946 0.0089756595 0.008141577 0.023871548 -0.015537478 -0.022924036
0.024286756 0.012191345 -0.010662121 0.0092611695 -0.017228926 -0.007225736 0.035364997 -0.030233229
-0.013378113 -0.037598386 -0.04215891 -0.026870979 0.030499185 0.029206917 0.005563513 0.027570132
-0.025989393 0.029253457 -0.02462032 -0.019541483 0.033792816 -0.025270348 -0.0018330887 0.0027070988
0.00994903 0.009094876 0.0030118034 0.040663186 -0.024831142 0.0059231143 -0.016135413 -0.021696433
0.03151621 0.0026579294 0.00012427178 -0.03066921 0.013304461 -0.02117451 0.006005886 0.0053424644
-0.03777769 0.014585328 -0.009907995 -0.018643677 0.03215453 0.0261309 0.007578251 0.0007318981
-0.02459802 0.0076913144 0.025548374 0.005594156 0.022825861 0.015581588 -0.033510126 0.014457902
-0.006750848 0.03590631 0.035160057 -0.00047286827 -0.031064749 -0.014788114 0.032914706 -0.0035975254
0.0026874985 -0.016827837 0.023624483 -0.0022245722 -0.0076203947 -0.0016792048 0.008937656 -0.02666078
-0.013595012 -0.029037822 -0.030367913 0.005786328 -0.019017588 0.019061992 -0.023450654 0.005720709
0.036804438 0.018334957 0.00908801 -0.020205956 -0.0129274465 -0.010914292 0.0109637985 0.011226679
0.010703772 0.000422628 -0.009657786 -0.0027976227 0.01490548 -0.02242231 -0.029449832 0.00022922085
0.019306678 -0.020244906 -0.016118912 0.027435903 -0.019650577 -0.0122342305 -0.034865227 0.019658906
-0.023816152 0.027560672 0.030817123 -0.02224062 0.0006513735 -0.019152377 -0.007969771 0.019430865
0.03384926 0.021869281 -0.011775513 0.030040255 -0.016565088 -0.025882676 0.0041434076 -0.011333477
-0.009337563 0.03215117 0.011681427 0.015271811 -0.026221832 0.027856035 -0.026173692 -0.0285189
-0.038326457 -0.01634021 -0.017264355 0.02430828 0.0009805807 -0.019591205 -0.013059758 -0.016761139
-0.020965654 0.021358766 -0.00123514 0.009994796 -0.020234618 -0.00020552616 0.0054985825 -0.0377097
-0.03518665 0.022316135 -0.00047567033 -0.015142873 0.018664759 0.02356098 0.020138418 0.019802203
0.020294828 0.016496072 -0.029126994 -0.026398662 -9.254119e-05 0.016256995 -2.0797102e-05 0.008612553
0.016957177 0.023808345 0.031611316 0.018641982 0.011573032 -0.01146956 0.04675486 -0.02972143
0.028853 0.013894328 -0.01669824 0.023066653 -0.011520371 -0.039952725 0.01838535 -0.026081752
-0.0016298719 -0.02804457 0.020714233 0.017773706 -0.018935649 0.027880205 -0.009962727 0.031066373
0.038925495 -0.027924089 0.017420318 -0.019722063 -0.026753288 -0.008317735 -0.0029549021 0.009192798
-0.010596143 -0.036670174 -0.024627024 0.0152641395 0.018613718 0.025963573 0.028004497 -0.010424582
-0.021631062 -0.018527562 -0.021139834 0.016620273 0.020235397 0.029548842 0.0011539615 0.0070652566
0.017797502 0.01979648 0.009451904 -0.001846865 -0.031191349 0.014165014 0.030402934 0.00939566
00000000: f5db 7bbc f1fb ffbb 1834 fd3c 3746 bf3b
00000010: 18a1 f3b7 5752 e43c 8405 d7b8 0106 babc
00000020: c28c dcbc 34fb e33c 9940 8c3c 26e0 c13c
00000030: 2f85 f93c 20fb b43c 867b 873c 2ebd ecbc
00000040: 6561 903c bc75 47bc 8070 afbb 6ae5 14bd
00000050: ac4c 1bbd 25b1 b2bc f0a8 87bc 2ace 983c
00000060: 7bd7 68bb 2da0 603c a6e0 b83c d161 d03c
00000070: b326 873c a776 ee3b 00a3 a9bc a0d1 a1bc
00000080: af5d 9c3c 389e f4bc 75e7 833b a50e 133c
00000090: 4064 053c 448e c33c e890 7ebc 30cb bbbc
000000a0: 05f5 c63c 35be 473c 2db0 2ebc 29bc 173c
000000b0: ad23 8dbc dec5 ecbb e3da 103d adab f7bc
000000c0: df2f 5bbc c400 1abd d2ae 2cbd 8720 dcbc
000000d0: 6dd9 f93c 5843 ef3c 214e b63b c2da e13c
000000e0: b5e7 d4bc f2a4 ef3c 8eb0 c9bc 7615 a0bc
000000f0: 566a 0a3d c303 cfbc 4044 f0ba 9569 313b
00000100: 4201 233c ad02 153c ad61 453b 718e 263d
00000110: ae6a cbbc af16 c23b 6a2e 84bc b8bc b1bc
00000120: 2417 013d a830 2e3b f44e 0239 ff3d fbbc
00000130: f4fa 593c 2a76 adbc 06cd c43b d70f af3b
00000140: c7bc 1abd 4df7 6e3c 2555 22bc a0ba 98bc
00000150: 78b4 033d 7810 d63c fa52 f83b dadc 3f3a
00000160: c981 c9bc 6c07 fc3b d34a d13c 2f4f b73b
00000170: 4dfd ba3c eb49 7f3c ea41 09bd d6e0 6c3c
00000180: 3836 ddbb 7f12 133d fe03 103d 4eeb f7b9
00000190: 807b febc d849 72bc 92d1 063d 76c4 6bbb
000001a0: be20 303b 88da 89bc 2288 c13c 21ca 11bb
000001b0: 81b4 f9bb c318 dcba 3f6f 123c b567 dabc
000001c0: 9dbd 5ebc bae0 edbc 21c6 f8bc 3d9b bd3b
000001d0: c6ca 9bbc e527 9c3c 961b c0bc c974 bb3b
000001e0: 40c0 163d 3133 963c e0e5 143c f686 a5bc
000001f0: a4cd 53bc dcd1 32bc 81a1 333c 1bf0 373c
00000200: e05e 2f3c 2c94 dd39 b13b 1ebc 5258 37bb
00000210: 1d36 743c feae b7bc c640 f1bc 015b 7039
00000220: 0a29 9e3c a5d8 a5bc cf0b 84bc 42c1 e03c
00000230: 3ffa a0bc 1572 48bc d7ce 0ebd b70b a13c
00000240: 171a c3bc ebc6 e13c 3174 fc3c f631 b6bc
00000250: f0c0 2a3a 72e5 9cbc a493 02bc 7a2d 9f3c
00000260: 86a5 0a3d 3527 b33c 15ee 40bc fb16 f63c
00000270: 82b3 87bc e807 d4bc 6cc5 873b 0cb0 39bc
00000280: 94fc 18bc f2b0 033d 7563 3f3c 9e36 7a3c
00000290: 2bcf d6bc 5732 e43c 366a d6bc 78a0 e9bc
000002a0: 34fc 1cbd e7db 85bc fa6d 8dbc 2822 c73c
000002b0: d486 803a bc7d a0bc 98f8 55bc a84e 89bc
000002c0: 2ac0 abbc 94f8 ae3c 6ce4 a1ba 36c1 233c
000002d0: 12c3 a5bc 8282 57b9 742d b43b 7d75 1abd
000002e0: e01f 10bd 54d0 b63c 6463 f9b9 d019 78bc
000002f0: d6e6 983c f502 c13c 53f9 a43c 3b38 a23c
00000300: 5741 a63c c522 873c bc9b eebc 0242 d8bc
00000310: ac12 c2b8 642d 853c 7075 aeb7 aa1b 0d3c
00000320: c7e9 8a3c b809 c33c de7a 013d 12b7 983c
00000330: d09c 3d3c d2ea 3bbc 0682 3f3d 5b7a f3bc
00000340: 205d ec3c 09a5 633c bfca 88bc 47f6 bc3c
00000350: f0bf 3cbc 78a5 23bd e09c 963c 66a9 d5bc
00000360: 6da1 d5ba babd e5bc e5b0 a93c 2a9a 913c
00000370: ef1e 9bbc 0765 e43c b53a 23bc e87e fe3c
00000380: 5770 1f3d 0fc1 e4bc 0eb5 8e3c 2a90 a1bc
00000390: b629 dbbc 1c47 08bc 08a7 41bb 649d 163c
000003a0: 729b 2dbc 7733 16bd 9dbe c9bc 7116 7a3c
000003b0: cc7b 983c 8fb1 d43c b069 e53c decb 2abc
000003c0: a033 b1bc 1dc7 97bc 722d adbc 3d27 883c
000003d0: b4c4 a53c 6a10 f23c 8640 973a ab83 e73b
000003e0: 11cc 913c 3a2c a23c 29dc 1a3c 8212 f2ba
000003f0: 0085 ffbc 6014 683c 930f f93c 41f0 193c

bias f4 [128]
-0.008895627 -0.00881024 -0.025667597 0.0031700532 -0.003439955 -0.02680655 -0.028531224 0.021751713
-0.02549753 -0.0041812817 0.012118995 0.005070712 -0.014326876 -0.018262157 -0.032976974 0.0025368917
0.0070364545 -0.030569715 0.00608997 -0.010024318 -0.03150089 -0.002722186 -0.026767768 0.014929381
-0.023411443 -0.017747717 -0.00034598546 0.027149111 -0.018418286 -0.022979587 -0.026133226 -0.020836953
-0.029882817 -0.021807935 0.0005123466 0.009758253 0.026234267 0.021596672 -0.025624711 -0.011420974
0.032052968 0.03006316 0.027105274 0.0070821946 0.026570309 0.027320806 -0.031365283 -0.03524415
-0.022405732 0.025746575 -0.0032796834 -0.037751816 -0.0026243345 0.015464876 -0.024435462 -0.0023529604
0.015733842 -0.033752862 0.013349698 0.001878087 0.030335365 -0.005392763 0.026733544 -0.0011624367
0.021056373 -0.011953937 -0.015058572 -0.02090991 -0.00096946425 -0.017023522 -0.023051916 0.0044452325
0.028896382 0.0009281781 0.020909648 -0.021410381 0.01116453 -0.024894724 -0.004452963 0.017373826
0.02561629 0.024452906 0.002233759 0.005222073 0.028015608 0.011631796 0.0012177292 0.007375821
-0.018632563 0.013600005 0.014795778 0.0069049145 -0.003953701 0.019672222 0.0023353463 -0.005334257
-0.03922159 -0.03593713 0.009049871 -0.007122265 -0.0055481754 0.019771708 0.0032938172 -0.020141283
0.025174493 -0.0185561 0.021436645 -0.03101012 0.02407596 0.028522626 -0.016037274 -0.0037669097
-0.026711684 -0.00402098 0.03551623 0.027104417 -0.032579523 0.0038916734 0.0015224491 0.0060574515
-0.0021500215 0.015800346 -0.0117814 -0.036227353 -0.030643884 0.03473241 -0.015350127 0.0064945626
00000000: f7be 11bc d358 10bc da44 d2bc abc0 4f3b
00000010: de70 61bb 6999 dbbc 50ba e9bc a630 b23c
00000020: 32e0 d0bc 2203 89bb c08e 463c 3728 a63b
00000030: 46bb 6abc 859a 95bc dd12 07bd fb41 263b
00000040: 0f92 e63b 576d fabc 5f8e c73b 093d 24bc
00000050: 1407 01bd b466 32bb 1448 dbbc 5d9a 743c
00000060: 5bc9 bfbc a963 91bc 6265 b5b9 d067 de3c
00000070: f2e1 96bc b03f bcbc 5915 d6bc 42b2 aabc
00000080: cfcc f4bc 8ea6 b2bc 004f 063a 14e1 1f3c
00000090: 3fe9 d63c 81eb b03c eaea d1bc 091f 3bbc
000000a0: f949 033d 0447 f63c e10b de3c c111 e83b
000000b0: faa9 d93c e2cf df3c e278 00bd 2b5c 10bd
000000c0: 3a8c b7bc 7bea d23c f5ef 56bb a6a1 1abd
000000d0: 07fd 2bbb 6460 7d3c e12c c8bc 2034 1abb
000000e0: 42e4 803c 7140 0abd b1b8 5a3c 242a f63a
000000f0: df81 f83c c6b5 b0bb 4e00 db3c e75c 98ba
00000100: 6a7e ac3c 72da 43bc 3bb8 76bc 424b abbc
00000110: a523 7eba ea74 8bbc 5fd7 bcbc 50a9 913b
00000120: 1bb8 ec3c fa50 733a b64a ab3c d364 afbc
00000130: 6feb 363c 05f0 cbbc 29ea 91bb 8e53 8e3c
00000140: 41d9 d13c 7651 c83c 4264 123b ec1d ab3b
00000150: fd80 e53c 4a93 3e3c 369c 9f3a dfb0 f13b
00000160: 51a3 98bc 8ed2 5e3c fe69 723c 9f42 e23b
00000170: 0c8e 81bb a427 a13c 9c0c 193b feca aebb
00000180: d1a6 20bd d032 13bd e945 143c e461 e9bb
00000190: 78cd b5bb 47f8 a13c 15dd 573b 55ff a4bc
000001a0: bd3a ce3c f602 98bc e79b af3c ef08 febc
000001b0: f33a c53c 48a8 e93c 9a60 83bc 42de 76bb
000001c0: 76d2 dabc 6dc2 83bb 7779 113d 150a de3c
000001d0: 1b72 05bd 720b 7f3b ea8c c73a 967d c63b
000001e0: 60e7 0cbb ba6f 813c c606 41bc 2263 14bd
000001f0: e208 fbbc 9243 0e3d 197f 7bbc 57d0 d43b
