promptPGpot/checkpoints/exp0learn_policy_autopot_gamma_selfask/ckpt_9.pt (torch, 394659 bytes, 2 tensors)

weight f4 [128, 768]
0	0xbc7c015a	-0.015381182
1	0xbbfead77	-0.0077721435
2	0x3d1e3121	0.03862107
3	0x3ba6ae1f	0.005086675
4	0xbb9ed2a6	-0.0048468886
5	0x3d05f812	0.03270728
6	0xbbc2459d	-0.0059287087
7	0xbcd25def	-0.025679557
8	0xbccc822d	-0.024964416
9	0x3cc366e8	0.02385278
10	0x3caacdd1	0.020850094
11	0x3ca08efe	0.019599434
12	0x3cb9ad14	0.022665538
13	0x3c8bff3e	0.017089482
14	0x3c184f85	0.009296303
15	0xbca76a59	-0.020436453
16	0x3bfdff5d	0.007751389
17	0xbc6a47f2	-0.01429938
18	0xbbc673b8	-0.006056275
19	0xbd016ac6	-0.031595968
20	0xbceeff59	-0.029174494
21	0xbcab3653	-0.020899927
22	0xbbf1cdd0	-0.007379271
23	0x3c9da16c	0.019242011
24	0xbbdb4292	-0.0066912854
25	0x3c2bcc37	0.0104857
26	0x3cdff200	0.027337074
27	0x3d03e4a8	0.032200485
28	0x3caff7ae	0.021480408
29	0x3c9eaf8b	0.019370815
30	0xbca7758d	-0.020441795
31	0xbca16c98	-0.019705102
32	0x3c9be89b	0.019031813
33	0xbcea7043	-0.028617984
34	0x3b43a682	0.0029853885
35	0x3b0fab93	0.0021922335
36	0x3c0b001b	0.008483912
37	0x3d140cac	0.036144897
38	0xbcb9b802	-0.02267075
39	0xbcba4037	-0.022735698
40	0x3c97db3a	0.018537153
41	0x3b576912	0.0032869023
42	0xbc15e829	-0.00914959
43	0x3b9d4dcb	0.0048005334
44	0xbc6f6d10	-0.014613405
45	0xbc102263	-0.008797261
46	0x3cfa450f	0.030550508
47	0xbc760e4e	-0.015018059
48	0xbc32734a	-0.010891745
49	0xbd23740b	-0.03990559
50	0xbd0f0fa1	-0.034927014
51	0xbcf05cf8	-0.029341206
52	0x3cd3e2c9	0.025864976
53	0x3d106c47	0.03525951
54	0x3be5dd81	0.0070149307
55	0x3cd29ad3	0.025708592
56	0xbd1e7325	-0.03868403
57	0x3cb57eeb	0.022155246
58	0xbd225c77	-0.039638963
59	0xbcb2a0a4	-0.021805115
60	0x3d01bd82	0.03167487
61	0xbcba79be	-0.02276313
62	0x3b4e5467	0.0031483413
63	0x3be84b95	0.007089088
64	0x3c5f0e37	0.013614229
65	0x3ca367ff	0.01994705
66	0x3c2b0523	0.010438236
67	0x3d04c3dd	0.032413352
68	0xbcd118d7	-0.02552454
69	0x3c0dbe37	0.008651308
70	0xbc81792a	-0.015804846
71	0xbc5236fc	-0.012830492
72	0x3ce72a9c	0.02821856
73	0x37e77630	2.7592381e-05
74	0x39ee1a73	0.00045414604
75	0xbd08dcc6	-0.03341367
76	0x3ba67fde	0.005081161
77	0xbcefe5fd	-0.029284472
78	0x3c96eeb7	0.018424375
79	0x3c744990	0.014910117
80	0xbd25d5aa	-0.04048697
81	0x3c94c998	0.018162534
82	0xbc8d3ad9	-0.017239975
83	0xbcc64a9d	-0.0242055
84	0x3ced694e	0.028980877
85	0x3d00fff0	0.03149408
86	0x3bf23720	0.0073918253
87	0x3bd54631	0.0065086116
88	0xbcefe86c	-0.029285632
89	0x3bada9b9	0.0052997735
90	0x3ccac163	0.024750417
91	0x3c6233f3	0.013806331
92	0x3d0b714f	0.034043606
93	0x3c93084f	0.017948298
94	0xbce2367a	-0.027613867
95	0x3c55ccfb	0.013049359
96	0xba006192	-0.00048973516
97	0x3ce9fa6e	0.028561797
98	0x3d11c24d	0.03558569
99	0xba355e2d	-0.00069186353
100	0xbce3aa2f	-0.02779111
101	0xbcbc6f28	-0.023002222
102	0x3cc988ef	0.024601428
103	0xbc3de89e	-0.011591105
104	0xbba95c1f	-0.0051684524
105	0xbcdcf2e6	-0.026971292
106	0x3d167395	0.03673132
107	0xbb14a079	-0.0022678657
108	0xbbddbd9d	-0.0067669884
109	0xbb659cb7	-0.0035036036
110	0x3ae44bcc	0.0017417609
111	0xbd0113ed	-0.031513143
112	0xbc57b9b8	-0.013166837
113	0xbcb12b59	-0.021627115
114	0xbd00d9d0	-0.031457722
115	0x3b9dcd6a	0.004815747
116	0xbc56aac1	-0.013102234
117	0x3cd8a01f	0.02644354
118	0xbc857aff	-0.016294
119	0x3c68c3f8	0.014206879
120	0x3cf0f3e2	0.029413167
121	0x3cd75738	0.026286706
122	0x3c80baff	0.015714167
123	0xbccdacba	-0.025106777
124	0xbc9e07b3	-0.01929078
125	0xbc0df28a	-0.008663783
126	0x3bd4927c	0.006487189
127	0x3c9ce5da	0.01915257
128	0x3b80d49b	0.0039315945
129	0xbc45057c	-0.012025233
130	0xbb8e9f52	-0.0043524886
131	0xbbabd31c	-0.005243672
132	0x3c3f27dd	0.011667219
133	0xbc466c9c	-0.012110855
134	0xbd07a7c6	-0.033118986
135	0x3a32f9bc	0.00068273745
136	0x3c0ca729	0.008584776
137	0xbcb9b4ed	-0.02266928
138	0xbca245f4	-0.019808747
139	0x3d06b706	0.03288939
140	0xbcd8e6c8	-0.026477233
141	0xbc875903	-0.016521936
142	0xbd19987f	-0.037498947
143	0x3cd9c3cb	0.02658262
144	0xbce90081	-0.028442623
145	0x3cc8e3ae	0.024522629
146	0x3d0031eb	0.031297605
147	0xbcc66037	-0.0242158
148	0xbc43f33f	-0.01195985
149	0xbc95d253	-0.018288767
150	0xbba6ce54	-0.005090514
151	0x3cda7c03	0.026670462
152	0x3cd5130c	0.026010059
153	0x3caff946	0.021481168
154	0xbc3e22cf	-0.011604979
155	0x3d071af0	0.032984674
156	0xbcdd708f	-0.027031211
157	0xbcbf68a6	-0.02336533
158	0xbbd9b486	-0.0066438345
159	0xbc7b97b0	-0.015355989
160	0xbbf7f3b8	-0.0075668953
161	0x3d0657a4	0.032798424
162	0x3c764362	0.015030714
163	0x3c88b534	0.016687967
164	0xbcd723f0	-0.026262254
165	0x3cb9c625	0.02267749
166	0xbc9e5080	-0.019325495
167	0xbcb1b137	-0.021690948
168	0xbd0379fc	-0.032098755
169	0xbc918cae	-0.017767277
170	0xbcdf52b1	-0.02726111
171	0x3d16a91a	0.03678236
172	0xbab0589b	-0.0013454141
173	0xbc97faff	-0.018552301
174	0xbc896f9a	-0.016776849
175	0xbca4dc80	-0.020124674
176	0xbcfff033	-0.031242466
177	0x3cc3f77c	0.02392172
178	0xbbe1db73	-0.0068926155
179	0x3cb1bc54	0.021696247
180	0xbcadb8c2	-0.021206263
181	0xbbd870b0	-0.0066052303
182	0x3b0de886	0.0021653487
183	0xbd0aa07f	-0.033844467
184	0xbd058298	-0.032595247
185	0x3ca917b6	0.020641189
186	0x3bce89b5	0.006303037
187	0xbc6b1265	-0.014347647
188	0x3ced8e70	0.028998584
189	0x3c8440fe	0.016144272
190	0x3c490f4f	0.012271716
191	0x3c29750d	0.0103428485
192	0x3ccfd3bf	0.025369523
193	0x3cc140f4	0.023590542
194	0xbcd0d41f	-0.025491772
195	0xbd0a0bca	-0.03370265
196	0x3b708063	0.0036697618
197	0x3c9e40aa	0.019317944
198	0xbbef8919	-0.0073100445
199	0x3c0ea310	0.008705869
200	0x3cb87bd6	0.022519987
201	0x3c362de9	0.011119344
202	0x3d019e80	0.031645298
203	0x3b0e91ed	0.002175446
204	0x3bed934b	0.0072502247
205	0xbbf5eed3	-0.0075052767
206	0x3d0bbf5c	0.03411804
207	0xbd243712	-0.04009158
208	0x3cec0cd0	0.028814703
209	0x3c65f265	0.014034842
210	0xbccc2851	-0.024921568
211	0x3cbe108a	0.023201246
212	0xbc906c00	-0.017629623
213	0xbd16d949	-0.036828313
214	0x3c7db382	0.0154846925
215	0xbc889f61	-0.01667756
216	0xba872dcd	-0.0010313332
217	0xbc84151c	-0.016123347
218	0x3cd32b23	0.025777405
219	0x3c55699d	0.013025668
220	0xbc958b84	-0.018255003
221	0x3cd09c45	0.02546514
222	0xbc34a4ce	-0.011025621
223	0x3d231788	0.039817363
224	0x3d10e1dd	0.03537165
225	0xbd267795	-0.040641386
226	0x3cb6f454	0.022333302
227	0xbcc25baa	-0.02372535
228	0xbca99d8a	-0.020705003
229	0xbc4204df	-0.011841982
230	0xbb9a7208	-0.0047133006
231	0x3bac3a8f	0.005256004
232	0xbbd9a648	-0.0066421367
233	0xbd0266ab	-0.031836193
234	0xbca73d07	-0.020414842
235	0x3ce07524	0.027399607
236	0x3ca7a507	0.020464433
237	0x3d023e2b	0.03179757
238	0x3d08f3f0	0.033435762
239	0xbc12f839	-0.008970314
240	0xbc036788	-0.008020289
241	0xbc5cce7b	-0.013476963
242	0xbcb14e69	-0.021643834
243	0x3cc60645	0.024172911
244	0x3c9a3e2f	0.01882848
245	0x3d18a006	0.037261985
246	0x38f16750	0.00011511019
247	0x3b777975	0.0037761603
248	0x3ca44de6	0.020056676
249	0x3c234d6e	0.009967191
250	0x3c2a8df0	0.010409817
251	0xbb11afcc	-0.0022230027
252	0xbc7cd4c4	-0.015431587
253	0x3d040132	0.032227702
254	0x3d146a62	0.036234267
255	0x3bf29b51	0.007403769

bias f4 [128]
0	0xbb8874e6	-0.004164326
1	0xbba390ed	-0.0049916417
2	0xbceb43af	-0.028718797
3	0x3c215451	0.009846763
4	0x3b3fbe6d	0.002925779
5	0xbcf82dee	-0.030295338
6	0xbccd609a	-0.025070477
7	0x3c8a1e6d	0.016860211
8	0xbc9e9113	-0.019356286
9	0xbc0b7d0c	-0.0085137
10	0x3c032776	0.008005014
11	0x3bc63b58	0.006049555
12	0xbc9ff5a9	-0.01952632
13	0xbcd3628a	-0.025803823
14	0xbcef2ddb	-0.02919667
15	0xbae17a6c	-0.0017202622
16	0x3c6907d2	0.014223056
17	0xbcc694ae	-0.024240818
18	0x3b806943	0.003918798
19	0xbc874522	-0.016512457
20	0xbcd84db9	-0.026404249
21	0xbbb90ec4	-0.005647512
22	0xbcb4028e	-0.021973874
23	0x3ca813d6	0.020517271
24	0xbcbc973e	-0.023021337
25	0xbc7f0d12	-0.015567081
26	0xbb8284c7	-0.0039831134
27	0x3d0e6043	0.03475977
28	0xbcd1b5e7	-0.025599433
29	0xbcdccad2	-0.026952181
30	0xbce71774	-0.028209426
31	0xbcc04c48	-0.023473874
32	0xbd12e808	-0.035865813
33	0xbcce69d5	-0.025196949
34	0x3af7af6e	0.0018896887
35	0x3b8c4250	0.004280366
36	0x3d020a39	0.03174803
37	0x3cb4034b	0.021974226
38	0xbcfc2130	-0.030777544
39	0xbb4f4e71	-0.0031632448
40	0x3d0f986f	0.03505748
41	0x3cf1abc8	0.029500857
42	0x3cc8c112	0.024506126
43	0x3b2df441	0.0026543292
44	0x3d0969d3	0.033548187
45	0x3cba6ed2	0.022757921
46	0xbd190ebd	-0.03736757
47	0xbcf2d815	-0.029644052
48	0xbca389bc	-0.019963138
49	0x3cf67077	0.030082924
50	0xb9fd19fd	-0.00048275283
51	0xbd2421ce	-0.0400713
52	0xbb392ce4	-0.0028255517
53	0x3c109c65	0.00882635
54	0xbc94cd55	-0.018164316
55	0xbbd6f6e5	-0.006560194
56	0x3c2ecdbf	0.010669171
57	0xbd1300b2	-0.035889335
58	0x3c67d02a	0.014148751
59	0xba2c9605	-0.0006583634
60	0x3d14e699	0.036352728
61	0xbb9491c6	-0.004533979
62	0x3cb9c74f	0.022678046
63	0x39e8db1e	0.00044413743
64	0x3c8ba0e6	0.017044496
65	0xbc81cb5c	-0.01584404
66	0xbc2fc57e	-0.010728238
67	0xbcd93ef1	-0.02651927
68	0x3bcfa20b	0.0063364557
69	0xbc96f55d	-0.018427545
70	0xbce112f3	-0.027474856
71	0x3aef8101	0.0018272699
72	0x3d155e81	0.03646708
73	0xbb89a41e	-0.0042004725
74	0x3c9e5e02	0.019331936
75	0xbcb7ad70	-0.022421569
76	0x3be4a09e	0.006977155
77	0xbc92c0b9	-0.017914163
78	0xbc33ca30	-0.010973498
79	0x3c4ca017	0.01248934
80	0x3cf5c9e5	0.030003497
81	0x3c9b992b	0.018993935
82	0x3bb688b4	0.0055704955
83	0x3c512911	0.012766139
84	0x3ccd2dc9	0.025046246
85	0x3c7376a7	0.014859832
86	0xbb32367a	-0.0027193115
87	0x3ba3dc85	0.005000653
88	0xbcc06cc7	-0.02348937
89	0x3caa6172	0.020798419
90	0x3c8dfcb6	0.017332416
91	0x3bd3b810	0.006461151
92	0x3a3543c8	0.0006914702
93	0x3cccfad4	0.025021948
94	0x3befbb04	0.007315995
95	0xbc308fa3	-0.010776433
96	0xbcfc3ce3	-0.030790752
97	0xbd1fe537	-0.039036956
98	0x3b801f48	0.003909979
99	0xbc512fe6	-0.0127677675
100	0xbc213508	-0.009839304
101	0x3cbb0dd4	0.022833742
102	0x3bce8527	0.006302494
103	0xbcc6eb30	-0.024282068
104	0x3ceeea7f	0.02916455
105	0xbcc3af4b	-0.023887297
106	0x3c6553cf	0.013997032
107	0xbd077f25	-0.03308024
108	0x3cfd0afe	0.03088903
109	0x3d03d52b	0.032185715
110	0xbcbbeefd	-0.022941107
111	0xbc0cb6a3	-0.008588466
112	0xbcfa8317	-0.030580087
113	0xbbf62038	-0.007511165
114	0x3d1b1f12	0.037871428
115	0x3cce6aaa	0.025197346
116	0xbd0e7d35	-0.034787375
117	0x3c3611d1	0.011112646
118	0x3be9aac7	0.007130954
119	0xb9b8884e	-0.0003519677
120	0xbbb74d71	-0.0055939485
121	0x3c86dfa2	0.016464058
122	0xbc0dd785	-0.008657341
123	0xbcfaf5f8	-0.030634865
124	0xbd090df4	-0.033460572
125	0x3cebe962	0.028797809
126	0xbbc971ba	-0.0061475905
127	0x3bb2eb3f	0.0054601724
