promptPGpot/checkpoints/exp0_autopot_randompolicy/ckpt_4.pt (torch, 394659 bytes, 2 tensors)

weight f4 [128, 768]
00000000: 905b 8abc 6051 04bc 416b 0c3d c21a 02ba
00000010: fa24 923b 73cd d83c fbdf 54bc dfbb 00bd
00000020: 9b1a b5bc bf2b cc3c 1a43 723c 2295 a53c
00000030: 38ae b43c cb33 883c 2742 4f3c 4ff8 b6bc
00000040: a3d6 433c 0a8c 90bc 7a99 78bc fba4 06bd
00000050: 3735 1bbd 2b37 b2bc 8380 82bc 8a67 ad3c
00000060: be0b d0bb 9e79 313c af62 c73c 4005 043d
00000070: 2790 d13c 895e 353c de14 aebc 161f 9dbc
00000080: 4e08 bd3c a18f b1bc 6c76 193b b25a 113c
00000090: 17e7 65ba 7add d33c d8e9 9fbc 8f17 bbbc
000000a0: f071 c53c e329 a43b 6d3e 6ebc d29d 513c
000000b0: efa4 6cbc efad c2bb c288 0d3d 0bca bbbc
000000c0: 8cd6 5ebb 3dd5 07bd 7fd3 09bd 072b 08bd
000000d0: f7e7 923c 6e9b f33c f684 163c 138e a43c
000000e0: 895f 12bd 745a 6e3c f686 14bd 6bd8 9abc
000000f0: 1bae 163d 3909 d4bc b4f0 343b 5990 623c
00000100: 7c19 d43b 15a4 3d3c 7f9b 5b3c ed2b bd3c
00000110: 26f1 b9bc d34d cc3b 27d8 4bbc 8741 11bc
00000120: 7d6a 7f3c ec5c 553b 3b37 9e3b 290a e8bc
00000130: 8630 c43b ca99 08bd daa1 753c b6da 993c
00000140: 77a3 1cbd 7e8c 7d3c dd19 46bc 66da a0bc
00000150: 6c2a ec3c 8ec0 be3c c4e9 443c 1980 523c
00000160: 93df 83bc a242 393b aa71 e43c 79dc 713c
00000170: 14b9 e03c 14fa 363c 26df f7bc 5e2d 773c
00000180: b197 8bba b270 043d a3c5 d73c edd3 88bb
00000190: 9791 abbc 0272 96bc 5e44 d03c a2be 16bc
000001a0: eeaf 7c3b f7aa 9abc 7b7f 163d 9b87 4f3b
000001b0: 477e 46bc db47 12ba cad7 b03b 5bed 11bd
000001c0: 6ab4 96bc c28a bebc e625 bdbc c190 a7bb
000001d0: 12ac 85bc 566d 9a3c 4387 d3bc 91a4 1d3c
000001e0: 1136 d43c 5aa5 9b3c 0908 e93b 7b94 a4bc
000001f0: 5ee7 78bc 39a7 95bc f4ba c73b 8e3d 7c3c
00000200: dbf7 a43a 212e 9cbb ce0f 09bc b7f9 66bc
00000210: 5da9 2a3c 0bea 4dbc b62e 0ebd 6d68 633b
00000220: 4311 6e3c 64f6 cbbc 5919 75bc 90af 183d
00000230: 2e4f 8ebc b24b 67bc fcd3 0bbd c0d6 b63c
00000240: 360f f8bc 3f81 ea3c 9fec 093d bfe3 9cbc
00000250: 6923 93bc 0c23 cdbc fbd3 b5bb 2ad5 a63c
00000260: eb88 ea3c 6c1e d53c 6e3f e7bb 8e18 b53c
00000270: 9a73 c1bc a214 60bc 9b95 5abb beb7 a2bc
00000280: 4f3f 04bc 8ede 003d 23cd 903c 9557 0e3c
00000290: 5352 9dbc 2867 e13c 00c2 b4bc 88bb d3bc
000002a0: 37e1 1fbd 2269 babc 324e a8bc 72f1 ff3c
000002b0: 031b afba 8b92 5fbc 8135 a6bc 1d24 95bc
000002c0: 889c 04bd 6e2e a63c 33b6 04bc 656f a63c
000002d0: d138 7dbc f21d 0cbc 6fca b53b d35b 0fbd
000002e0: 39a8 10bd 1122 b93c 2792 0fbb 7e8d 79bc
000002f0: 96f4 de3c 3844 453c 029c 903c ea98 183c
00000300: 7d16 d63c 1084 953c 4154 14bd c542 1bbd
00000310: dddc 4c3b 3d5f af3c 0bdd 353b a51f 113c
00000320: 69ad 6f3c 1d62 ac3c 33fd 0c3d 54fb 183c
00000330: 3372 453c 8e12 3bbc 6a3c 0b3d 7578 16bd
00000340: 7f4e ee3c 543d 773c 710b a5bc 5e70 d73c
00000350: 7a79 52bc c47b 05bd bc68 9f3c 8e36 b6bc
00000360: d9f9 aebb e2de c8bc f722 c43c e01a 7b3c
00000370: 8620 b2bc 3796 ba3c b9d0 e9bb 1c8e 143d
00000380: 3717 143d e6df 17bd 3db1 c83c e48c afbc
00000390: d9ba d2bc cb0c f5bb 0dcb 53bb 7a5e ac39
000003a0: b6e6 15bc ad76 11bd d6b3 49bc fca0 cd3c
000003b0: 2645 a93c 67c5 023d d332 d03c c05d ccbb
000003c0: 454c 06bc ea85 9abc ad05 dabc 4ec3 aa3c
000003d0: d05a a23c ed23 ed3c ca31 78ba 637d 133c
000003e0: 2c01 bd3c c84b 863c 4fa9 f03b 5789 b638
000003f0: d49b b7bc e96e 0d3d 21f1 f33c 3b32 e63b
-0.016889364 -0.008076042 0.034281973 -0.00049630937 0.0044599744 0.026465153 -0.012992854 -0.031429168
-0.022107413 0.024923204 0.014786506 0.020212714 0.02205573 0.01662626 0.012650049 -0.0223352
0.011953029 -0.0176449 -0.01517331 -0.03287218 -0.037892547 -0.021754822 -0.01593042 0.021167535
-0.006349056 0.010832218 0.024339048 0.03223157 0.025581433 0.011069902 -0.021250185 -0.019179862
0.023075249 -0.021674933 0.0023416532 0.008871721 -0.0008770092 0.025862444 -0.019520685 -0.022838382
0.024102181 0.005009876 -0.014541251 0.012793975 -0.01444362 -0.0059411447 0.03455425 -0.02292349
-0.0034002392 -0.033162344 -0.033648964 -0.03324416 0.017932875 0.0297372 0.009186974 0.020087278
-0.03573564 0.014547933 -0.03626152 -0.018902024 0.036787134 -0.025883304 0.002760929 0.0138283605
0.0064727645 0.011574765 0.013403772 0.023092235 -0.022697996 0.0062348633 -0.012441671 -0.008865721
0.015589354 0.0032556606 0.0048283613 -0.028325157 0.0059872298 -0.03334979 0.014992202 0.018781047
-0.03824183 0.0154753905 -0.012091127 -0.01963539 0.028828822 0.023285177 0.012018625 0.012847924
-0.01609782 0.0028268476 0.02788623 0.014762037 0.027432002 0.011168022 -0.030257773 0.0150865
-0.0010650066 0.032334037 0.026339358 -0.004175654 -0.020943446 -0.01836491 0.025423225 -0.009200724
0.003855701 -0.01888035 0.03674267 0.003166652 -0.012115068 -0.00055801653 0.005396818 -0.03562675
-0.018396575 -0.023259524 -0.02308936 -0.0051136916 -0.016317401 0.018850964 -0.025821334 0.009621755
0.025904687 0.018999744 0.0071115536 -0.020090332 -0.015191881 -0.018268215 0.0060952846 0.015395535
0.0012586074 -0.004766241 -0.008365585 -0.014097623 0.010416356 -0.012568007 -0.034712516 0.0034699694
0.014530483 -0.024897762 -0.014959657 0.037276804 -0.01737174 -0.014117168 -0.03413771 0.022319198
-0.03028069 0.028626082 0.033672925 -0.019151567 -0.01796122 -0.025041126 -0.0055489517 0.020365316
0.02862974 0.026015483 -0.007057122 0.022106435 -0.023614693 -0.013676794 -0.0033353332 -0.019863006
-0.008071735 0.031462245 0.017675942 0.008687873 -0.019204294 0.027515009 -0.022065163 -0.025846258
-0.03903314 -0.02275521 -0.020545099 0.03124306 -0.001335949 -0.013645778 -0.020289185 -0.018205697
-0.032375842 0.020285811 -0.00810008 0.020316789 -0.015455441 -0.008552061 0.0055478136 -0.03499968
-0.03531668 0.022599252 -0.0021907182 -0.015231488 0.027216237 0.01204019 0.017652515 0.009313801
0.02613377 0.018251449 -0.036213163 -0.037905473 0.0031259574 0.021407718 0.002775016 0.008857642
0.014628747 0.021042878 0.034421157 0.009337265 0.012051153 -0.011417998 0.033993162 -0.03673597
0.029090164 0.015090305 -0.020147057 0.026298698 -0.012846345 -0.032588735 0.01945912 -0.02224281
-0.0053398428 -0.024520341 0.023942454 0.015326232 -0.021744024 0.022776706 -0.0071354774 0.03626834
0.036154952 -0.03707876 0.024498576 -0.021429487 -0.025723862 -0.0074783317 -0.0032317073 0.00032876787
-0.009149244 -0.03551357 -0.012310943 0.025101177 0.020662855 0.03192654 0.02541486 -0.006236762
-0.008196895 -0.018862683 -0.026614035 0.020845082 0.019818693 0.028947795 -0.00094678684 0.0090020625
0.023071848 0.016393557 0.007344402 8.704018e-05 -0.022413172 0.0345296 0.029778065 0.007025031

bias f4 [128]
00000000: 6446 0bbc adba 33bc bbd1 d0bc e6d0 8f39
00000010: 14cb c9ba 80ea c5bc 70f9 dcbc a864 ad3c
00000020: 9b84 bebc 83a0 00bb eb65 393c 505f 003a
00000030: ac18 74bc c2d1 9cbc 54ad 0ebd 15e9 653b
00000040: 3ff8 153c 68a3 e1bc f12a f53b 119e 1ebc
00000050: 5f58 07bd 629b feb9 8d56 ccbc 0a1d 843c
00000060: bbe2 b6bc 891e 8cbc 4a06 cf3a 7adb ff3c
00000070: 77bd a5bc 9ed4 b9bc f174 bfbc 8e99 9bbc
00000080: 7049 f6bc 1cc5 92bc 78d8 28ba 0881 003c
00000090: 37cf b63c 4391 d03c 75f6 d9bc cf2e f1bb
000000a0: 9cdd fe3c 28d4 073d 92c4 dd3c 8996 b23b
000000b0: 3071 003d e0cc e43c b1c3 03bd 12b0 07bd
000000c0: 13af dabc c302 de3c 9fba c7bb a0d4 16bd
000000d0: a805 6fba d91c 4d3c 66d3 c3bc d378 b5bb
000000e0: b5af 9d3c dfb8 0bbd 63ba 283c 72cb f43a
000000f0: 4ae4 f33c 3456 59bb b9fc f43c 4ede 59bb
00000100: 5048 cd3c 4732 2abc fe6b 64bc 147f b2bc
00000110: 8692 823a 7d3e 89bc f6be a7bc 67e7 623b
00000120: 5b74 f33c d792 9bba 749d b33c 3d05 82bc
00000130: 697d 513c 2535 b3bc 4366 9cbb c151 693c
00000140: a7b8 c53c 68a9 c63c 8627 653a 2057 0e3c
00000150: f7c5 fe3c 992d 353c be23 fa3a e283 0d3c
00000160: 1c46 95bc a961 5f3c 30f4 4c3c 4401 1c3c
00000170: 5861 5a3a f4ae c33c 29f7 f93a c58f 69bb
00000180: e0aa 0dbd 1724 09bd 3245 0e3c b3a3 e7bb
00000190: e3e1 acbb 61fa c03c b339 953a d8a8 9ebc
000001a0: cecd dd3c f91e bdbc 2dd2 a53c 1cc5 ebbc
000001b0: 274b bd3c f2b5 013d b649 adbc 7c23 97bb
000001c0: 624f c9bc a180 30bb 53c2 163d 8101 f33c
000001d0: 35d4 11bd 7cef 3b3b f98d 1d3b 022d ae3b
000001e0: 143a 9cb9 4da6 523c c4d4 3dbc 6edb 0ebd
000001f0: 5571 fbbc 13f4 033d 8add 81bc 6b02 013c
-0.008500669 -0.0109698 -0.025490632 0.00027430727 -0.0015395605 -0.02415967 -0.02697441 0.02116616
-0.02325659 -0.0019626922 0.011315803 0.0004897015 -0.01489846 -0.01914299 -0.034833267 0.0035081555
0.009153425 -0.027543738 0.0074819257 -0.009681241 -0.03304326 -0.00048562424 -0.024943614 0.016127128
-0.02232491 -0.017104404 0.0015794721 0.031232584 -0.020231945 -0.022684392 -0.023371192 -0.018994119
-0.030064315 -0.017916255 -0.0006440948 0.007843263 0.022315605 0.025459891 -0.026606778 -0.0073603163
0.031111531 0.033161312 0.027071271 0.005450074 0.031357944 0.027929723 -0.032169048 -0.033126898
-0.02669481 0.027100926 -0.006095245 -0.03682387 -0.00091179693 0.012519085 -0.023904514 -0.005538085
0.019248823 -0.034111854 0.010298344 0.0018676354 0.029771943 -0.0033162953 0.029905664 -0.0033244076
0.025058895 -0.010387964 -0.013941763 -0.021789111 0.000996188 -0.01675343 -0.0204768 0.003462279
0.029718569 -0.0011869323 0.021925665 -0.015871638 0.012786248 -0.021875927 -0.0047729327 0.014240683
0.0241359 0.024250701 0.0008741546 0.008687764 0.031100256 0.011058235 0.0019084138 0.0086374
-0.018221907 0.013634124 0.012509391 0.009521786 0.00083305454 0.023887135 0.0019070852 -0.0035638672
-0.034586787 -0.033481684 0.00868349 -0.007069075 -0.005275951 0.02355689 0.0011384994 -0.01936762
0.027075674 -0.023086058 0.020241821 -0.028780513 0.023107124 0.031667657 -0.021153312 -0.0046123844
-0.024573985 -0.0026932138 0.036806416 0.029663803 -0.035602767 0.002867668 0.002404092 0.005315424
-0.0002979791 0.012857032 -0.011586372 -0.034877233 -0.03069369 0.03221519 -0.015852708 0.007874112
