promptPGpot/checkpoints/exp0_autopot_randompolicy/ckpt_final.pt (torch, 394803 bytes, 2 tensors)

weight f4 [128, 768]
00000000: 9373 6fbc 4689 17bc a069 0c3d b537 873b
00000010: 2c0a 073c c4f1 ac3c 21e2 07bc c78e 01bd
00000020: a97f e8bc 0627 e13c eb7b 813c 1cde 8b3c
00000030: 6389 d43c 1dfd 813c c725 7a3c a424 babc
00000040: 7d3e b53b 144d b0bc 7d69 48bc 3bed 13bd
00000050: 21df 28bd 04fb 91bc 9ff9 ddbc 2c0e 833c
00000060: 0dc5 2dbc 86ff 3a3c 8c35 7a3c 53d7 c23c
00000070: bdc1 a73c 6419 963c 431a 93bc fa5f ccbc
00000080: a678 d93c d210 b6bc 093d ac3b 1de4 093c
00000090: b897 583a 6722 f33c c57b 91bc da6f e1bc
000000a0: 6214 d83c 823b 9e3b 0439 8ebc 3990 883c
000000b0: be02 65bc 28c7 1fbc 5535 0e3d 39d7 cdbc
000000c0: 18ac 59bb 4705 0abd fd67 12bd 8c9c 02bd
000000d0: d26e b33c a212 093d b099 813b 0fe5 9d3c
000000e0: 6aad d6bc 6300 2e3c c09d 22bd f18b 91bc
000000f0: 28ac 2c3d e21c babc 8e84 0dbc d215 3c3c
00000100: b3a6 0d3c dd18 fb3b ffea 6f3c a473 d03c
00000110: 068a d4bc 6f96 bf3b 5337 86bc e3f6 90bb
00000120: ec8d 5a3c ee23 623b 6805 95bb c66e eabc
00000130: 95cf 073c f7f7 c0bc 1cfb 073c bc75 2a3c
00000140: 8c8b 19bd 545d a93c 8243 f2bb 622a 88bc
00000150: dcf2 043d 382b ae3c 75ea 553c 9b2d 303c
00000160: cdc3 73bc d0c6 d33b 60e5 cc3c f6ea 5d3c
00000170: fe01 a93c 20fe 243c 7ca9 cebc f754 ae3c
00000180: cab9 ecbb 204c f33c 80e2 d43c bbce bbbb
00000190: 4405 a1bc 48b1 a4bc 7b42 ef3c bec9 29bc
000001a0: 2224 933b 99e2 62bc 60b2 133d 784d d43b
000001b0: 6d9b 24bc 6b4a 73ba f384 2d3c 8132 16bd
000001c0: a089 a1bc 9550 16bd ea15 8bbc 9e44 b33a
000001d0: fa88 a5bb 803d 653c c72a a3bc 46f3 513c
000001e0: c7fc bb3c 4b10 863c 04aa 433c 72ed adbc
000001f0: dfca 90bc c15a 63bc f299 143c b68a a23c
00000200: a019 db38 b3f0 0abc 369f 26bc 23b2 14bc
00000210: 56dd 7e3c 413b 85bc f908 07bd a122 983b
00000220: bc97 893c c8a2 44bc 7677 99bc dc63 093d
00000230: ebac 73bc ec02 54bc 0ddc 0fbd b2b9 9e3c
00000240: eb71 ddbc e1f8 dd3c 276b f93c 0aa8 84bc
00000250: 853c 80bc 9066 cebc 40f9 c3bb 62b7 9d3c
00000260: 2617 003d 2fa7 ae3c a455 61bc 0c0f 963c
00000270: 7492 a0bc f563 51bc 7450 b0ba 5c47 8abc
00000280: 87f2 b7bb 0af3 013d db81 463c db9e 633b
00000290: 1b52 b0bc 6793 f43c abfd aabc 3806 d0bc
000002a0: d14b 29bd e0c3 c2bc 3634 c7bc dc8a 033d
000002b0: 91f1 703a c9ba 75bc 9721 a4bc 7dca 38bc
000002c0: 9b28 12bd 9c3f ab3c 0afa b2bb 410e 1f3c
000002d0: bc70 89bc 4ec8 8dbb 5cab a73b eff6 14bd
000002e0: 1cc9 16bd 03b7 bb3c fdd4 01bb 380f 4dbc
000002f0: eea2 d93c 7fd9 1f3c 4dbf 7e3c a429 363c
00000300: 446f f83c 5376 9d3c f4ea 06bd 95af 07bd
00000310: 761d a13b 38e9 c33c e2d4 133b d211 2d3c
00000320: bd62 643c a675 8a3c f28b 143d 5823 023c
00000330: 6aa5 7d3c 6356 33bc c660 023d b5bf 10bd
00000340: c40f ea3c 74d6 193c 2ef0 a2bc 1c65 c03c
00000350: ed0b 33bc 8f32 05bd 958f 853c 25a7 a8bc
00000360: ff52 95ba aa43 2abd ee19 a83c 6c94 473c
00000370: 3c23 bcbc 682b 9e3c c441 4abc df1a fe3c
00000380: c9cd 0e3d af15 f7bc 07f6 c93c 6f9c c1bc
00000390: 03ae d2bc 0f7a edbb 377f edbb 6985 703a
000003a0: a694 81bc bb94 c5bc 01b4 87bc 1daa 9f3c
000003b0: 9f9f f43b 45c5 b23c ecc1 913c 2e1e 02bc
000003c0: 2e12 963a fc23 a1bc 3b33 dbbc e307 a73c
000003d0: 6d7a d53c 8065 063d 2896 753b 546e 533c
000003e0: c0b3 0b3d 4b25 ad3c 339b f03b 689f 5a3b
000003f0: 7512 c4bc 2373 033d 7754 e03c 6d94 013c
-0.014614957 -0.009249037 0.03428042 0.004126514 0.008242171 0.021111377 -0.008293659 -0.031630304
-0.028381186 0.027484428 0.015806159 0.017073683 0.025944417 0.015867764 0.015267796 -0.02272255
0.005531131 -0.021521129 -0.012232182 -0.036114912 -0.041228417 -0.017819889 -0.027096568 0.015997969
-0.010606063 0.011413461 0.015271556 0.023784315 0.020478124 0.018322654 -0.017956859 -0.024948109
0.026546787 -0.022224817 0.0052562994 0.008416203 0.0008262354 0.02967949 -0.017759213 -0.027519155
0.026376907 0.004828871 -0.017361172 0.016670333 -0.013977705 -0.009752072 0.03471883 -0.02512704
-0.0033214148 -0.03369644 -0.035743702 -0.031887576 0.02190343 0.033465035 0.0039550886 0.019274263
-0.026205737 0.010620209 -0.039701223 -0.017766925 0.04215637 -0.02271885 -0.0086375605 0.011479812
0.008645701 0.007662876 0.01464343 0.025445767 -0.025944721 0.0058467905 -0.016383803 -0.0044239624
0.013339501 0.003450628 -0.0045477636 -0.028617274 0.0082892375 -0.023555739 0.008299615 0.010404047
-0.037486598 0.020674385 -0.0073933015 -0.016621772 0.03245817 0.021260843 0.013056387 0.010753061
-0.0148782255 0.0064629093 0.025011718 0.013544789 0.020630833 0.010070354 -0.0252273 0.021280749
-0.007224296 0.029699385 0.02598691 -0.0057314313 -0.019655831 -0.020104066 0.029206505 -0.0103630405
0.0044903914 -0.01384797 0.036058784 0.0064789616 -0.010046822 -0.00092808035 0.01059078 -0.036669258
-0.019718945 -0.036697943 -0.016978223 0.0013677066 -0.0050517293 0.0139917135 -0.019917859 0.012814349
0.022947682 0.016365191 0.01194239 -0.021231387 -0.017674861 -0.013876618 0.009069907 0.019841533
0.00010447507 -0.008480239 -0.010169795 -0.009075674 0.0155557 -0.016263606 -0.03296754 0.0046428
0.016795985 -0.012001701 -0.018733721 0.0335425 -0.01487277 -0.01294015 -0.035121966 0.019375656
-0.02703186 0.027096214 0.030446602 -0.016193409 -0.015653858 -0.02519539 -0.0059806406 0.019252483
0.031272076 0.021319954 -0.0137533285 0.018317722 -0.019601084 -0.012780179 -0.0013451711 -0.01687973
-0.0056136283 0.03172592 0.012115921 0.0034732136 -0.021523526 0.029855443 -0.020872911 -0.02539359
-0.04133207 -0.023775041 -0.024316888 0.03211485 0.00091912696 -0.014998146 -0.020035548 -0.011278746
-0.035683256 0.020904355 -0.005461936 0.009707988 -0.016777389 -0.0043268567 0.005116863 -0.036368307
-0.036812887 0.022914415 -0.0019810789 -0.012515835 0.026566949 0.009756445 0.015548539 0.011118326
0.030326493 0.01922146 -0.032938913 -0.033126432 0.004916842 0.023914918 0.0022557308 0.010563331
0.013939557 0.016901802 0.036266275 0.007942997 0.015481332 -0.010945889 0.03183057 -0.035339076
0.02857197 0.0093895085 -0.019889917 0.023485713 -0.010928136 -0.03251892 0.016303817 -0.020587513
-0.0011392533 -0.041568436 0.020520177 0.012181383 -0.02296602 0.019307807 -0.012344781 0.031018673
0.03486422 -0.030161707 0.024653448 -0.023634164 -0.02571774 -0.0072472165 -0.007247831 0.0009175153
-0.015817951 -0.024118772 -0.016565325 0.019490296 0.0074653174 0.021822581 0.017792664 -0.007941766
0.001144951 -0.019670479 -0.026757827 0.020389503 0.026059354 0.03281164 0.0037473533 0.012904722
0.03410697 0.021135947 0.00734272 0.0033359174 -0.023934582 0.032092225 0.027384026 0.007908923

bias f4 [128]
00000000: c2a9 04bc e14e 4abc 15d7 d1bc bce1 a9b9
00000010: d510 12bb 8423 bfbc 94f8 c9bc f7b2 973c
00000020: fcd3 cdbc 4bbb 46ba f125 233c 7ee4 84ba
00000030: 9f95 5abc d5b1 9cbc 4596 0bbd 9684 833b
00000040: 1bc1 333c d204 dbbc be1e 863b ed13 24bc
00000050: 1991 00bd 9436 b5b9 5176 c5bc 017c 903c
00000060: bca7 abbc 3ad6 8cbc 43a5 153a 860a 033d
00000070: 6cb4 8ebc 15d9 b7bc 819f c9bc 08f9 88bc
00000080: a09b f9bc 51e5 92bc 79b1 b539 c3bf ce3b
00000090: e154 b03c ba6c d73c 1800 bebc 4b25 06bc
000000a0: c978 043d 5828 ff3c c6f0 cd3c 83a8 e03b
000000b0: 7608 f13c 2387 df3c 9ea2 05bd 51fd f8bc
000000c0: 71c0 d1bc f3bc e43c c36e efbb 25c4 0bbd
000000d0: 9ab8 cfba b46b 5f3c a53e d2bc 8530 a0bb
000000e0: c9c0 b83c 7399 0abd d7d3 433c e657 6a39
000000f0: d533 f93c a539 1abb 27be fd3c 2687 35bb
00000100: 5272 cb3c a6e9 4cbc b583 69bc 3d23 a7bc
00000110: d2d4 5cb9 1b39 88bc d10e b4bc a06d 913b
00000120: df9d e43c e139 a8ba a496 ae3c 6e88 83bc
00000130: fb08 833c 31d3 a7bc 315f bdbb 5188 573c
00000140: f863 c53c 1082 b23c e4c5 653b 5b60 0e3c
00000150: 8deb fc3c 45e2 2c3c 96de e23a 1fe8 e73b
00000160: 9e2f a2bc b08c 4c3c e264 283c 8fa0 373c
00000170: 0b9a 3e3b 1a0f d53c ab4d 953a cd4c 43bb
00000180: 8c97 07bd 1540 0bbd e5be 1e3c 42f2 04bc
00000190: d88c bfbb babb c03c 81c2 143b 98ac b3bc
000001a0: ce2e dc3c 6c75 abbc adfa ba3c cdf2 ffbc
000001b0: 21ee b13c e1ae 053d aba5 b0bc f1e8 a1bb
000001c0: 8608 d8bc 70a8 41ba 6516 1a3d b849 f23c
000001d0: 69a7 18bd 1bde f739 40a8 ed3a 4423 8e3b
000001e0: 4fbd 83ba f82a 5b3c ec0e 64bc e500 08bd
000001f0: 9f45 e8bc 24f7 ff3c 9691 7fbc 48ac 073c
-0.008097114 -0.012347908 -0.025615254 -0.00032402377 -0.0022287865 -0.023332365 -0.024654664 0.018517954
-0.025125496 -0.00075810094 0.009957776 -0.0010138897 -0.0133413365 -0.019127766 -0.034078855 0.004013608
0.010971333 -0.026735697 0.00409302 -0.010014516 -0.031388376 -0.00034563674 -0.02410427 0.017637255
-0.020954005 -0.017191995 0.0005708525 0.031992458 -0.017420016 -0.02244238 -0.02461219 -0.01672031
-0.030469716 -0.017931612 0.00034655238 0.006309481 0.021524848 0.026296962 -0.023193404 -0.008187602
0.032341752 0.031147167 0.025139224 0.0068560257 0.02942298 0.027286118 -0.032625787 -0.030394228
-0.025604459 0.02792213 -0.007306905 -0.034122605 -0.0015847862 0.013636518 -0.025664637 -0.0048885965
0.022552865 -0.033837747 0.011952362 0.00022348724 0.030420223 -0.0023532894 0.03097446 -0.0027698963
0.024834786 -0.012506878 -0.014252593 -0.020402545 -0.00021060117 -0.016628793 -0.021979721 0.004438117
0.02790731 -0.0012834632 0.021312065 -0.016056266 0.015995493 -0.020486446 -0.00577917 0.013155059
0.02409552 0.021790534 0.003506058 0.008689965 0.030874038 0.010551994 0.0017308767 0.0070772315
-0.019798096 0.012484714 0.010277959 0.011207714 0.0029083516 0.026008178 0.0011390945 -0.0029800416
-0.03310351 -0.03399666 0.0096890675 -0.008114399 -0.0058456473 0.023527015 0.0022698941 -0.021932885
0.026877787 -0.020930015 0.02282461 -0.031243706 0.021719994 0.03263748 -0.021563372 -0.004941099
-0.026371252 -0.0007387465 0.037619013 0.029576167 -0.03726903 0.00047276993 0.0018131807 0.0043377
-0.0010050925 0.013376944 -0.013919573 -0.033203978 -0.02835351 0.031245776 -0.015598675 0.008280821
