promptPGpot/checkpoints/exp0_autopot_randompolicy/ckpt_3.pt (torch, 394659 bytes, 2 tensors)

weight f4 [128, 768]
-0.018050395 -0.0094879065 0.0342306 -0.00024630385 0.0036746566 0.026876604 -0.0127372965 -0.031582214
-0.021544714 0.02497179 0.01619823 0.020676604 0.021641275 0.017652234 0.0126984455 -0.02302412
0.012572352 -0.01773043 -0.0142603675 -0.032006953 -0.036433745 -0.021328798 -0.015325304 0.021430269
-0.006219242 0.010821512 0.022989081 0.03237263 0.025427252 0.011533621 -0.022248724 -0.018626716
0.021807494 -0.02223815 0.003438441 0.008036519 0.0004695317 0.02617694 -0.018332472 -0.023921084
0.023345351 0.0042317654 -0.014122192 0.0136142885 -0.015470205 -0.0049120956 0.033700883 -0.02126814
-0.004613426 -0.03434954 -0.032991897 -0.034625813 0.018442899 0.029991623 0.009550528 0.02024595
-0.035775013 0.013525583 -0.03626162 -0.019014578 0.035327006 -0.0267779 0.0029356705 0.0133020915
0.006905045 0.011730185 0.013533517 0.024755012 -0.023313504 0.0060833516 -0.011263848 -0.008511961
0.01863617 0.002901889 0.0040503135 -0.028132588 0.0045158477 -0.031956073 0.013677729 0.018975392
-0.038359612 0.015356628 -0.012176219 -0.020430991 0.029369172 0.024106802 0.01195882 0.012097878
-0.01798074 0.0035831295 0.026647054 0.014982653 0.029233467 0.012041515 -0.03059687 0.014061863
-0.0007401099 0.0334219 0.028859926 -0.0030676543 -0.02340459 -0.019135168 0.024244756 -0.01044524
0.0016432146 -0.019448563 0.03476291 0.0039214855 -0.013244099 -0.000932442 0.0058818725 -0.034263745
-0.018639315 -0.0214645 -0.022473415 -0.004615079 -0.015784243 0.019191708 -0.024590312 0.009219487
0.02761752 0.01970978 0.0071081994 -0.021543784 -0.014105524 -0.017652769 0.007160489 0.015293851
0.003114621 -0.0054659545 -0.008064488 -0.013311223 0.007635004 -0.012727458 -0.03485148 0.0015893779
0.012685739 -0.02501826 -0.014122224 0.034767732 -0.018222066 -0.015050108 -0.034772564 0.022167597
-0.02945235 0.028176598 0.033290967 -0.020190813 -0.017791513 -0.02402215 -0.0046826103 0.020813562
0.028070198 0.026319372 -0.0074889814 0.02370065 -0.024200603 -0.015588448 -0.0038558205 -0.019210033
-0.00687782 0.03257233 0.017299654 0.009445539 -0.017556991 0.027456392 -0.022591805 -0.024961377
-0.03955479 -0.023180036 -0.020731911 0.03279397 -0.000623435 -0.013103347 -0.01998948 -0.017183637
-0.031679 0.020984124 -0.007791753 0.020878628 -0.015831163 -0.008207973 0.0051966654 -0.036162913
-0.03486256 0.023710897 -0.00072211755 -0.013920288 0.028552175 0.012987357 0.015766663 0.010368857
0.023586055 0.019624466 -0.036645226 -0.037846476 0.0036270902 0.021709904 0.003333433 0.008077159
0.015363486 0.020633817 0.033514038 0.008215622 0.011724818 -0.010773012 0.033674143 -0.037302576
0.028144727 0.016352002 -0.020473601 0.028135156 -0.012071929 -0.03298217 0.020526703 -0.021852585
-0.0041171038 -0.022137549 0.024676977 0.016768737 -0.021032056 0.024348652 -0.0067022974 0.035998404
0.03551309 -0.03628286 0.024163675 -0.02125876 -0.025050366 -0.008169539 -0.0022921269 -0.00028058718
-0.009873578 -0.035298288 -0.011801998 0.025934275 0.02156642 0.033124745 0.026223049 -0.0073472983
-0.008879694 -0.017993465 -0.02625331 0.021129146 0.018699478 0.029726453 -0.00057525234 0.007678704
0.022887781 0.015021049 0.0085335625 0.00020775906 -0.022381831 0.03552371 0.029814761 0.0069162175
00000000: 6cde 93bc 2a73 1bbc 6335 0c3d 5822 81b9
00000010: 82d2 703b 532c dc3c 18b0 50bc 5a5c 01bd
00000020: 8a7e b0bc a491 cc3c 27b2 843c fb61 a93c
00000030: 0b49 b13c 6b9b 903c 240d 503c 149d bcbc
00000040: 44fc 4d3c 683f 91bc 51a4 69bc b919 03bd
00000050: 8d3b 15bd bbb9 aebc fc16 7bbc 888e af3c
00000060: c8ca cbbb b64c 313c 9953 bc3c 2a99 043d
00000070: d04c d03c 83f7 3c3c f542 b6bc 0e97 98bc
00000080: a1a5 b23c c82c b6bc 7857 613b 9bab 033c
00000090: 7a2b f639 0671 d63c fb2d 96bc 26f6 c3bc
000000a0: c03e bf3c 9faa 8a3b c460 67bc 770e 5f3c
000000b0: be76 7dbc a5f5 a0bb f009 0a3d 863a aebc
000000c0: 392c 97bb 1ab2 0cbd 8322 07bd ccd3 0dbd
000000d0: 9015 973c feb0 f53c d179 1c3c d6da a53c
000000e0: d288 12bd 689a 5d3c 1087 14bd 76c4 9bbc
000000f0: 0db3 103d 545d dbbc 6164 403b 04f1 593c
00000100: b743 e23b f62f 403c afbb 5d3c 06cb ca3c
00000110: f6fb bebc da56 c73b 018c 38bc c175 0bbc
00000120: e2aa 983c 9e2d 3e3b 7eb8 843b 5076 e6bc
00000130: adf9 933b 5fe4 02bd 8e18 603c 4872 9b3c
00000140: f81e 1dbd 5e9a 7b3c c47e 47bc e55e a7bc
00000150: 9e97 f03c a17b c53c edee 433c 2e36 463c
00000160: 584c 93bc f0d2 6a3b ec4a da3c cd79 753c
00000170: 067b ef3c c649 453c 4aa6 fabc ba63 663c
00000180: ef03 42ba 67e5 083d a76b ec3c b30a 49bb
00000190: fcba bfbc 5bc1 9cbc f09c c63c 8322 2bbc
000001a0: 2261 d73a 9852 9fbc 8e63 0e3d ce7f 803b
000001b0: c7fd 58bc 206f 74ba b9bc c03b 2458 0cbd
000001c0: 7ab1 98bc 52d6 afbc 2b1a b8bc 173a 97bb
000001d0: f54d 81bc ee37 9d3c 9f71 c9bc 550d 173c
000001e0: 233e e23c 6876 a13c e6eb e83b 977c b0bc
000001f0: db1a 67bc 8a9c 90bc 89a2 ea3b 0f93 7a3c
00000200: ab1e 4c3b c01b b3bb ea20 04bc 5117 5abc
00000210: 0e2f fa3b d486 50bc 6dc0 0ebd ac52 d03a
00000220: d9d7 4f3c 18f3 ccbc e760 67bc 9c68 0e3d
00000230: 7146 95bc ba94 76bc ad6d 0ebd d298 b53c
00000240: 0e46 f1bc 9cd2 e63c 1c5c 083d 3467 a5bc
00000250: 82bf 91bc 1aca c4bc 9570 99bb 3481 aa3c
00000260: 79f3 e53c b99b d73c 2166 f5bb de27 c23c
00000270: 5840 c6bc b166 7fbc efb1 7cbb 5c5e 9dbc
00000280: 565f e1bb 906a 053d 01b8 8d3c 76c1 1a3c
00000290: aed3 8fbc 3aec e03c 7312 b9bc cd7b ccbc
000002a0: 3404 22bd 0fe4 bdbc f8d5 a9bc f852 063d
000002b0: 046e 23ba 6caf 56bc fac0 a3bc b3c4 8cbc
000002c0: d7c1 01bd e6e6 ab3c f651 ffbb a809 ab3c
000002d0: 5bb0 81bc bc7a 06bc ca48 aa3b 901f 14bd
000002e0: 0bcc 0ebd 5b3d c23c 7d4c 3dba eb11 64bc
000002f0: 40e6 e93c ecc8 543c 1729 813c 23e2 293c
00000300: 8b37 c13c 7dc3 a03c 4e19 16bd e804 1bbd
00000310: 7ab4 6d3b f8d8 b13c ba75 5a3b 0f56 043c
00000320: 21b7 7b3c 4008 a93c 0446 093d d19a 063c
00000330: 7319 403c 4a81 30bc e6ed 093d 96ca 18bd
00000340: c58f e63c a2f4 853c 41b8 a7bc b37b e63c
00000350: 57c9 45bc 5018 07bd 9e27 a83c 3104 b3bc
00000360: c5e8 86bb ce59 b5bc 5f27 ca3c 975e 893c
00000370: 6b4b acbc d376 c73c f29e dbbb 1073 133d
00000380: 2d76 113d 569d 14bd e6f2 c53c da26 aebc
00000390: 6d36 cdbc 88d9 05bc 8237 16bb c61b 93b9
000003a0: cac4 21bc f094 10bd 2b5d 41bc 1e74 d43c
000003b0: 10ac b03c d0ad 073d b8d1 d63c 9bc1 f0bb
000003c0: 237c 11bc 0867 93bc 2e11 d7bc 0817 ad3c
000003d0: a62f 993c e484 f33c 88cc 16ba a39d fb3b
000003e0: 287f bb3c d91a 763c 5bd0 0b3c e6d9 5939
000003f0: 1a5a b7bc 4f81 113d 163e f43c 70a1 e23b

bias f4 [128]
-0.007853709 -0.010919136 -0.023990694 -0.00028119888 -0.003694051 -0.02378928 -0.028252978 0.022439403
-0.024748886 -0.0014087702 0.012059522 -0.0016183112 -0.014773844 -0.019210251 -0.033662964 0.002823263
0.008717967 -0.029160164 0.0075100637 -0.008676034 -0.03257508 -0.00030386102 -0.026243344 0.01609836
-0.02257424 -0.018918017 0.001482873 0.03146953 -0.020315524 -0.022983372 -0.023528192 -0.019299496
-0.031678654 -0.01657958 0.002451106 0.0067679747 0.021104187 0.027394129 -0.025649654 -0.008133429
0.030670146 0.03183635 0.027447976 0.005982502 0.030447459 0.028768461 -0.03135374 -0.033039995
-0.02731849 0.026264735 -0.0070711793 -0.036156867 -0.0017007237 0.0118673965 -0.023718122 -0.0059518814
0.021006137 -0.03375504 0.012101476 0.0010459274 0.029365141 -0.004346739 0.029714815 -0.0040134555
0.02585583 -0.008320072 -0.016888265 -0.022256617 -0.00020024556 -0.016791284 -0.020284234 0.005314324
0.02974912 0.00017385106 0.024000242 -0.0151703125 0.014967122 -0.0230267 -0.005387652 0.015271817
0.02441371 0.022935431 0.0009842295 0.009252962 0.029392416 0.010330989 0.00034660925 0.009101329
-0.017322415 0.013770998 0.010768713 0.009302611 0.0019409268 0.025146574 0.0019127711 -0.0014586967
-0.035396114 -0.033257145 0.008787919 -0.0070152613 -0.004764283 0.023092896 0.004284496 -0.019532895
0.026699387 -0.020469723 0.019758776 -0.028470794 0.02397576 0.030961093 -0.022755718 -0.0047751423
-0.026471568 -0.0034509972 0.036209933 0.030405486 -0.035270054 0.0011564341 0.0010468947 0.0059802523
-0.0017298067 0.012216473 -0.014569695 -0.03385002 -0.029470311 0.03312879 -0.015739629 0.00874072
00000000: d8ac 00bc 2de6 32bc 2288 c4bc e06d 93b9
00000010: e417 72bb bce1 c2bc ca72 e7bc d7d2 b73c
00000020: 2dbe cabc 7ca6 b8ba 4d95 453c 831d d4ba
00000030: fe0d 72bc d15e 9dbc 2de2 09bd 7e06 393b
00000040: ced5 0e3c 4ce1 eebc fb16 f63b ed25 0ebc
00000050: 726d 05bd 894f 9fb9 48fc d6bc b5e0 833c
00000060: 9ded b8bc f5f9 9abc f65c c23a 32e6 003d
00000070: be6c a6bc a047 bcbc 32be c0bc fa19 9ebc
00000080: 7ac1 01bd e6d1 87bc bca2 203b e3c5 dd3b
00000090: b0e2 ac3c a769 e03c 391f d2bc 1342 05bc
000000a0: f53f fb3c d566 023d 94da e03c dd08 c43b
000000b0: f36c f93c d6ab eb3c c76c 00bd f254 07bd
000000c0: 07cb dfbc 2429 d73c 5ab5 e7bb 3919 14bd
000000d0: d1ea deba 786f 423c 824c c2bc 0008 c3bb
000000e0: 1015 ac3c ba42 0abd 4545 463c 8017 893a
000000f0: 2a8f f03c 176f 8ebb 7c6c f33c 4e83 83bb
00000100: 9bcf d33c e950 08bc 4259 8abc 8253 b6bc
00000110: 02f9 51b9 e08d 89bc 1f2b a6bc c823 ae3b
00000120: 6db4 f33c ca4b 3639 289c c43c e78c 78bc
00000130: a938 753c 7da2 bcbc e78a b0bb a536 7a3c
00000140: 43ff c73c 16e3 bb3c 4301 813a bc99 173c
00000150: 5dc8 f03c 4f43 293c 1bb9 b539 be1d 153c
00000160: bde7 8dbc c19f 613c 426f 303c fb69 183c
00000170: b266 fe3a 3000 ce3c f3b5 fa3a bd31 bfba
00000180: 84fb 10bd a538 08bd 34fb 0f3c 47e0 e5bb
00000190: b41d 9cbb 502d bd3c f564 8c3b 7303 a0bc
000001a0: acb8 da3c 1fb0 a7bc 28dd a13c 953b e9bc
000001b0: d068 c43c 1ea2 fd3c 336a babc cc78 9cbb
000001c0: e7da d8bc 202a 62bb de50 143d ed14 f93c
000001d0: 5577 10bd 7d93 973a f537 893a fef5 c33b
000001e0: aeba e2ba 9a27 483c bbb5 6ebc 52a6 0abd
000001f0: b96b f1bc 0eb2 073d 65f0 80bc 3d35 0f3c
