promptPGpot/checkpoints/exp0_autopot_randompolicy/ckpt_0.pt (torch, 394659 bytes, 2 tensors)

weight f4 [128, 768]
00000000: 463a 95bc 2d64 2bbc a87e 0a3d 99c8 e43a
00000010: 5dcc edb9 9e78 e03c f093 2dbc adea f7bc
00000020: 96e6 acbc c893 c63c feb3 883c e115 c13c
00000030: f76a b73c b4f9 903c ffe1 323c bee6 c1bc
00000040: 2ad6 4f3c c48e 95bc 4bd4 52bc ce55 febc
00000050: e901 0ebd a594 bbbc acf0 37bc 30a0 ae3c
00000060: 8d86 7cbb 0f8e 2c3c dd66 d03c 45d8 073d
00000070: 9e67 ca3c b5a5 633c 9c25 babc 64db a9bc
00000080: 2880 9e3c b601 c7bc 06fa b83a 1fa0 c23b
00000090: c695 6d3b 2688 f03c bfa0 88bc ec01 a5bc
000000a0: 9b73 b33c 0d1e a33b ec21 0dbc 1992 2b3c
000000b0: 0d1a 71bc 01aa 84bb 3feb 073d c0a5 97bc
000000c0: 81b2 9bbb eda7 12bd ea33 04bd f359 00bd
000000d0: cf5f a53c 4084 fd3c 7809 2b3c 6783 b23c
000000e0: 67bf 03bd e501 523c 12d4 08bd d8a7 9bbc
000000f0: 6d69 023d 3ea2 bdbc 2cc0 8f3b b191 493c
00000100: 47a8 ea3b 8bf8 7d3c e8ce 393c 8636 d33c
00000110: 8252 c4bc b4ea c23b c150 50bc 67e8 37bc
00000120: 5a5a c33c dd29 7b3b 3f20 593b bb62 f9bc
00000130: b424 a03b d7c7 febc 708d 723c 7fef 983c
00000140: 3a75 1dbd 6561 633c 7a45 48bc 24ea aebc
00000150: fa83 ef3c 42b2 db3c aadb 303c 7032 0c3c
00000160: 99fa a7bc 22ca 053b 711f d93c 740d 403c
00000170: 4614 043d 83ce 403c 6ee9 00bd bc5f 673c
00000180: a743 bb39 8133 0b3d 2895 ee3c d01a 7bbb
00000190: 0fb0 d6bc e7ee 9cbc 1aff d33c a31a 2fbc
000001a0: ff42 f3ba 8c51 b5bc f120 063d f6a1 993b
000001b0: 604c 67bc 528c 5a3a 792b c03b 5977 f9bc
000001c0: 3268 73bc d8a9 99bc a844 d5bc 5042 0bbb
000001d0: 8dc1 82bc 1444 b13c ca18 b7bc a9f0 1c3c
000001e0: e488 e73c cf9e b53c dd35 fb3b ceea a5bc
000001f0: 0acb 6bbc 019a 75bc 6019 a93b 95bf 5a3c
00000200: 1113 9d3b 794b cfbb e2b1 03bc 3362 36bc
00000210: 58fb dc3b b56b 39bc 6cc7 07bd a409 65ba
00000220: b9e1 373c 84aa d0bc 4a3d 70bc 5e19 0b3d
00000230: 16a9 9dbc cc21 87bc 0046 0cbd 79fb a63c
00000240: 48af edbc 4c1d c83c a6a6 033d 596b a6bc
00000250: ccb1 4ebc 9ff5 a7bc 53d7 a0bb f5d8 b13c
00000260: 5d42 e73c 6b94 c23c a9f3 1abc 2856 df3c
00000270: dbb7 c9bc 421e 9dbc 3ef7 80bb 0672 8bbc
00000280: 607a 1bbc 9a7d 063d 0e04 963c 4c2e 493c
00000290: 7509 7ebc d57a ce3c 068b aebc 2e1e dbbc
000002a0: 331f 12bd 320b c2bc 3d9e a4bc e365 043d
000002b0: 9f02 98ba 09d2 80bc dfcd 90bc 5489 a2bc
000002c0: dc9d fcbc 0fdf a23c 76cb 06bc 1012 b33c
000002d0: 6030 91bc 6ced 18bc 3e9b 813b 1473 0dbd
000002e0: b443 0fbd afc5 ba3c 2563 1d3b ae98 86bc
000002f0: d86a ea3c 38e0 7b3c c227 7d3c 34d9 6b3c
00000300: 774a 9e3c 98b1 b13c 7c14 05bd 5366 1cbd
00000310: aff8 233b e680 b23c ca2d bbb8 5dd0 fd3b
00000320: b3c6 933c a4cb 963c 6b62 063d 0b0f 103c
00000330: 25fd 2b3c e583 2bbc 7ff4 fb3c 6938 19bd
00000340: 7e99 ee3c 45d9 833c bc3a b0bc f694 ef3c
00000350: 6481 79bc ac36 0dbd 3a82 a93c e531 a4bc
00000360: 9762 c0ba 9a7e 8cbc 603c cf3c 9af4 8b3c
00000370: 8248 9ebc b8d6 da3c 55a5 b8bb a628 123d
00000380: 9017 103d 24de 16bd f441 bc3c 4f25 aebc
00000390: 7cfc d1bc c59b 0cbc be4d 47ba 97b8 133b
000003a0: 5d64 10bc 68b9 08bd dd00 3cbc 231c ce3c
000003b0: 1613 d43c 1046 0e3d da01 ec3c f2fc efbb
000003c0: 0fd5 2bbc 559e 85bc b9a7 d0bc 3c2b ae3c
000003d0: 0262 8f3c 35ef f73c 4c25 22bb 87b8 ca3b
000003e0: 1253 9f3c faa5 543c 1825 2a3c a9b1 8ebb
000003f0: a2d1 babc 7a94 153d 4ee3 f63c 9d1a da3b
-0.018216264 -0.0104608955 0.033812195 0.0017454802 -0.00045356425 0.027401265 -0.010594353 -0.03026327
-0.021106046 0.02424039 0.01668739 0.023570003 0.022389872 0.017697193 0.0109181395 -0.023669597
0.012685338 -0.018256553 -0.012867997 -0.031046774 -0.03466979 -0.022898028 -0.011226814 0.021316618
-0.0038532347 0.010531916 0.025439674 0.033165235 0.024707612 0.013894488 -0.022723012 -0.020734496
0.019348219 -0.024292808 0.0014112599 0.005939498 0.0036252602 0.029361796 -0.016678212 -0.020142518
0.02190571 0.0049779476 -0.008614045 0.010471844 -0.014715684 -0.0040485864 0.033183333 -0.018511653
-0.004751504 -0.035804678 -0.03227607 -0.031335782 0.020187287 0.03094685 0.010439269 0.021791173
-0.032164957 0.0128178345 -0.03340537 -0.019000933 0.031838823 -0.023148652 0.0043869223 0.012302802
0.0071611735 0.015501152 0.011340834 0.025782835 -0.023965124 0.005948389 -0.012714566 -0.011224843
0.023846794 0.0038324513 0.0033130792 -0.030442586 0.004887188 -0.03110115 0.014804229 0.018668888
-0.038441874 0.013878201 -0.012223596 -0.021351881 0.029237736 0.026818398 0.0107945595 0.008556947
-0.020505236 0.002041467 0.02650425 0.0117219575 0.032245897 0.011767986 -0.031472616 0.014121946
0.00035717824 0.033984665 0.029123858 -0.0038315542 -0.026206998 -0.019156886 0.025878478 -0.010687503
-0.0018559395 -0.022133611 0.03274626 0.0046884967 -0.01411733 0.00083369494 0.0058645573 -0.030452417
-0.014856385 -0.018757746 -0.026033714 -0.0021249242 -0.015961433 0.021638907 -0.022350688 0.009578862
0.028263517 0.022170452 0.007666333 -0.020253565 -0.01439167 -0.014990331 0.0051604956 0.013351341
0.0047935327 -0.0063261357 -0.008038016 -0.011131811 0.0067438297 -0.011317183 -0.033149168 -0.00087370933
0.01122325 -0.025471933 -0.01466305 0.03395974 -0.019245666 -0.016495608 -0.034246445 0.020383583
-0.029014245 0.024428032 0.03214135 -0.02031486 -0.012615632 -0.020502863 -0.004908481 0.021709898
0.028229887 0.023752412 -0.009457507 0.027262762 -0.024623802 -0.019179467 -0.0039357236 -0.017022144
-0.009489626 0.032834627 0.01831248 0.012279104 -0.015505184 0.025205055 -0.021306526 -0.02674779
-0.035674285 -0.023686979 -0.020094985 0.03232373 -0.0011597461 -0.015725153 -0.017676292 -0.019840874
-0.030836992 0.019881753 -0.00822722 0.021859199 -0.017723262 -0.00933395 0.003955274 -0.034533575
-0.034976676 0.022799341 0.0024015394 -0.016430225 0.0286154 0.015373282 0.0154513735 0.014395047
0.019322617 0.021691129 -0.03249024 -0.03818352 0.0025020053 0.02178998 -8.925384e-05 0.007745786
0.018039083 0.01840765 0.032808702 0.008792649 0.010497366 -0.010468458 0.030756233 -0.037407313
0.029125925 0.016094813 -0.021512382 0.029245835 -0.015228603 -0.034475967 0.02069198 -0.020043323
-0.001467782 -0.017150212 0.025297344 0.017084409 -0.019321684 0.026713714 -0.0056349435 0.035683297
0.03517872 -0.036832944 0.022980668 -0.021258024 -0.02563309 -0.00858206 -0.0007602832 0.0022540444
-0.008812991 -0.033379942 -0.011474815 0.025159901 0.025888007 0.034734786 0.028809477 -0.0073238546
-0.010487809 -0.01631085 -0.025470601 0.02126085 0.017502788 0.03026543 -0.002474147 0.006186548
0.01944879 0.012979025 0.01038482 -0.004354675 -0.022805039 0.03651855 0.030137684 0.0066560046

bias f4 [128]
00000000: 2bb5 f5bb 7119 2bbc ad64 e1bc 10d0 6138
00000010: 8e5a 0ebb 1abe afbc 87df dcbc 09a2 bc3c
00000020: e49e b3bc f913 c0bb da9d 4e3c aac8 193b
00000030: 1af0 2cbc b0c6 b0bc 2005 13bd 8cf8 283b
00000040: 78eb 463c cb31 d5bc 46c4 013c 0b20 4cbc
00000050: b220 edbc 1077 9139 a2e4 d8bc 8cd3 813c
00000060: 7bd3 c9bc 5882 8bbc 239a 393b 35a2 023d
00000070: b7ff abbc 83c8 bfbc f818 bdbc a9a8 a5bc
00000080: 671f f3bc 4e72 8fbc cc9f 3bbb 5b61 133c
00000090: cbe4 b33c 44f9 dc3c 68af dfbc ff91 f6bb
000000a0: 4343 083d 183f 073d 5a5b df3c 4175 573b
000000b0: 4355 f63c 2b9b eb3c ac3c f1bc 0952 08bd
000000c0: 7598 e4bc fc08 dc3c 2e55 c1bb 4f77 1dbd
000000d0: 0ba7 d5ba 292e 543c adcc b5bc 3472 3fbb
000000e0: cc16 a93c 23c4 15bd 441b 003c 226a fe3a
000000f0: 957f ef3c 1842 39bb 74ac cf3c d634 82bb
00000100: 43eb cf3c 87bb 09bc b8c1 55bc 339d b8bc
00000110: cc91 9339 43c1 86bc a9ac a1bc 0df9 073b
00000120: c5df 083d 33c0 00ba 8059 9f3c 8cde 7bbc
00000130: 88df 723c cc48 babc fca4 9dbb 604a 903c
00000140: 1513 ea3c d481 c33c 1026 103b 08b5 e93b
00000150: d30c 043d b2f4 453c 7ba3 923b ac9c 203c
00000160: 57b4 abbc a3fe 6d3c 9167 323c 1fb7 453c
00000170: c967 4e3b 5699 d83c c18c 893b 0225 0eba
00000180: cde1 14bd 1599 05bd 31a2 bf3b a858 ccbb
00000190: d813 53bb 82b2 ad3c e203 193b b37d b0bc
000001a0: 7452 ee3c 78db c9bc 5ea1 8f3c 29a7 efbc
000001b0: 3b0a e53c 505c 113d 327c b7bc d912 c5bb
000001c0: b50d bebc 65e1 68bb ef22 163d e7c5 f93c
000001d0: 0f73 10bd cb20 f83a 1bd7 263b fbbf b53b
000001e0: b658 113b de6d 3e3c bab5 5dbc eebc 0cbd
000001f0: 7188 f1bc 91b6 f33c e07d 7cbc b92b ec3b
-0.0074984035 -0.010443077 -0.027513826 5.3837954e-05 -0.0021721455 -0.021452952 -0.026962055 0.023026483
-0.02192635 -0.005861756 0.012610877 0.0023465552 -0.010555292 -0.021579117 -0.03589356 0.002578291
0.012141101 -0.02602472 0.00792033 -0.0124588115 -0.028946254 0.00027745264 -0.026476208 0.015847944
-0.024636975 -0.017029926 0.0028320632 0.031892974 -0.020995958 -0.023411041 -0.023083195 -0.020222025
-0.02967806 -0.01751056 -0.0028629182 0.008995379 0.021959683 0.026974328 -0.02730532 -0.0075247283
0.03326727 0.033019155 0.02726524 0.0032876285 0.030069953 0.028760513 -0.029447876 -0.03328136
-0.027904728 0.026859753 -0.005900047 -0.03844386 -0.0016300393 0.012950459 -0.022192324 -0.0029212357
0.020640753 -0.036564004 0.007819001 0.0019410292 0.02923564 -0.0028268155 0.025350787 -0.0039735837
0.025380736 -0.008406526 -0.013046674 -0.022535896 0.00028146652 -0.016449576 -0.019735651 0.002074781
0.03341653 -0.00049114524 0.019451857 -0.0153728835 0.014823802 -0.02273979 -0.0048109274 0.01761359
0.028573552 0.023865618 0.0021995343 0.0071321763 0.032238793 0.012082266 0.004475055 0.0098029785
-0.020960016 0.014526042 0.01088895 0.012067585 0.0031494966 0.026440304 0.0041976874 -0.0005422385
-0.036348153 -0.032616694 0.005848192 -0.0062361546 -0.0032207873 0.021203283 0.0023348262 -0.021544313
0.029092051 -0.024640784 0.017533 -0.029254513 0.02795898 0.035488427 -0.022398088 -0.0060142097
-0.023199895 -0.0035534736 0.03665441 0.030489875 -0.03526598 0.0018930672 0.0025457803 0.0055465675
0.002217812 0.011622874 -0.0135320965 -0.034359865 -0.029484006 0.02975014 -0.01541087 0.0072073606
