promptPGpot/checkpoints/exp0_autopot_randompolicy/ckpt_8.pt (torch, 394659 bytes, 2 tensors)

weight f4 [128, 768]
00000000: f7f3 94bc 1295 00bc fe81 1b3d dfe9 5e3a
00000010: 337e 413b 327d b93c 87fd b7bb 1ef4 cebc
00000020: 6a3c c6bc cd0d a43c c61f 973c 1660 a43c
00000030: aa83 e83c 46bb 3a3c d784 803c f671 b0bc
00000040: daf5 4f3c 6b0a abbc 6936 1dbc ba74 0fbd
00000050: 659c 2bbd 51a6 c5bc 1e97 4cbc 5ab9 ac3c
00000060: c1a1 eabb 739d 5b3c d579 963c c9c1 f53c
00000070: a46d a73c 5fed 883c 59b0 cabc a159 91bc
00000080: 0227 9c3c ed91 c0bc 2497 fb3a f3fc 393c
00000090: 6137 333b b35a c73c 16f0 99bc f5d2 91bc
000000a0: 2bd2 cb3c 5b19 413c 6fbf babc b5a9 2b3c
000000b0: bdee 2abc f1f7 c6bb 686e 0d3d 0965 d3bc
000000c0: b923 06bc 7ac2 16bd 0a55 0abd 71e6 01bd
000000d0: 8e3e a33c c461 0c3d 7685 ae3b fd15 9a3c
000000e0: f155 05bd c07d 7e3c 0851 14bd 49c3 73bc
000000f0: a719 213d 4c2d 7bbc 9940 b7bb 7b33 103c
00000100: 72ab d93b e07f 4f3c 35fd 2e3c a58b a63c
00000110: ef7c cdbc 514a e63b 6882 7cbc 4ce7 74bb
00000120: 99ee 663c 3ea9 a33b 56b6 333c 9f1f dcbc
00000130: 1fc0 273c 5742 e7bc 4766 063c 2df3 703c
00000140: d84c 18bd 59a7 913c 9ec0 35bc 9824 a5bc
00000150: d49e 003d fad5 ca3c 2b28 493c 2862 573c
00000160: 99ae 83bc c1bd 223b 1ed8 fe3c 7ff5 0f3c
00000170: 46e8 c73c 3a17 483c 1744 c9bc 51ec 8b3c
00000180: 1571 eeba 221f 013d c463 d03c 5705 a4bb
00000190: 9f83 6cbc d8b7 8abc 8fd6 f33c a9ec fdbb
000001a0: ec71 1b3c 47ab a8bc bba2 213d 3da3 e33a
000001b0: 476f 1bbc f301 20bb b8be fc3b d570 1abd
000001c0: efba 91bc db13 16bd 69d9 bbbc f237 00bb
000001d0: 5f44 c9bb e1d8 873c 70f3 b4bc 9a4d 433c
000001e0: 1803 813c 8383 983c 289d 9d3b cc02 b6bc
000001f0: 9f15 76bc 54f5 4abc 81aa 163c d946 8c3c
00000200: 00a2 1c39 c583 95bb d629 15bc d0a6 30bc
00000210: 3b29 723c 928e 65bc a2e6 f7bc 5efd ee39
00000220: fbdc 943c d1b7 9dbc 66f8 7fbc cda9 213d
00000230: 827f 70bc a3a8 49bc e758 12bd 9e96 873c
00000240: 3f59 d9bc a96f cc3c 480d e43c cabd 9cbc
00000250: 5d06 91bc a802 aebc 3ff2 66bc 6237 c03c
00000260: 430b f33c 80a1 c83c b759 28bc 5532 ab3c
00000270: eaf1 babc 137a 39bc f909 73bb 8dcd 9bbc
00000280: 7095 05bc 2be9 033d 15c3 6f3c e2ff 193c
00000290: 5bf7 a6bc 24bf ee3c ad07 92bc a17f e5bc
000002a0: 1fe6 02bd 5e23 d9bc d6e4 8abc 516e fd3c
000002b0: e6b5 6f39 5b3a 8fbc 4e72 b4bc 41de 94bc
000002c0: 9772 fabc 506e 933c b726 01bc 4eed a13c
000002d0: b6a0 9abc fe93 22bc 47eb ad3b cb57 02bd
000002e0: 5cda 08bd 51e4 913c e4fb c33a dcec 45bc
000002f0: d364 af3c df60 153c e152 b73c 09d2 363c
00000300: 1244 db3c eaf4 ab3c 5e61 00bd 6f99 09bd
00000310: b295 723a f540 b43c 1c7f c73a 8b2c 853c
00000320: 43c4 3b3c 49d3 af3c 4988 1a3d b199 8b3c
00000330: 9a7a 323c 91d1 2fbc 7d73 f63c e86d 1fbd
00000340: 2570 ec3c 856c 523c 1688 a9bc 699a af3c
00000350: c49d 8fbc ab2b 06bd 5893 813c 1dfe c2bc
00000360: 09e5 c2ba 8504 09bd 8a4b b33c fb09 6d3c
00000370: 7659 c3bc 4aa5 eb3c 27a5 47bc 8591 113d
00000380: 6c39 153d 0ce3 03bd 08f9 9f3c a820 a3bc
00000390: 1a92 dcbc 0269 0bbc e9ef 00ba d3bc 90ba
000003a0: 3eb1 71bc a3d4 cebc 4427 89bc 82d8 ac3c
000003b0: 9687 a33c c5d8 ad3c be2e a93c 8473 01bc
000003c0: 5c2f 8fbb de61 9abc fd25 ccbc 293e ca3c
000003d0: 5fd5 b83c 9795 fd3c 988c ed3b ab5c 553c
000003e0: dd1b ae3c 41a1 943c d532 033c de1c fa39
000003f0: 6bd0 e2bc 4b6f f53c 9879 023d dc72 6239
-0.018182738 -0.007848041 0.037965767 0.00085034774 0.0029524683 0.022642706 -0.0056149396 -0.025262889
-0.02419873 0.020026112 0.018447768 0.020065349 0.028383095 0.0113971885 0.015688343 -0.021538716
0.012692893 -0.020878991 -0.009595492 -0.03502343 -0.041897196 -0.024127157 -0.012487201 0.021084476
-0.007160396 0.013404238 0.01836864 0.02999963 0.020438023 0.01671475 -0.024742292 -0.017742934
0.01906157 -0.023507083 0.0019194824 0.011351812 0.002734624 0.024335241 -0.01879124 -0.017800787
0.02488049 0.01178583 -0.02279636 0.010477473 -0.010432896 -0.0060720374 0.03452912 -0.025805013
-0.008187228 -0.03680656 -0.033772506 -0.031713907 0.01992729 0.034272924 0.0053259684 0.018809313
-0.032552663 0.015532911 -0.03621009 -0.014878103 0.039331105 -0.015330624 -0.0055924174 0.008801336
0.0066427523 0.012664765 0.010680486 0.02033026 -0.025083987 0.007027902 -0.015411951 -0.003736931
0.014094972 0.0049945405 0.010968765 -0.026870547 0.010238676 -0.028229875 0.008203096 0.014706415
-0.03718266 0.017779993 -0.011093287 -0.02015905 0.03140147 0.024760235 0.012277643 0.013145961
-0.016074466 0.002483234 0.031108912 0.008786558 0.024402749 0.012212569 -0.0245686 0.017080458
-0.001819166 0.03152383 0.025438197 -0.0050055194 -0.014435678 -0.016933367 0.029765395 -0.0077491594
0.00948761 -0.020589484 0.039461832 0.0017367374 -0.00948698 -0.0024415224 0.007713165 -0.03770526
-0.017789332 -0.03664003 -0.022930818 -0.0019564596 -0.0061421837 0.016582908 -0.022088736 0.011920357
0.015748546 0.018617397 0.0048099943 -0.02221813 -0.015019803 -0.012387592 0.009195925 0.017123627
0.00014937669 -0.0045628273 -0.009104213 -0.010781959 0.014780338 -0.014011042 -0.030261341 0.0004558367
0.018171778 -0.01925269 -0.015623188 0.039468575 -0.014678838 -0.0123082725 -0.035729315 0.016551312
-0.026531814 0.024955587 0.027838364 -0.019133467 -0.01770323 -0.021241501 -0.014095842 0.023463909
0.029668456 0.024491072 -0.010275296 0.020898024 -0.022820432 -0.011320609 -0.0037084802 -0.019018913
-0.008153304 0.03220479 0.0146339135 0.009399386 -0.02038162 0.029143877 -0.017825926 -0.02801496
-0.03195774 -0.026506122 -0.01695482 0.030936392 0.00022860579 -0.01748388 -0.022027161 -0.018172385
-0.030572219 0.017996937 -0.0078827655 0.019766476 -0.018875461 -0.009922979 0.0053075883 -0.031822007
-0.03341137 0.017809065 0.0014952389 -0.012080397 0.021410381 0.009117334 0.022378387 0.011158475
0.026765857 0.020990808 -0.031342857 -0.03359359 0.0009253874 0.02200363 0.0015220377 0.016256591
0.011460367 0.021463053 0.037727628 0.01704106 0.010893488 -0.010731117 0.030084366 -0.038923174
0.028862068 0.012843256 -0.020694774 0.021435933 -0.017531283 -0.03275649 0.01581733 -0.023802811
-0.0014869283 -0.033451576 0.021886606 0.014467712 -0.02384637 0.02876534 -0.0121853715 0.03553917
0.036431715 -0.03219895 0.019527927 -0.019913033 -0.026925135 -0.0085089225 -0.0004918562 -0.0011042602
-0.0147517305 -0.025247877 -0.016742356 0.021099333 0.019962113 0.021221528 0.020652171 -0.007901076
-0.0043696593 -0.018845495 -0.024920458 0.024687843 0.02256268 0.030955119 0.007249426 0.013022582
0.02125352 0.018143298 0.008007725 0.00047705224 -0.027687272 0.029960295 0.031854242 0.00021595828

bias f4 [128]
00000000: 68a5 ffbb 439a 2abc e7ad c5bc a1da 1b3a
00000010: 94b9 82bb 7bb4 cbbc 2a46 cebc 7fcd 9b3c
00000020: e2cc cbbc 9df8 f1b9 bd36 2b3c 83e8 86ba
00000030: 9546 88bc 3163 9bbc 07e7 07bd 51bc 843b
00000040: 7c83 2b3c 0ba9 d8bc a318 d83b 2df7 d2bb
00000050: f2cd 0bbd 4aa7 c5ba bf1e cebc ce7e 7e3c
00000060: 7816 b8bc da05 93bc 5eda dab9 5b3f 033d
00000070: 61a3 9ebc 5fa3 adbc cb27 cabc 5130 a6bc
00000080: cb31 f4bc 039c a3bc 7998 dc39 2060 e83b
00000090: c313 ba3c 5d5b bd3c 459b d8bc 9a9d e2bb
000000a0: e3bb f13c a428 043d 502b d23c 6a79 c43b
000000b0: bb25 003d f5aa f13c cc62 0bbd 6f78 0bbd
000000c0: 8f06 d0bc 9ca8 da3c 6c2f 04bc 9ef3 10bd
000000d0: 0fca d5ba a3e2 603c 8573 c7bc d26a bdbb
000000e0: f0c1 a33c 6bf8 04bd 758f 353c 9418 3d3b
000000f0: a138 fd3c 99f7 2cbb 4f66 fb3c 680e d8ba
00000100: 38e9 bc3c 1b90 2cbc 9183 77bc eb32 a7bc
00000110: 2ad6 c839 b1ca 82bc c6e8 bbbc b915 843b
00000120: 8f4d fe3c d41d 823a dfab b63c eca2 92bc
00000130: 0876 203c 40d8 afbc d584 41bb ce2b 733c
00000140: de27 ca3c cc41 bf3c f409 243b 046e 0f3c
00000150: 1e2b ff3c 3b76 293c b8ad bb3a 6942 f73b
00000160: 339a a1bc 9cf9 473c 6558 fa3b 9cb6 193c
00000170: 72d3 4a3a bb0c c13c 7a26 2b3a e39a 99bb
00000180: 0b75 09bd e804 0fbd 28ad 133c 9ab1 14bc
00000190: 5482 d8bb 1d79 cf3c bb00 003b 7de6 a4bc
000001a0: b899 d13c 1c7c aebc c4f4 b33c a770 f3bc
000001b0: a7ec bc3c 6d40 fd3c cb0c abbc 9def 1bbb
000001c0: de9e ccbc ae30 84ba f618 173d a238 f33c
000001d0: 8584 13bd 6dec 003b 20a9 203b 7043 8e3b
000001e0: 15e7 63b9 8087 573c 58cc 68bc 1714 14bd
000001f0: 60e8 dcbc 20ae 013d e4b8 8dbc 9b34 043c
-0.0078017004 -0.010412755 -0.024130775 0.0005945359 -0.003989408 -0.024866333 -0.025179941 0.019018887
-0.02487797 -0.00046152333 0.010450062 -0.0010292683 -0.016635219 -0.018968197 -0.03317931 0.0040507694
0.01046836 -0.026447793 0.006594734 -0.006438157 -0.03413195 -0.0015079763 -0.025161145 0.015533162
-0.022471651 -0.017947126 -0.00041742896 0.032042842 -0.019365015 -0.021196065 -0.024677178 -0.020286711
-0.0298089 -0.019971853 0.0004207527 0.007091537 0.022714501 0.023114854 -0.026441226 -0.00691576
0.029508537 0.03226532 0.025655419 0.005995919 0.031285983 0.029500464 -0.034029767 -0.0340504
-0.025393752 0.026691727 -0.008067947 -0.03538858 -0.0016310829 0.013725909 -0.024347076 -0.0057805562
0.019989938 -0.032463472 0.011081566 0.002885376 0.030910792 -0.0026392697 0.030688433 -0.0016483786
0.023060426 -0.010532404 -0.0151070515 -0.020410022 0.00038306537 -0.015965791 -0.022938143 0.00403091
0.031042842 0.0009927102 0.022298751 -0.017899953 0.009793766 -0.02146542 -0.0029528637 0.014841987
0.024677213 0.023346804 0.0025030347 0.008754257 0.03114849 0.01034313 0.001431874 0.0075457585
-0.019726848 0.012205508 0.007639932 0.009381916 0.0007737196 0.02356564 0.0006528866 -0.0046876534
-0.033558886 -0.03491679 0.009013452 -0.009075547 -0.006607333 0.025326306 0.0019531685 -0.020129437
0.025585994 -0.021299414 0.0219673 -0.029716803 0.023062063 0.03091451 -0.020880124 -0.0023793944
-0.024978098 -0.0010085308 0.03688904 0.02969009 -0.036015052 0.001967217 0.002451487 0.0043415353
-0.00021734492 0.013154864 -0.014208876 -0.03615197 -0.026966274 0.0316602 -0.017300077 0.008069183
