promptPGpot/checkpoints/exp0learn_policy_autopot_selfask_epsilon99/ckpt_6.pt (torch, 394659 bytes, 2 tensors)

weight f4 [128, 768]
-0.010993991 -0.0071249097 0.03051594 0.002004486 -0.005636498 0.022832727 -0.009535491 -0.02384921
-0.026759576 0.021899994 0.015685575 0.023719704 0.02225148 0.018028777 0.0143910665 -0.022586979
0.009962745 -0.018901262 -0.008655774 -0.032890975 -0.030333888 -0.019165177 -0.015172899 0.015711298
-0.005343235 0.0033696583 0.02368697 0.030228943 0.016383458 0.011543696 -0.018060356 -0.01953216
0.019904593 -0.026162151 -0.00025636534 0.0054061413 0.007817996 0.024033232 -0.013596419 -0.018638916
0.020597255 0.0023123582 -0.011379302 0.0072204233 -0.015593268 -0.0034978478 0.033294525 -0.018743243
-0.008064084 -0.032999236 -0.037017155 -0.029444212 0.018450785 0.030454367 0.011988908 0.029690986
-0.034508105 0.01808297 -0.032552097 -0.020000165 0.032083277 -0.028158983 0.0010300346 0.014121533
0.006823585 0.016009841 0.004713962 0.030860819 -0.015821125 0.005391092 -0.010297897 -0.012597769
0.03077006 0.006821098 0.006508872 -0.032458387 0.0031134053 -0.034765102 0.012322353 0.012233255
-0.03752437 0.01402962 -0.012383573 -0.017980756 0.023019182 0.026183067 0.0058323205 0.009282449
-0.021326048 0.0028407339 0.026272366 0.009467666 0.031221462 0.01591143 -0.031699337 0.014028465
-0.0035310846 0.03649375 0.028337441 -0.0029953867 -0.030401098 -0.020879557 0.026074572 -0.009086588
-0.001773499 -0.01898361 0.03169278 0.007031342 -0.008111948 0.00026349086 0.002602126 -0.030904934
-0.014216359 -0.022257866 -0.027268529 0.0003355191 -0.015351248 0.022729041 -0.020342007 0.010408165
0.033332534 0.023104072 0.015037872 -0.020395871 -0.015092656 -0.014801485 0.008512605 0.010826336
0.0062336363 -0.004313027 -0.008201294 -0.0053592087 0.005710942 -0.015022681 -0.02683354 0.0013440349
0.011551982 -0.020789957 -0.016944818 0.031470336 -0.021298783 -0.014191185 -0.034629315 0.02517126
-0.030370507 0.026173951 0.031120377 -0.024085483 -0.0036393844 -0.017815009 -0.0033108129 0.018486371
0.03557631 0.02863182 -0.010152502 0.032035965 -0.023335299 -0.023016032 0.0015808365 -0.017591009
-0.008492147 0.033401348 0.019476412 0.010374471 -0.020607436 0.024212413 -0.018845037 -0.025275331
-0.03969421 -0.022872608 -0.024001751 0.031837374 -0.00016742037 -0.018556075 -0.008817811 -0.021410786
-0.027340706 0.018820979 -0.0058096703 0.019795388 -0.017493388 -0.008587222 0.002166536 -0.033325467
-0.035018336 0.023650995 0.004227636 -0.013490891 0.03258072 0.016858054 0.012016858 0.015002313
0.022225821 0.01279196 -0.031695273 -0.031759758 -0.0017268554 0.01796448 -0.0034837571 0.0057973634
0.02034522 0.016394459 0.03011463 0.00789018 0.012767424 -0.010300182 0.032375723 -0.03629214
0.028690213 0.018431617 -0.019143257 0.028804155 -0.01203854 -0.034924835 0.019901976 -0.018115927
2.1009444e-05 -0.019724775 0.018147642 0.012063944 -0.02207793 0.028051162 -0.008235486 0.037491966
0.035915524 -0.030834533 0.021310309 -0.024911277 -0.027729562 -0.009261226 -0.0021906793 0.0047565866
-0.008469198 -0.03365328 -0.010811686 0.026917325 0.02333338 0.032466773 0.023823727 -0.0030701277
-0.009609289 -0.01935996 -0.021612618 0.01597457 0.021086011 0.03454804 -0.0058764117 0.005964916
0.02046976 0.010893299 0.013584736 -0.0015701078 -0.022594314 0.031082543 0.031990726 0.0053249393
00000000: 2420 34bc 1378 e9bb 91fc f93c b25d 033b
00000010: 5fb2 b8bb b30b bb3c bf3a 1cbc 6b5f c3bc
00000020: e636 dbbc 9e67 b33c 097f 803c d34f c23c
00000030: bc48 b63c 16b1 933c 82c8 6b3c 5408 b9bc
00000040: c83a 233c d2d6 9abc f3d0 0dbc b0b8 06bd
00000050: c67e f8bc 4a00 9dbc c097 78bc fbb4 803c
00000060: 4e16 afbb 7cd5 5c3b 2d0b c23c b0a2 f73c
00000070: 9a36 863c c521 3d3c 50f3 93bc e901 a0bc
00000080: f50e a33c 0252 d6bc c668 86b9 0026 b13b
00000090: 0d17 003c 57e1 c43c 84c3 5ebc a4b0 98bc
000000a0: 93bb a83c ef8a 173b 4070 3abc 4d99 ec3b
000000b0: e87a 7fbc 263c 65bb d75f 083d 6e8b 99bc
000000c0: 381f 04bc 352a 07bd 4d9f 17bd fd34 f1bc
000000d0: 1a26 973c 707b f93c 206d 443c 833a f33c
000000e0: 5f58 0dbd bd22 943c 5955 05bd 63d7 a3bc
000000f0: c169 033d abad e6bc 3a02 873a 015e 673c
00000100: 6198 df3b 1227 833c 9477 9a3b d4cf fc3c
00000110: 4e9b 81bc c2a7 b03b 83b8 28bc df66 4ebc
00000120: 7e11 fc3c 8483 df3b 6048 d53b 16f3 04bd
00000130: 460a 4c3b da65 0ebd b2e3 493c fe6d 483c
00000140: 27b3 19bd 7edc 653c 78e4 4abc 614c 93bc
00000150: b992 bc3c df7d d63c 0d1d bf3b 6a15 183c
00000160: f7b3 aebc 9b2b 3a3b 2539 d73c 451e 1b3c
00000170: 27c4 ff3c b058 823c 2ad7 01bd a6d7 653c
00000180: c569 67bb 787a 153d ec23 e83c 404e 44bb
00000190: b90b f9bc 9b0b abbc 579a d53c eadf 14bc
000001a0: c074 e8ba 8483 9bbc 4ad0 013d 2c67 e63b
000001b0: fae7 04bc 2525 8a39 6e88 2a3b 582c fdbc
000001c0: bbeb 68bc 2156 b6bc 4062 dfbc 9ce8 af39
000001d0: cd83 7bbc 4132 ba3c 48a4 a6bc 0287 2a3c
000001e0: b287 083d c044 bd3c 6861 763c 3e15 a7bc
000001f0: 3047 77bc ee81 72bc 7478 0b3c f260 313c
00000200: 8843 cc3b 4b54 8dbb b85e 06bc 4d9c afbb
00000210: db22 bb3b b121 76bc 03d2 dbbc 542a b03a
00000220: 8644 3d3c b34f aabc dccf 8abc 0ae7 003d
00000230: c97a aebc 2582 68bc 78d7 0dbd f533 ce3c
00000240: 92cb f8bc c16a d63c 29f0 fe3c eb4e c5bc
00000250: bd82 6ebb c8f0 91bc 39fa 58bb bb70 973c
00000260: 77b8 113d 478d ea3c ae56 26bc 2538 033d
00000270: ab29 bfbc 1e8c bcbc 1234 cf3a 051b 90bc
00000280: a522 0bbc dacf 083d ff8c 9f3c aff9 293c
00000290: edd0 a8bc 1c59 c63c e860 9abc 360e cfbc
000002a0: 6596 22bd 565f bbbc 529f c4bc e867 023d
000002b0: 908d 2fb9 e902 98bc 9478 10bc ac65 afbc
000002c0: 9ef9 dfbc 742e 9a3c 0c5f bebb f029 a23c
000002d0: 4b4e 8fbc 6bb1 0cbc 71fc 0d3b 4980 08bd
000002e0: 636f 0fbd bbbf c13c fb87 8a3b e608 5dbc
000002f0: 5c73 053d e719 8a3c 5be2 443c 43cc 753c
00000300: ed12 b63c 5e95 513c e7d2 01bd 8516 02bd
00000310: a757 e2ba 3f2a 933c bf4f 64bb cff7 bd3b
00000320: 05ab a63c ac4d 863c f5b2 f63c d045 013c
00000330: 752e 513c 18c2 28bc 689c 043d 11a7 14bd
00000340: bd07 eb3c e7fd 963c 52d2 9cbc b1f6 eb3c
00000350: 4c3d 45bc 580d 0fbd 7809 a33c da67 94bc
00000360: 703d b037 da95 a1bc 5daa 943c d9a7 453c
00000370: c6dc b4bc 8dcb e53c 22ee 06bc 2d91 193d
00000380: 281c 133d b498 fcbc f592 ae3c bc12 ccbc
00000390: 1b29 e3bc 66bc 17bc 8091 0fbb 24dd 9b3b
000003a0: 64c2 0abc 06d8 09bd 7f23 31bc b981 dc3c
000003b0: a525 bf3c e1fb 043d fa29 c33c 3234 49bb
000003c0: 4770 1dbc c798 9ebc f20c b1bc 1add 823c
000003d0: 92bc ac3c 3f82 0d3d ea8e c0bb 5875 c33b
000003e0: 33b0 a73c cf79 323c 8392 5e3c 13cc cdba
000003f0: b617 b9bc d1a0 fe3c b508 033d d47c ae3b

bias f4 [128]
-0.00767456 -0.00785171 -0.027693605 0.007104357 0.0004029834 -0.027760632 -0.02670738 0.01915013
-0.021578182 -0.00625587 0.011830282 0.0038032075 -0.016575072 -0.023229608 -0.033141308 0.0013544753
0.011467824 -0.025426146 0.0058692396 -0.01399312 -0.028725553 -0.00256665 -0.024633963 0.017882304
-0.024855966 -0.016228959 -0.0021489768 0.033206508 -0.022858026 -0.024517365 -0.024379997 -0.021363894
-0.033341307 -0.022652736 -0.00035797438 0.006839174 0.029377421 0.023811987 -0.029272614 -0.0061107934
0.031389147 0.028972188 0.025862899 0.0050553894 0.030446665 0.02415556 -0.035031628 -0.03221825
-0.023077654 0.026443806 -0.0065233726 -0.038037732 -0.0017811925 0.011409227 -0.022097955 -0.0050216634
0.0134921195 -0.033069752 0.011927695 0.00079647556 0.034627255 -0.0045095845 0.02569973 -0.001864661
0.01981302 -0.012140464 -0.0129631115 -0.02466969 0.0039493307 -0.02030208 -0.024568226 0.0037470793
0.0340228 -0.003554089 0.022640487 -0.019793605 0.010381011 -0.020137552 -0.006468518 0.013940224
0.02805101 0.022610337 0.0042666015 0.0095836455 0.026851805 0.011367544 -0.0013045928 0.0066222483
-0.020841016 0.018002747 0.013493177 0.0089381505 -0.0010233083 0.024951197 0.004648652 -0.008569852
-0.03330566 -0.037485525 0.004987978 -0.008667898 -0.0072018667 0.022225143 0.0038814202 -0.022231407
0.028732795 -0.023136226 0.018006923 -0.030974342 0.028207663 0.0323869 -0.020615324 -0.006156691
-0.028162464 -0.0047216886 0.037056707 0.027251523 -0.032822955 0.008285727 0.0014214648 0.0017773623
-0.0037656596 0.014323304 -0.012521907 -0.032032702 -0.030408636 0.03100241 -0.008900676 0.009703764
00000000: e07a fbbb 75a4 00bc b3dd e2bc aacb e83b
00000010: 8447 d339 446a e3bc 6fc9 dabc bce0 9c3c
00000020: bac4 b0bc 0bfe ccbb cdd3 413c 3c3f 793b
00000030: 72c8 87bc 054c bebc 2ebf 07bd a688 b13a
00000040: 8ae3 3b3c 7e4a d0bc c052 c03b 6643 65bc
00000050: da51 ebbc 3e35 28bb 2acd c9bc e97d 923c
00000060: bd9e cbbc 98f2 84bc d9d5 0cbb 8c03 083d
00000070: c140 bbbc a4d8 c8bc 8fb8 c7bc 5503 afbc
00000080: e590 08bd 3b92 b9bc 82ae bbb9 261b e03b
00000090: eba8 f03c 5b11 c33c 1fcd efbc 0d3d c8bb
000000a0: e891 003d 1557 ed3c 6ede d33c aea7 a53b
000000b0: 496b f93c e2e1 c53c 537d 0fbd 49f7 03bd
000000c0: 590d bdbc aea0 d83c 04c2 d5bb 74cd 1bbd
000000d0: e776 e9ba c4ed 3a3c c506 b5bc c48c a4bb
000000e0: 0d0e 5d3c 2674 07bd 616c 433c 92ca 503a
000000f0: 4fd5 0d3d 23c5 93bb 3d88 d23c a467 f4ba
00000100: ea4e a23c cce8 46bc 3b63 54bc 1718 cabc
00000110: 6369 813b 8c50 a6bc 4e43 c9bc 8f91 753b
00000120: 7e5b 0b3d b8eb 68bb 8b78 b93c 3326 a2bc
00000130: 1e15 2a3c 82f7 a4bc ddf5 d3bb 8a65 643c
00000140: 3bcb e53c 5039 b93c d9ce 8b3b b904 1d3c
00000150: 51f8 db3c ef3e 3a3c dffe aaba 72ff d83b
00000160: c7ba aabc 7f7a 933c 7c12 5d3c 5271 123c
00000170: 8720 86ba 7466 cc3c b853 983b 9168 0cbc
00000180: 846b 08bd 6c8a 19bd 3172 a33b cd03 0ebc
00000190: a3fd ebbb 8111 b63c 6d5f 7e3b a41e b6bc
000001a0: 0a61 eb3c 2f88 bdbc 4183 933c e7bd fdbc
000001b0: c213 e73c 20a8 043d 78e1 a8bc 11be c9bb
000001c0: f8b4 e6bc 65b8 9abb c6c8 173d 963e df3c
000001d0: 5d71 06bd dcc0 073c 7250 ba3a 62f6 e83a
000001e0: 49c9 76bb 4bac 6a3c af28 4dbc b934 03bd
000001f0: 881b f9bc c4f8 fd3c 24d4 11bc 89fc 1e3c
