promptPGpot/checkpoints/exp0learn_policy_autopot_selfask_epsilon99/ckpt_best_reward.pt (torch, 394827 bytes, 2 tensors)

weight f4 [128, 768]
00000000: 28ad 6ebc 4416 06bc cef9 043d 764a 6b3a
00000010: 17b1 79bb 2ec6 d53c 3c93 11bc 17e4 ccbc
00000020: 78f2 d0bc 8e68 bf3c d47c 893c 5ba8 b73c
00000030: 6a4f be3c a238 8b3c c99d 5d3c c2a2 b8bc
00000040: a78c 243c 5415 8cbc d810 0cbc 4aa4 05bd
00000050: b020 fcbc 262a a0bc 98e2 61bc bb0b 8c3c
00000060: 6b69 86bb cd27 ec3b 5ab1 c83c 6e8e fe3c
00000070: c10f a83c 76ea 513c 4c38 a1bc a9fa a6bc
00000080: 2c53 a63c 1cbe debc 618d 093b be1f 963b
00000090: 2d1e f73b 89dc e73c 231e 73bc fc2b 9dbc
000000a0: 3681 a43c 7f04 4b3b 52e0 2dbc 302b 083c
000000b0: b1a9 80bc e821 abbb 244f 043d 5926 96bc
000000c0: e02a dabb 76f6 0dbd 119a 10bd 799f edbc
000000d0: 38ee b33c 9867 063d 8e96 2c3c 0ed8 e23c
000000e0: af6f 0cbd e2eb 983c 5687 07bd 643f 9cbc
000000f0: d7e3 ff3c db39 ddbc 1eba 0c3b 2e9d 4d3c
00000100: 20c4 063c 1563 883c 6954 a73b 1b20 003d
00000110: 0047 a1bc 9856 d13b 5dc4 3bbc 6a59 56bc
00000120: 501b f23c 14fb a23b 9a76 613b 09ec fcbc
00000130: 5ea9 3a3b 99eb 07bd b4ba 653c 4efd 5d3c
00000140: 0171 1bbd 4da9 7f3c 0838 55bc 0f56 a4bc
00000150: 4809 dd3c ac0a e83c a390 ea3b 2c7d 063c
00000160: 3be2 b4bc 6a48 833b f15a d53c 6d43 2b3c
00000170: cd45 f53c 1ed6 883c fe6b fabc f8c1 623c
00000180: a5bf 49bb d4a4 0a3d 5cc2 ec3c 4a14 18bb
00000190: b862 f4bc 25e9 a5bc 6fb3 d03c 1c19 14bc
000001a0: cca4 26bb 1b2a abbc ec51 043d 6f7b 853b
000001b0: 06e7 26bc 7110 85ba 08c3 8d3b 271a fbbc
000001c0: f26f 61bc 9f34 b0bc 2edf ebbc 92b6 fd3a
000001d0: eccf 6cbc df73 c03c 82b6 9fbc 2d9c 3c3c
000001e0: 5a19 063d 87ec bc3c f2b7 6b3c 6824 b4bc
000001f0: eeae 87bc d890 60bc fd70 ee3b f138 4a3c
00000200: be4a b63b f6af b0bb c83c e0bb e5db a3bb
00000210: fc26 ee3b fb1e 66bc 9e1e edbc fd5b 8a3a
00000220: 062c 383c 4145 afbc 3c54 8bbc 0b7a f03c
00000230: af75 c0bc 09d5 73bc b56f 12bd a542 cb3c
00000240: b407 f0bc 1f8e d33c 3912 013d bf3d c9bc
00000250: 84d6 9abb 056c 9abc fa0b 74bb ae96 a03c
00000260: ab04 0b3d d4af d53c 3470 20bc 4bcf ee3c
00000270: d794 c9bc 7eed babc 5a91 6e3a 9a79 8bbc
00000280: ceb1 fcbb 3651 093d 91f8 9a3c b60b 453c
00000290: a673 babc 3f89 d23c 1b0f a0bc 000b c3bc
000002a0: 64e4 18bd 8684 b3bc 60ea cbbc 7a9d 023d
000002b0: 98a8 34ba f4dc 90bc b856 40bc 8f13 a8bc
000002c0: f2be eabc ab76 a93c a3eb cebb 2b6c a03c
000002d0: 372b 92bc c55a 11bc a95a e23a dd45 0bbd
000002e0: a30e 0cbd 9d6a be3c 1210 a03b 1c39 61bc
000002f0: 793a fa3c c2dd 863c 8a60 4d3c 360c 5c3c
00000300: 0505 c13c 53f9 833c 59bb ecbc f181 00bd
00000310: 0009 d736 327d 983c 1049 a6ba b2b6 c03b
00000320: 8845 8f3c 12e9 703c 184e f83c 74b3 fb3b
00000330: 1296 283c 3d1a 17bc d82e 013d cbb7 10bd
00000340: bd31 ec3c 39d4 8e3c 1436 b0bc 7453 e33c
00000350: 268b 69bc b2f3 08bd 917f 9e3c 7ac5 9cbc
00000360: 2304 21ba 8223 9cbc 9157 a83c e404 543c
00000370: 2638 aabc bea0 e63c e514 13bc b01f 183d
00000380: 95b3 153d fe62 07bd 1f75 b43c 0fb8 cabc
00000390: 3c2f dbbc a420 24bc 6882 32bb 5485 853b
000003a0: fd77 12bc 1f69 08bd 54c7 5bbc 0365 d13c
000003b0: f5f2 b73c 245b 0a3d 18a6 dc3c 7287 acbb
000003c0: fa9f 10bc a242 91bc c874 b5bc 9a9a 933c
000003d0: 49ef a63c e455 0f3d 2e0c 8bbb 3369 cb3b
000003e0: ddaa 9e3c add1 3b3c 72a4 523c ee2c 25bb
000003f0: 5bc7 aebc e270 023d c501 083d 87d3 a43b
-0.014567651 -0.0081840195 0.032464795 0.0008975634 -0.0038099939 0.026095476 -0.008885201 -0.025011105
-0.025506243 0.023365285 0.016783156 0.022419145 0.023231227 0.016994778 0.013526388 -0.022538546
0.0100433 -0.017100014 -0.008548938 -0.03262738 -0.030777305 -0.019551348 -0.013786934 0.017095437
-0.0041019223 0.007206893 0.02449863 0.031073775 0.020515325 0.0128122475 -0.019680165 -0.020383196
0.020303331 -0.02719026 0.002098881 0.0045814207 0.007541439 0.028303402 -0.014838728 -0.019186012
0.020081144 0.0030978022 -0.010612564 0.008311078 -0.015705915 -0.005222548 0.032302037 -0.018328832
-0.006657943 -0.03465887 -0.03530318 -0.029006707 0.021964177 0.03281364 0.010533942 0.027690914
-0.034286197 0.018667165 -0.03308805 -0.019073196 0.031236572 -0.027005127 0.002147324 0.012549682
0.008225471 0.016648808 0.005106498 0.03128062 -0.019687176 0.0063884966 -0.011460391 -0.013082841
0.02955404 0.0049737785 0.0034402967 -0.03087427 0.0028482298 -0.033183668 0.014021564 0.013549162
-0.037949566 0.015604329 -0.013013847 -0.020060567 0.026981965 0.028325401 0.0071583553 0.008208554
-0.022080531 0.004006435 0.02604434 0.010453087 0.02994051 0.016703662 -0.030569073 0.013840191
-0.0030784395 0.0338486 0.028901272 -0.0023205453 -0.029832229 -0.020252774 0.025476186 -0.00903919
-0.0025427816 -0.0208941 0.03230469 0.0040735523 -0.010186916 -0.0010151995 0.004326228 -0.030652119
-0.0137596 -0.021509467 -0.028792944 0.0019356778 -0.014453869 0.023492752 -0.019496206 0.011511845
0.03273902 0.023062004 0.014387118 -0.021990016 -0.016562905 -0.013706408 0.007276653 0.012342677
0.005563109 -0.00539207 -0.006843183 -0.0050005787 0.007267831 -0.014045472 -0.028945263 0.0010555979
0.011240965 -0.021395328 -0.01700794 0.02935507 -0.023493616 -0.0148823345 -0.035751063 0.024812052
-0.029300548 0.025824605 0.03151152 -0.024565576 -0.0047252793 -0.018850336 -0.0037238584 0.0196031
0.03394 0.026084818 -0.009792376 0.02915158 -0.024607105 -0.022818323 0.00091006386 -0.017025758
-0.0077116257 0.033524714 0.018917354 0.012026718 -0.022760224 0.02570021 -0.019538453 -0.023808956
-0.037327185 -0.021913778 -0.024892032 0.031888463 -0.00068915775 -0.017683484 -0.011739425 -0.020517139
-0.028655503 0.020686468 -0.006314711 0.019582829 -0.017842872 -0.008871739 0.001726945 -0.034002174
-0.034193646 0.023244197 0.004884728 -0.013746526 0.03054546 0.016463164 0.012535224 0.013430646
0.023561964 0.016110098 -0.028897928 -0.03137392 6.408547e-06 0.018614385 -0.0012686569 0.005881154
0.01748921 0.014704006 0.030310676 0.0076813046 0.010289686 -0.009222564 0.031538814 -0.03533153
0.02883231 0.01743518 -0.021510161 0.027749754 -0.014254367 -0.03343553 0.019347938 -0.019137133
-0.0006142279 -0.0190599 0.020549567 0.012940619 -0.020778727 0.02815282 -0.00897715 0.037139595
0.036548216 -0.03305339 0.022028504 -0.02474597 -0.026755922 -0.010017548 -0.0027238373 0.004074732
-0.00893974 -0.033303376 -0.013414223 0.025560861 0.022454718 0.033778325 0.026934668 -0.00526517
-0.008827204 -0.017731968 -0.022150412 0.018018056 0.020377772 0.03499402 -0.0042433953 0.006207609
0.019368583 0.011463565 0.01285659 -0.0025203782 -0.021335294 0.031845935 0.033204813 0.005030099

bias f4 [128]
00000000: 45df cfbb c2ac fbbb f75f e1bc efca eb3b
00000010: 3087 1e39 bf5a e5bc b09a dcbc 0f5c a03c
00000020: 3dcc b4bc 4424 b9bb 5a01 313c 4a34 753b
00000030: 7833 8fbc 190b bebc eeaf 00bd c915 9a3a
00000040: e36f 3c3c 9074 d9bc 40b5 d73b 2c90 62bc
00000050: 9e9d ecbc 62a8 41bb abae c9bc 6ce4 933c
00000060: 9348 d2bc 3c3e 86bc e93f adba c518 063d
00000070: 825b bbbc f644 c6bc fe47 d2bc d7bd acbc
00000080: 6a52 07bd 0cc0 b8bc 5853 a63a 2a30 df3b
00000090: c5f1 f13c 0924 bc3c 41e8 f1bc d1f3 c0bb
000000a0: 7c94 003d 51f3 e93c 79b5 d63c 8059 9c3b
000000b0: 08fb fd3c e909 c43c 2814 10bd 4868 04bd
000000c0: d397 b9bc 271c d83c 0a48 8abb 564a 19bd
000000d0: f4d0 80ba 7a67 313c bfd3 a9bc 52c6 83bb
000000e0: 955e 5b3c b1fa 07bd e818 413c 6552 643a
000000f0: b80b 0f3d 2002 98bb 4b37 d03c 3825 15bb
00000100: 0cd9 a13c d00e 59bc 5e82 5bbc d18a cbbc
00000110: 96f7 683b 6641 aabc c919 cbbc fe54 5e3b
00000120: ab01 0a3d eeda cfba 034a b93c 885b a1bc
00000130: 0958 1e3c 872a a9bc edf9 f9bb d40e 773c
00000140: 0f1d ea3c ede8 bb3c bab5 593b d0bd 1f3c
00000150: 2f51 db3c 6df6 323c 44d5 c0ba c3a1 f43b
00000160: 38c6 a8bc be28 953c db8b 6e3c c11e 133c
00000170: 840a c4ba 8ec3 c63c 68f9 993b b01f 12bc
00000180: ff52 09bd 97ad 1abd d6f4 9d3b 0d24 12bc
00000190: 8a9f edbb 304b b73c 26f5 773b c872 b6bc
000001a0: 94fc de3c 3c0d afbc 006f 873c 9a64 f9bc
000001b0: 5462 e63c 99eb 023d 085a a6bc 01b3 c0bb
000001c0: f0a6 e4bc 3b2e a5bb 0581 103d c2f1 e43c
000001d0: 91d8 03bd b17a 093c a189 633b 0282 dd3a
000001e0: 2cfb 45bb 6925 673c 6f80 4fbc d6cd 00bd
000001f0: e17a f9bc 6b15 013d 61ac 0fbc 41fb 0f3c
-0.0063437545 -0.0076805064 -0.02751158 0.0071958224 0.00015118415 -0.027997373 -0.02692923 0.019575147
-0.022070045 -0.005650075 0.010803545 0.00374152 -0.017480597 -0.023198651 -0.03141778 0.001175576
0.011501285 -0.02654484 0.006582886 -0.013828319 -0.028883751 -0.0029549827 -0.024619421 0.018053256
-0.025669372 -0.016387098 -0.0013217899 0.032738466 -0.022870783 -0.024202805 -0.025669094 -0.021086616
-0.03303758 -0.022552513 0.0012689633 0.0068111615 0.02953423 0.022966402 -0.029529693 -0.00588844
0.031391606 0.028558405 0.02620958 0.0047714114 0.03100349 0.023930507 -0.035175472 -0.032326013
-0.022655403 0.026380612 -0.0042200135 -0.037424408 -0.0009827898 0.010827893 -0.020730851 -0.0040214444
0.013389249 -0.033198062 0.011785723 0.00087097875 0.034923285 -0.004638925 0.02541699 -0.002275778
0.019756816 -0.0132481605 -0.013397781 -0.024846466 0.0035547963 -0.020783138 -0.024792569 0.003392517
0.033692997 -0.0015858093 0.0226183 -0.019696966 0.009664544 -0.020650161 -0.0076286704 0.015079219
0.02857831 0.022938216 0.003321989 0.009749845 0.02677211 0.01092301 -0.0014711996 0.0074655726
-0.02060233 0.018207904 0.014559711 0.0089795 -0.0014956747 0.02426317 0.004698921 -0.008918688
-0.033526417 -0.037763204 0.0048204465 -0.008919728 -0.0072516846 0.02237472 0.003783533 -0.022271529
0.027220048 -0.021368615 0.016532421 -0.030443478 0.028123058 0.031962965 -0.020306602 -0.005880714
-0.027911633 -0.0050409115 0.035279293 0.02794731 -0.032188956 0.008391068 0.0034719484 0.0016899707
-0.0030209525 0.01410804 -0.012664898 -0.0314463 -0.030454101 0.031514566 -0.008769126 0.008787931
